| 07-01 16:44:53 EXPERIMENT BEGIN: 
| 07-01 16:44:53 logging into exp/gridsearch/edp-gnn_ego_18_small__Jul-01-16-44-53_15190/info.log
| 07-01 16:44:53 load dataset: ego_small
200
| 07-01 16:44:56 model: EdgeDensePredictionGraphScoreNetwork(
  (gnn_list): ModuleList(
    (0): EdgeDensePredictionGNNLayer(
      (multi_channel_gnn_module): GIN(
        (linear_prediction): ModuleList(
          (0): Sequential(
            (0): Linear(in_features=3, out_features=32, bias=True)
            (1): LeakyReLU(negative_slope=0.01)
            (2): Linear(in_features=32, out_features=16, bias=True)
          )
          (1): Sequential(
            (0): Linear(in_features=16, out_features=32, bias=True)
            (1): LeakyReLU(negative_slope=0.01)
            (2): Linear(in_features=32, out_features=16, bias=True)
          )
          (2): Sequential(
            (0): Linear(in_features=16, out_features=32, bias=True)
            (1): LeakyReLU(negative_slope=0.01)
            (2): Linear(in_features=32, out_features=16, bias=True)
          )
          (3): Sequential(
            (0): Linear(in_features=16, out_features=32, bias=True)
            (1): LeakyReLU(negative_slope=0.01)
            (2): Linear(in_features=32, out_features=16, bias=True)
          )
          (4): Sequential(
            (0): Linear(in_features=16, out_features=32, bias=True)
            (1): LeakyReLU(negative_slope=0.01)
            (2): Linear(in_features=32, out_features=16, bias=True)
          )
          (5): Sequential(
            (0): Linear(in_features=16, out_features=32, bias=True)
            (1): LeakyReLU(negative_slope=0.01)
            (2): Linear(in_features=32, out_features=16, bias=True)
          )
          (6): Sequential(
            (0): Linear(in_features=16, out_features=32, bias=True)
            (1): LeakyReLU(negative_slope=0.01)
            (2): Linear(in_features=32, out_features=16, bias=True)
          )
        )
        (layers): ModuleList(
          (0): MLP(
            (linears): ModuleList(
              (0): Linear(in_features=6, out_features=32, bias=True)
              (1): Linear(in_features=32, out_features=16, bias=True)
            )
          )
          (1): MLP(
            (linears): ModuleList(
              (0): Linear(in_features=32, out_features=32, bias=True)
              (1): Linear(in_features=32, out_features=16, bias=True)
            )
          )
          (2): MLP(
            (linears): ModuleList(
              (0): Linear(in_features=32, out_features=32, bias=True)
              (1): Linear(in_features=32, out_features=16, bias=True)
            )
          )
          (3): MLP(
            (linears): ModuleList(
              (0): Linear(in_features=32, out_features=32, bias=True)
              (1): Linear(in_features=32, out_features=16, bias=True)
            )
          )
          (4): MLP(
            (linears): ModuleList(
              (0): Linear(in_features=32, out_features=32, bias=True)
              (1): Linear(in_features=32, out_features=16, bias=True)
            )
          )
          (5): MLP(
            (linears): ModuleList(
              (0): Linear(in_features=32, out_features=32, bias=True)
              (1): Linear(in_features=32, out_features=16, bias=True)
            )
          )
        )
      )
      (translate_mlp): MLP(
        (linears): ModuleList(
          (0): Linear(in_features=34, out_features=4, bias=True)
          (1): Linear(in_features=4, out_features=4, bias=True)
          (2): Linear(in_features=4, out_features=2, bias=True)
        )
        (batch_norms): ModuleList(
          (0): BatchNorm1d(4, eps=1e-05, momentum=0.1, affine=True, track_running_stats=True)
          (1): BatchNorm1d(4, eps=1e-05, momentum=0.1, affine=True, track_running_stats=True)
        )
        (cond_layers): ModuleList(
          (0): ConditionalLayer1d()
          (1): ConditionalLayer1d()
        )
      )
    )
    (1): EdgeDensePredictionGNNLayer(
      (multi_channel_gnn_module): GIN(
        (linear_prediction): ModuleList(
          (0): Sequential(
            (0): Linear(in_features=18, out_features=36, bias=True)
            (1): LeakyReLU(negative_slope=0.01)
            (2): Linear(in_features=36, out_features=16, bias=True)
          )
          (1): Sequential(
            (0): Linear(in_features=16, out_features=36, bias=True)
            (1): LeakyReLU(negative_slope=0.01)
            (2): Linear(in_features=36, out_features=16, bias=True)
          )
          (2): Sequential(
            (0): Linear(in_features=16, out_features=36, bias=True)
            (1): LeakyReLU(negative_slope=0.01)
            (2): Linear(in_features=36, out_features=16, bias=True)
          )
          (3): Sequential(
            (0): Linear(in_features=16, out_features=36, bias=True)
            (1): LeakyReLU(negative_slope=0.01)
            (2): Linear(in_features=36, out_features=16, bias=True)
          )
          (4): Sequential(
            (0): Linear(in_features=16, out_features=36, bias=True)
            (1): LeakyReLU(negative_slope=0.01)
            (2): Linear(in_features=36, out_features=16, bias=True)
          )
          (5): Sequential(
            (0): Linear(in_features=16, out_features=36, bias=True)
            (1): LeakyReLU(negative_slope=0.01)
            (2): Linear(in_features=36, out_features=16, bias=True)
          )
          (6): Sequential(
            (0): Linear(in_features=16, out_features=36, bias=True)
            (1): LeakyReLU(negative_slope=0.01)
            (2): Linear(in_features=36, out_features=16, bias=True)
          )
        )
        (layers): ModuleList(
          (0): MLP(
            (linears): ModuleList(
              (0): Linear(in_features=36, out_features=36, bias=True)
              (1): Linear(in_features=36, out_features=16, bias=True)
            )
          )
          (1): MLP(
            (linears): ModuleList(
              (0): Linear(in_features=32, out_features=36, bias=True)
              (1): Linear(in_features=36, out_features=16, bias=True)
            )
          )
          (2): MLP(
            (linears): ModuleList(
              (0): Linear(in_features=32, out_features=36, bias=True)
              (1): Linear(in_features=36, out_features=16, bias=True)
            )
          )
          (3): MLP(
            (linears): ModuleList(
              (0): Linear(in_features=32, out_features=36, bias=True)
              (1): Linear(in_features=36, out_features=16, bias=True)
            )
          )
          (4): MLP(
            (linears): ModuleList(
              (0): Linear(in_features=32, out_features=36, bias=True)
              (1): Linear(in_features=36, out_features=16, bias=True)
            )
          )
          (5): MLP(
            (linears): ModuleList(
              (0): Linear(in_features=32, out_features=36, bias=True)
              (1): Linear(in_features=36, out_features=16, bias=True)
            )
          )
        )
      )
      (translate_mlp): MLP(
        (linears): ModuleList(
          (0): Linear(in_features=34, out_features=8, bias=True)
          (1): Linear(in_features=8, out_features=8, bias=True)
          (2): Linear(in_features=8, out_features=4, bias=True)
        )
        (batch_norms): ModuleList(
          (0): BatchNorm1d(8, eps=1e-05, momentum=0.1, affine=True, track_running_stats=True)
          (1): BatchNorm1d(8, eps=1e-05, momentum=0.1, affine=True, track_running_stats=True)
        )
        (cond_layers): ModuleList(
          (0): ConditionalLayer1d()
          (1): ConditionalLayer1d()
        )
      )
    )
    (2): EdgeDensePredictionGNNLayer(
      (multi_channel_gnn_module): GIN(
        (linear_prediction): ModuleList(
          (0): Sequential(
            (0): Linear(in_features=20, out_features=40, bias=True)
            (1): LeakyReLU(negative_slope=0.01)
            (2): Linear(in_features=40, out_features=32, bias=True)
          )
          (1): Sequential(
            (0): Linear(in_features=16, out_features=40, bias=True)
            (1): LeakyReLU(negative_slope=0.01)
            (2): Linear(in_features=40, out_features=32, bias=True)
          )
          (2): Sequential(
            (0): Linear(in_features=16, out_features=40, bias=True)
            (1): LeakyReLU(negative_slope=0.01)
            (2): Linear(in_features=40, out_features=32, bias=True)
          )
          (3): Sequential(
            (0): Linear(in_features=16, out_features=40, bias=True)
            (1): LeakyReLU(negative_slope=0.01)
            (2): Linear(in_features=40, out_features=32, bias=True)
          )
          (4): Sequential(
            (0): Linear(in_features=16, out_features=40, bias=True)
            (1): LeakyReLU(negative_slope=0.01)
            (2): Linear(in_features=40, out_features=32, bias=True)
          )
          (5): Sequential(
            (0): Linear(in_features=16, out_features=40, bias=True)
            (1): LeakyReLU(negative_slope=0.01)
            (2): Linear(in_features=40, out_features=32, bias=True)
          )
          (6): Sequential(
            (0): Linear(in_features=16, out_features=40, bias=True)
            (1): LeakyReLU(negative_slope=0.01)
            (2): Linear(in_features=40, out_features=32, bias=True)
          )
        )
        (layers): ModuleList(
          (0): MLP(
            (linears): ModuleList(
              (0): Linear(in_features=80, out_features=40, bias=True)
              (1): Linear(in_features=40, out_features=16, bias=True)
            )
          )
          (1): MLP(
            (linears): ModuleList(
              (0): Linear(in_features=64, out_features=40, bias=True)
              (1): Linear(in_features=40, out_features=16, bias=True)
            )
          )
          (2): MLP(
            (linears): ModuleList(
              (0): Linear(in_features=64, out_features=40, bias=True)
              (1): Linear(in_features=40, out_features=16, bias=True)
            )
          )
          (3): MLP(
            (linears): ModuleList(
              (0): Linear(in_features=64, out_features=40, bias=True)
              (1): Linear(in_features=40, out_features=16, bias=True)
            )
          )
          (4): MLP(
            (linears): ModuleList(
              (0): Linear(in_features=64, out_features=40, bias=True)
              (1): Linear(in_features=40, out_features=16, bias=True)
            )
          )
          (5): MLP(
            (linears): ModuleList(
              (0): Linear(in_features=64, out_features=40, bias=True)
              (1): Linear(in_features=40, out_features=16, bias=True)
            )
          )
        )
      )
      (translate_mlp): MLP(
        (linears): ModuleList(
          (0): Linear(in_features=68, out_features=16, bias=True)
          (1): Linear(in_features=16, out_features=16, bias=True)
          (2): Linear(in_features=16, out_features=8, bias=True)
        )
        (batch_norms): ModuleList(
          (0): BatchNorm1d(16, eps=1e-05, momentum=0.1, affine=True, track_running_stats=True)
          (1): BatchNorm1d(16, eps=1e-05, momentum=0.1, affine=True, track_running_stats=True)
        )
        (cond_layers): ModuleList(
          (0): ConditionalLayer1d()
          (1): ConditionalLayer1d()
        )
      )
    )
    (3): EdgeDensePredictionGNNLayer(
      (multi_channel_gnn_module): GIN(
        (linear_prediction): ModuleList(
          (0): Sequential(
            (0): Linear(in_features=40, out_features=80, bias=True)
            (1): LeakyReLU(negative_slope=0.01)
            (2): Linear(in_features=80, out_features=64, bias=True)
          )
          (1): Sequential(
            (0): Linear(in_features=16, out_features=80, bias=True)
            (1): LeakyReLU(negative_slope=0.01)
            (2): Linear(in_features=80, out_features=64, bias=True)
          )
          (2): Sequential(
            (0): Linear(in_features=16, out_features=80, bias=True)
            (1): LeakyReLU(negative_slope=0.01)
            (2): Linear(in_features=80, out_features=64, bias=True)
          )
          (3): Sequential(
            (0): Linear(in_features=16, out_features=80, bias=True)
            (1): LeakyReLU(negative_slope=0.01)
            (2): Linear(in_features=80, out_features=64, bias=True)
          )
          (4): Sequential(
            (0): Linear(in_features=16, out_features=80, bias=True)
            (1): LeakyReLU(negative_slope=0.01)
            (2): Linear(in_features=80, out_features=64, bias=True)
          )
          (5): Sequential(
            (0): Linear(in_features=16, out_features=80, bias=True)
            (1): LeakyReLU(negative_slope=0.01)
            (2): Linear(in_features=80, out_features=64, bias=True)
          )
          (6): Sequential(
            (0): Linear(in_features=16, out_features=80, bias=True)
            (1): LeakyReLU(negative_slope=0.01)
            (2): Linear(in_features=80, out_features=64, bias=True)
          )
        )
        (layers): ModuleList(
          (0): MLP(
            (linears): ModuleList(
              (0): Linear(in_features=320, out_features=80, bias=True)
              (1): Linear(in_features=80, out_features=16, bias=True)
            )
          )
          (1): MLP(
            (linears): ModuleList(
              (0): Linear(in_features=128, out_features=80, bias=True)
              (1): Linear(in_features=80, out_features=16, bias=True)
            )
          )
          (2): MLP(
            (linears): ModuleList(
              (0): Linear(in_features=128, out_features=80, bias=True)
              (1): Linear(in_features=80, out_features=16, bias=True)
            )
          )
          (3): MLP(
            (linears): ModuleList(
              (0): Linear(in_features=128, out_features=80, bias=True)
              (1): Linear(in_features=80, out_features=16, bias=True)
            )
          )
          (4): MLP(
            (linears): ModuleList(
              (0): Linear(in_features=128, out_features=80, bias=True)
              (1): Linear(in_features=80, out_features=16, bias=True)
            )
          )
          (5): MLP(
            (linears): ModuleList(
              (0): Linear(in_features=128, out_features=80, bias=True)
              (1): Linear(in_features=80, out_features=16, bias=True)
            )
          )
        )
      )
      (translate_mlp): MLP(
        (linears): ModuleList(
          (0): Linear(in_features=136, out_features=32, bias=True)
          (1): Linear(in_features=32, out_features=32, bias=True)
          (2): Linear(in_features=32, out_features=16, bias=True)
        )
        (batch_norms): ModuleList(
          (0): BatchNorm1d(32, eps=1e-05, momentum=0.1, affine=True, track_running_stats=True)
          (1): BatchNorm1d(32, eps=1e-05, momentum=0.1, affine=True, track_running_stats=True)
        )
        (cond_layers): ModuleList(
          (0): ConditionalLayer1d()
          (1): ConditionalLayer1d()
        )
      )
    )
    (4): EdgeDensePredictionGNNLayer(
      (multi_channel_gnn_module): GIN(
        (linear_prediction): ModuleList(
          (0): Sequential(
            (0): Linear(in_features=80, out_features=160, bias=True)
            (1): LeakyReLU(negative_slope=0.01)
            (2): Linear(in_features=160, out_features=64, bias=True)
          )
          (1): Sequential(
            (0): Linear(in_features=16, out_features=160, bias=True)
            (1): LeakyReLU(negative_slope=0.01)
            (2): Linear(in_features=160, out_features=64, bias=True)
          )
          (2): Sequential(
            (0): Linear(in_features=16, out_features=160, bias=True)
            (1): LeakyReLU(negative_slope=0.01)
            (2): Linear(in_features=160, out_features=64, bias=True)
          )
          (3): Sequential(
            (0): Linear(in_features=16, out_features=160, bias=True)
            (1): LeakyReLU(negative_slope=0.01)
            (2): Linear(in_features=160, out_features=64, bias=True)
          )
          (4): Sequential(
            (0): Linear(in_features=16, out_features=160, bias=True)
            (1): LeakyReLU(negative_slope=0.01)
            (2): Linear(in_features=160, out_features=64, bias=True)
          )
          (5): Sequential(
            (0): Linear(in_features=16, out_features=160, bias=True)
            (1): LeakyReLU(negative_slope=0.01)
            (2): Linear(in_features=160, out_features=64, bias=True)
          )
          (6): Sequential(
            (0): Linear(in_features=16, out_features=160, bias=True)
            (1): LeakyReLU(negative_slope=0.01)
            (2): Linear(in_features=160, out_features=64, bias=True)
          )
        )
        (layers): ModuleList(
          (0): MLP(
            (linears): ModuleList(
              (0): Linear(in_features=1280, out_features=160, bias=True)
              (1): Linear(in_features=160, out_features=16, bias=True)
            )
          )
          (1): MLP(
            (linears): ModuleList(
              (0): Linear(in_features=256, out_features=160, bias=True)
              (1): Linear(in_features=160, out_features=16, bias=True)
            )
          )
          (2): MLP(
            (linears): ModuleList(
              (0): Linear(in_features=256, out_features=160, bias=True)
              (1): Linear(in_features=160, out_features=16, bias=True)
            )
          )
          (3): MLP(
            (linears): ModuleList(
              (0): Linear(in_features=256, out_features=160, bias=True)
              (1): Linear(in_features=160, out_features=16, bias=True)
            )
          )
          (4): MLP(
            (linears): ModuleList(
              (0): Linear(in_features=256, out_features=160, bias=True)
              (1): Linear(in_features=160, out_features=16, bias=True)
            )
          )
          (5): MLP(
            (linears): ModuleList(
              (0): Linear(in_features=256, out_features=160, bias=True)
              (1): Linear(in_features=160, out_features=16, bias=True)
            )
          )
        )
      )
      (translate_mlp): MLP(
        (linears): ModuleList(
          (0): Linear(in_features=144, out_features=32, bias=True)
          (1): Linear(in_features=32, out_features=32, bias=True)
          (2): Linear(in_features=32, out_features=16, bias=True)
        )
        (batch_norms): ModuleList(
          (0): BatchNorm1d(32, eps=1e-05, momentum=0.1, affine=True, track_running_stats=True)
          (1): BatchNorm1d(32, eps=1e-05, momentum=0.1, affine=True, track_running_stats=True)
        )
        (cond_layers): ModuleList(
          (0): ConditionalLayer1d()
          (1): ConditionalLayer1d()
        )
      )
    )
    (5): EdgeDensePredictionGNNLayer(
      (multi_channel_gnn_module): GIN(
        (linear_prediction): ModuleList(
          (0): Sequential(
            (0): Linear(in_features=80, out_features=160, bias=True)
            (1): LeakyReLU(negative_slope=0.01)
            (2): Linear(in_features=160, out_features=32, bias=True)
          )
          (1): Sequential(
            (0): Linear(in_features=16, out_features=160, bias=True)
            (1): LeakyReLU(negative_slope=0.01)
            (2): Linear(in_features=160, out_features=32, bias=True)
          )
          (2): Sequential(
            (0): Linear(in_features=16, out_features=160, bias=True)
            (1): LeakyReLU(negative_slope=0.01)
            (2): Linear(in_features=160, out_features=32, bias=True)
          )
          (3): Sequential(
            (0): Linear(in_features=16, out_features=160, bias=True)
            (1): LeakyReLU(negative_slope=0.01)
            (2): Linear(in_features=160, out_features=32, bias=True)
          )
          (4): Sequential(
            (0): Linear(in_features=16, out_features=160, bias=True)
            (1): LeakyReLU(negative_slope=0.01)
            (2): Linear(in_features=160, out_features=32, bias=True)
          )
          (5): Sequential(
            (0): Linear(in_features=16, out_features=160, bias=True)
            (1): LeakyReLU(negative_slope=0.01)
            (2): Linear(in_features=160, out_features=32, bias=True)
          )
          (6): Sequential(
            (0): Linear(in_features=16, out_features=160, bias=True)
            (1): LeakyReLU(negative_slope=0.01)
            (2): Linear(in_features=160, out_features=32, bias=True)
          )
        )
        (layers): ModuleList(
          (0): MLP(
            (linears): ModuleList(
              (0): Linear(in_features=1280, out_features=160, bias=True)
              (1): Linear(in_features=160, out_features=16, bias=True)
            )
          )
          (1): MLP(
            (linears): ModuleList(
              (0): Linear(in_features=256, out_features=160, bias=True)
              (1): Linear(in_features=160, out_features=16, bias=True)
            )
          )
          (2): MLP(
            (linears): ModuleList(
              (0): Linear(in_features=256, out_features=160, bias=True)
              (1): Linear(in_features=160, out_features=16, bias=True)
            )
          )
          (3): MLP(
            (linears): ModuleList(
              (0): Linear(in_features=256, out_features=160, bias=True)
              (1): Linear(in_features=160, out_features=16, bias=True)
            )
          )
          (4): MLP(
            (linears): ModuleList(
              (0): Linear(in_features=256, out_features=160, bias=True)
              (1): Linear(in_features=160, out_features=16, bias=True)
            )
          )
          (5): MLP(
            (linears): ModuleList(
              (0): Linear(in_features=256, out_features=160, bias=True)
              (1): Linear(in_features=160, out_features=16, bias=True)
            )
          )
        )
      )
      (translate_mlp): MLP(
        (linears): ModuleList(
          (0): Linear(in_features=80, out_features=32, bias=True)
          (1): Linear(in_features=32, out_features=32, bias=True)
          (2): Linear(in_features=32, out_features=8, bias=True)
        )
        (batch_norms): ModuleList(
          (0): BatchNorm1d(32, eps=1e-05, momentum=0.1, affine=True, track_running_stats=True)
          (1): BatchNorm1d(32, eps=1e-05, momentum=0.1, affine=True, track_running_stats=True)
        )
        (cond_layers): ModuleList(
          (0): ConditionalLayer1d()
          (1): ConditionalLayer1d()
        )
      )
    )
    (6): EdgeDensePredictionGNNLayer(
      (multi_channel_gnn_module): GIN(
        (linear_prediction): ModuleList(
          (0): Sequential(
            (0): Linear(in_features=40, out_features=80, bias=True)
            (1): LeakyReLU(negative_slope=0.01)
            (2): Linear(in_features=80, out_features=16, bias=True)
          )
          (1): Sequential(
            (0): Linear(in_features=16, out_features=80, bias=True)
            (1): LeakyReLU(negative_slope=0.01)
            (2): Linear(in_features=80, out_features=16, bias=True)
          )
          (2): Sequential(
            (0): Linear(in_features=16, out_features=80, bias=True)
            (1): LeakyReLU(negative_slope=0.01)
            (2): Linear(in_features=80, out_features=16, bias=True)
          )
          (3): Sequential(
            (0): Linear(in_features=16, out_features=80, bias=True)
            (1): LeakyReLU(negative_slope=0.01)
            (2): Linear(in_features=80, out_features=16, bias=True)
          )
          (4): Sequential(
            (0): Linear(in_features=16, out_features=80, bias=True)
            (1): LeakyReLU(negative_slope=0.01)
            (2): Linear(in_features=80, out_features=16, bias=True)
          )
          (5): Sequential(
            (0): Linear(in_features=16, out_features=80, bias=True)
            (1): LeakyReLU(negative_slope=0.01)
            (2): Linear(in_features=80, out_features=16, bias=True)
          )
          (6): Sequential(
            (0): Linear(in_features=16, out_features=80, bias=True)
            (1): LeakyReLU(negative_slope=0.01)
            (2): Linear(in_features=80, out_features=16, bias=True)
          )
        )
        (layers): ModuleList(
          (0): MLP(
            (linears): ModuleList(
              (0): Linear(in_features=320, out_features=80, bias=True)
              (1): Linear(in_features=80, out_features=16, bias=True)
            )
          )
          (1): MLP(
            (linears): ModuleList(
              (0): Linear(in_features=128, out_features=80, bias=True)
              (1): Linear(in_features=80, out_features=16, bias=True)
            )
          )
          (2): MLP(
            (linears): ModuleList(
              (0): Linear(in_features=128, out_features=80, bias=True)
              (1): Linear(in_features=80, out_features=16, bias=True)
            )
          )
          (3): MLP(
            (linears): ModuleList(
              (0): Linear(in_features=128, out_features=80, bias=True)
              (1): Linear(in_features=80, out_features=16, bias=True)
            )
          )
          (4): MLP(
            (linears): ModuleList(
              (0): Linear(in_features=128, out_features=80, bias=True)
              (1): Linear(in_features=80, out_features=16, bias=True)
            )
          )
          (5): MLP(
            (linears): ModuleList(
              (0): Linear(in_features=128, out_features=80, bias=True)
              (1): Linear(in_features=80, out_features=16, bias=True)
            )
          )
        )
      )
      (translate_mlp): MLP(
        (linears): ModuleList(
          (0): Linear(in_features=40, out_features=16, bias=True)
          (1): Linear(in_features=16, out_features=16, bias=True)
          (2): Linear(in_features=16, out_features=4, bias=True)
        )
        (batch_norms): ModuleList(
          (0): BatchNorm1d(16, eps=1e-05, momentum=0.1, affine=True, track_running_stats=True)
          (1): BatchNorm1d(16, eps=1e-05, momentum=0.1, affine=True, track_running_stats=True)
        )
        (cond_layers): ModuleList(
          (0): ConditionalLayer1d()
          (1): ConditionalLayer1d()
        )
      )
    )
  )
  (final_read_score): MLP(
    (linears): ModuleList(
      (0): Linear(in_features=60, out_features=120, bias=True)
      (1): Linear(in_features=120, out_features=120, bias=True)
      (2): Linear(in_features=120, out_features=1, bias=True)
    )
    (cond_layers): ModuleList(
      (0): ConditionalLayer1d()
      (1): ConditionalLayer1d()
    )
  )
)
| 07-01 16:44:56 Parameters: 
gnn_list.0.multi_channel_gnn_module.eps ........................................................................ torch.Size([6])
gnn_list.0.multi_channel_gnn_module.linear_prediction.0.0.weight ........................................... torch.Size([32, 3])
…
