| 07-01 17:42:58 EXPERIMENT BEGIN: 
| 07-01 17:42:58 logging into exp/gridsearch/ppgn_ego_18_small__Jul-01-17-42-58_155987/info.log
| 07-01 17:42:58 load dataset: ego_small
200
| 07-01 17:43:00 model: Powerful(
  (activation): LeakyReLU(negative_slope=0.01)
  (time_mlp): Sequential(
    (0): Linear(in_features=1, out_features=4, bias=True)
    (1): GELU()
    (2): Linear(in_features=4, out_features=1, bias=True)
  )
  (in_lin): Sequential(
    (0): Linear(in_features=2, out_features=128, bias=True)
  )
  (layer_cat_lin): Sequential(
    (0): Linear(in_features=1026, out_features=128, bias=True)
  )
  (convs): ModuleList(
    (0): PowerfulLayer(
      (m1): Sequential(
        (0): Linear(in_features=128, out_features=128, bias=True)
        (1): LeakyReLU(negative_slope=0.01)
        (2): Linear(in_features=128, out_features=128, bias=True)
      )
      (m2): Sequential(
        (0): Linear(in_features=128, out_features=128, bias=True)
        (1): LeakyReLU(negative_slope=0.01)
        (2): Linear(in_features=128, out_features=128, bias=True)
      )
      (m4): Sequential(
        (0): Linear(in_features=256, out_features=128, bias=True)
      )
    )
    (1): PowerfulLayer(
      (m1): Sequential(
        (0): Linear(in_features=128, out_features=128, bias=True)
        (1): LeakyReLU(negative_slope=0.01)
        (2): Linear(in_features=128, out_features=128, bias=True)
      )
      (m2): Sequential(
        (0): Linear(in_features=128, out_features=128, bias=True)
        (1): LeakyReLU(negative_slope=0.01)
        (2): Linear(in_features=128, out_features=128, bias=True)
      )
      (m4): Sequential(
        (0): Linear(in_features=256, out_features=128, bias=True)
      )
    )
    (2): PowerfulLayer(
      (m1): Sequential(
        (0): Linear(in_features=128, out_features=128, bias=True)
        (1): LeakyReLU(negative_slope=0.01)
        (2): Linear(in_features=128, out_features=128, bias=True)
      )
      (m2): Sequential(
        (0): Linear(in_features=128, out_features=128, bias=True)
        (1): LeakyReLU(negative_slope=0.01)
        (2): Linear(in_features=128, out_features=128, bias=True)
      )
      (m4): Sequential(
        (0): Linear(in_features=256, out_features=128, bias=True)
      )
    )
    (3): PowerfulLayer(
      (m1): Sequential(
        (0): Linear(in_features=128, out_features=128, bias=True)
        (1): LeakyReLU(negative_slope=0.01)
        (2): Linear(in_features=128, out_features=128, bias=True)
      )
      (m2): Sequential(
        (0): Linear(in_features=128, out_features=128, bias=True)
        (1): LeakyReLU(negative_slope=0.01)
        (2): Linear(in_features=128, out_features=128, bias=True)
      )
      (m4): Sequential(
        (0): Linear(in_features=256, out_features=128, bias=True)
      )
    )
    (4): PowerfulLayer(
      (m1): Sequential(
        (0): Linear(in_features=128, out_features=128, bias=True)
        (1): LeakyReLU(negative_slope=0.01)
        (2): Linear(in_features=128, out_features=128, bias=True)
      )
      (m2): Sequential(
        (0): Linear(in_features=128, out_features=128, bias=True)
        (1): LeakyReLU(negative_slope=0.01)
        (2): Linear(in_features=128, out_features=128, bias=True)
      )
      (m4): Sequential(
        (0): Linear(in_features=256, out_features=128, bias=True)
      )
    )
    (5): PowerfulLayer(
      (m1): Sequential(
        (0): Linear(in_features=128, out_features=128, bias=True)
        (1): LeakyReLU(negative_slope=0.01)
        (2): Linear(in_features=128, out_features=128, bias=True)
      )
      (m2): Sequential(
        (0): Linear(in_features=128, out_features=128, bias=True)
        (1): LeakyReLU(negative_slope=0.01)
        (2): Linear(in_features=128, out_features=128, bias=True)
      )
      (m4): Sequential(
        (0): Linear(in_features=256, out_features=128, bias=True)
      )
    )
    (6): PowerfulLayer(
      (m1): Sequential(
        (0): Linear(in_features=128, out_features=128, bias=True)
        (1): LeakyReLU(negative_slope=0.01)
        (2): Linear(in_features=128, out_features=128, bias=True)
      )
      (m2): Sequential(
        (0): Linear(in_features=128, out_features=128, bias=True)
        (1): LeakyReLU(negative_slope=0.01)
        (2): Linear(in_features=128, out_features=128, bias=True)
      )
      (m4): Sequential(
        (0): Linear(in_features=256, out_features=128, bias=True)
      )
    )
    (7): PowerfulLayer(
      (m1): Sequential(
        (0): Linear(in_features=128, out_features=128, bias=True)
        (1): LeakyReLU(negative_slope=0.01)
        (2): Linear(in_features=128, out_features=128, bias=True)
      )
      (m2): Sequential(
        (0): Linear(in_features=128, out_features=128, bias=True)
        (1): LeakyReLU(negative_slope=0.01)
        (2): Linear(in_features=128, out_features=128, bias=True)
      )
      (m4): Sequential(
        (0): Linear(in_features=256, out_features=128, bias=True)
      )
    )
  )
  (bns): ModuleList(
    (0): None
    (1): None
    (2): None
    (3): None
    (4): None
    (5): None
    (6): None
    (7): None
  )
  (feature_extractors): ModuleList(
    (0): FeatureExtractor(
      (lin1): Sequential(
        (0): Linear(in_features=128, out_features=128, bias=True)
      )
      (lin2): Sequential(
        (0): Linear(in_features=128, out_features=128, bias=False)
      )
      (lin3): Sequential(
        (0): Linear(in_features=128, out_features=128, bias=False)
      )
      (activation): LeakyReLU(negative_slope=0.01)
    )
    (1): FeatureExtractor(
      (lin1): Sequential(
        (0): Linear(in_features=128, out_features=128, bias=True)
      )
      (lin2): Sequential(
        (0): Linear(in_features=128, out_features=128, bias=False)
      )
      (lin3): Sequential(
        (0): Linear(in_features=128, out_features=128, bias=False)
      )
      (activation): LeakyReLU(negative_slope=0.01)
    )
    (2): FeatureExtractor(
      (lin1): Sequential(
        (0): Linear(in_features=128, out_features=128, bias=True)
      )
      (lin2): Sequential(
        (0): Linear(in_features=128, out_features=128, bias=False)
      )
      (lin3): Sequential(
        (0): Linear(in_features=128, out_features=128, bias=False)
      )
      (activation): LeakyReLU(negative_slope=0.01)
    )
    (3): FeatureExtractor(
      (lin1): Sequential(
        (0): Linear(in_features=128, out_features=128, bias=True)
      )
      (lin2): Sequential(
        (0): Linear(in_features=128, out_features=128, bias=False)
      )
      (lin3): Sequential(
        (0): Linear(in_features=128, out_features=128, bias=False)
      )
      (activation): LeakyReLU(negative_slope=0.01)
    )
    (4): FeatureExtractor(
      (lin1): Sequential(
        (0): Linear(in_features=128, out_features=128, bias=True)
      )
      (lin2): Sequential(
        (0): Linear(in_features=128, out_features=128, bias=False)
      )
      (lin3): Sequential(
        (0): Linear(in_features=128, out_features=128, bias=False)
      )
      (activation): LeakyReLU(negative_slope=0.01)
    )
    (5): FeatureExtractor(
      (lin1): Sequential(
        (0): Linear(in_features=128, out_features=128, bias=True)
      )
      (lin2): Sequential(
        (0): Linear(in_features=128, out_features=128, bias=False)
      )
      (lin3): Sequential(
        (0): Linear(in_features=128, out_features=128, bias=False)
      )
      (activation): LeakyReLU(negative_slope=0.01)
    )
    (6): FeatureExtractor(
      (lin1): Sequential(
        (0): Linear(in_features=128, out_features=128, bias=True)
      )
      (lin2): Sequential(
        (0): Linear(in_features=128, out_features=128, bias=False)
      )
      (lin3): Sequential(
        (0): Linear(in_features=128, out_features=128, bias=False)
      )
      (activation): LeakyReLU(negative_slope=0.01)
    )
    (7): FeatureExtractor(
      (lin1): Sequential(
        (0): Linear(in_features=128, out_features=128, bias=True)
      )
      (lin2): Sequential(
        (0): Linear(in_features=128, out_features=128, bias=False)
      )
      (lin3): Sequential(
        (0): Linear(in_features=128, out_features=128, bias=False)
      )
      (activation): LeakyReLU(negative_slope=0.01)
    )
  )
  (after_conv): Sequential(
    (0): Linear(in_features=128, out_features=128, bias=True)
  )
  (final_lin): Sequential(
    (0): Linear(in_features=128, out_features=1, bias=True)
  )
)
| 07-01 17:43:00 Parameters: 
time_mlp.0.weight ........................................................................................... torch.Size([4, 1])
time_mlp.0.bias ................................................................................................ torch.Size([4])
time_mlp.2.weight ........................................................................................... torch.Size([1, 4])
…
| 07-01 17:43:22 epoch: 002| train loss i: nan test loss i: nan | 
| 07-01 17:43:22 epoch: 002| time: 4.5s| train loss: +3.041e-02 | test loss: +3.464e-02 | 
| 07-01 17:43:22 epoch: 002| train loss i: nan test loss i: nan | 
| 07-01 17:43:27 epoch: 003| time: 4.4s| train loss: +2.937e-02 | test loss: +3.249e-02 | 
| 07-01 17:43:27 epoch: 003| train loss i: nan test loss i: nan | 
| 07-01 17:43:27 epoch: 003| time: 4.6s| train loss: +2.937e-02 | test loss: +3.249e-02 | 
| 07-01 17:43:27 epoch: 003| train loss i: nan test loss i: nan | 
| 07-01 17:43:27 model: Powerful(
  (activation): LeakyReLU(negative_slope=0.01)
  (time_mlp): Sequential(
    (0): Linear(in_features=1, out_features=4, bias=True)
    (1): GELU()
    (2): Linear(in_features=4, out_features=1, bias=True)
  )
  (in_lin): Sequential(
    (0): Linear(in_features=2, out_features=128, bias=True)
  )
  (layer_cat_lin): Sequential(
    (0): Linear(in_features=1026, out_features=128, bias=True)
  )
  (convs): ModuleList(
    (0): PowerfulLayer(
      (m1): Sequential(
        (0): Linear(in_features=128, out_features=128, bias=True)
        (1): LeakyReLU(negative_slope=0.01)
        (2): Linear(in_features=128, out_features=128, bias=True)
      )
      (m2): Sequential(
        (0): Linear(in_features=128, out_features=128, bias=True)
        (1): LeakyReLU(negative_slope=0.01)
        (2): Linear(in_features=128, out_features=128, bias=True)
      )
      (m4): Sequential(
        (0): Linear(in_features=256, out_features=128, bias=True)
      )
    )
    (1): PowerfulLayer(
      (m1): Sequential(
        (0): Linear(in_features=128, out_features=128, bias=True)
        (1): LeakyReLU(negative_slope=0.01)
        (2): Linear(in_features=128, out_features=128, bias=True)
      )
      (m2): Sequential(
        (0): Linear(in_features=128, out_features=128, bias=True)
        (1): LeakyReLU(negative_slope=0.01)
        (2): Linear(in_features=128, out_features=128, bias=True)
      )
      (m4): Sequential(
        (0): Linear(in_features=256, out_features=128, bias=True)
      )
    )
    (2): PowerfulLayer(
      (m1): Sequential(
        (0): Linear(in_features=128, out_features=128, bias=True)
        (1): LeakyReLU(negative_slope=0.01)
        (2): Linear(in_features=128, out_features=128, bias=True)
      )
      (m2): Sequential(
        (0): Linear(in_features=128, out_features=128, bias=True)
        (1): LeakyReLU(negative_slope=0.01)
        (2): Linear(in_features=128, out_features=128, bias=True)
      )
      (m4): Sequential(
        (0): Linear(in_features=256, out_features=128, bias=True)
      )
    )
    (3): PowerfulLayer(
      (m1): Sequential(
        (0): Linear(in_features=128, out_features=128, bias=True)
        (1): LeakyReLU(negative_slope=0.01)
        (2): Linear(in_features=128, out_features=128, bias=True)
      )
      (m2): Sequential(
        (0): Linear(in_features=128, out_features=128, bias=True)
        (1): LeakyReLU(negative_slope=0.01)
        (2): Linear(in_features=128, out_features=128, bias=True)
      )
      (m4): Sequential(
        (0): Linear(in_features=256, out_features=128, bias=True)
      )
    )
    (4): PowerfulLayer(
      (m1): Sequential(
        (0): Linear(in_features=128, out_features=128, bias=True)
        (1): LeakyReLU(negative_slope=0.01)
        (2): Linear(in_features=128, out_features=128, bias=True)
      )
      (m2): Sequential(
        (0): Linear(in_features=128, out_features=128, bias=True)
        (1): LeakyReLU(negative_slope=0.01)
        (2): Linear(in_features=128, out_features=128, bias=True)
      )
      (m4): Sequential(
        (0): Linear(in_features=256, out_features=128, bias=True)
      )
    )
    (5): PowerfulLayer(
      (m1): Sequential(
        (0): Linear(in_features=128, out_features=128, bias=True)
        (1): LeakyReLU(negative_slope=0.01)
        (2): Linear(in_features=128, out_features=128, bias=True)
      )
      (m2): Sequential(
        (0): Linear(in_features=128, out_features=128, bias=True)
        (1): LeakyReLU(negative_slope=0.01)
        (2): Linear(in_features=128, out_features=128, bias=True)
      )
      (m4): Sequential(
        (0): Linear(in_features=256, out_features=128, bias=True)
      )
    )
    (6): PowerfulLayer(
      (m1): Sequential(
        (0): Linear(in_features=128, out_features=128, bias=True)
        (1): LeakyReLU(negative_slope=0.01)
        (2): Linear(in_features=128, out_features=128, bias=True)
      )
      (m2): Sequential(
        (0): Linear(in_features=128, out_features=128, bias=True)
        (1): LeakyReLU(negative_slope=0.01)
        (2): Linear(in_features=128, out_features=128, bias=True)
      )
      (m4): Sequential(
        (0): Linear(in_features=256, out_features=128, bias=True)
      )
    )
    (7): PowerfulLayer(
      (m1): Sequential(
        (0): Linear(in_features=128, out_features=128, bias=True)
        (1): LeakyReLU(negative_slope=0.01)
        (2): Linear(in_features=128, out_features=128, bias=True)
      )
      (m2): Sequential(
        (0): Linear(in_features=128, out_features=128, bias=True)
        (1): LeakyReLU(negative_slope=0.01)
        (2): Linear(in_features=128, out_features=128, bias=True)
      )
      (m4): Sequential(
        (0): Linear(in_features=256, out_features=128, bias=True)
      )
    )
  )
  (bns): ModuleList(
    (0): None
    (1): None
    (2): None
    (3): None
    (4): None
    (5): None
    (6): None
    (7): None
  )
  (feature_extractors): ModuleList(
    (0): FeatureExtractor(
      (lin1): Sequential(
        (0): Linear(in_features=128, out_features=128, bias=True)
      )
      (lin2): Sequential(
        (0): Linear(in_features=128, out_features=128, bias=False)
      )
      (lin3): Sequential(
        (0): Linear(in_features=128, out_features=128, bias=False)
      )
      (activation): LeakyReLU(negative_slope=0.01)
    )
    (1): FeatureExtractor(
      (lin1): Sequential(
        (0): Linear(in_features=128, out_features=128, bias=True)
      )
      (lin2): Sequential(
        (0): Linear(in_features=128, out_features=128, bias=False)
      )
      (lin3): Sequential(
        (0): Linear(in_features=128, out_features=128, bias=False)
      )
      (activation): LeakyReLU(negative_slope=0.01)
    )
    (2): FeatureExtractor(
      (lin1): Sequential(
        (0): Linear(in_features=128, out_features=128, bias=True)
      )
      (lin2): Sequential(
        (0): Linear(in_features=128, out_features=128, bias=False)
      )
      (lin3): Sequential(
        (0): Linear(in_features=128, out_features=128, bias=False)
      )
      (activation): LeakyReLU(negative_slope=0.01)
    )
    (3): FeatureExtractor(
      (lin1): Sequential(
        (0): Linear(in_features=128, out_features=128, bias=True)
      )
      (lin2): Sequential(
        (0): Linear(in_features=128, out_features=128, bias=False)
      )
      (lin3): Sequential(
        (0): Linear(in_features=128, out_features=128, bias=False)
      )
      (activation): LeakyReLU(negative_slope=0.01)
    )
    (4): FeatureExtractor(
      (lin1): Sequential(
        (0): Linear(in_features=128, out_features=128, bias=True)
      )
      (lin2): Sequential(
        (0): Linear(in_features=128, out_features=128, bias=False)
      )
      (lin3): Sequential(
        (0): Linear(in_features=128, out_features=128, bias=False)
      )
      (activation): LeakyReLU(negative_slope=0.01)
    )
    (5): FeatureExtractor(
      (lin1): Sequential(
        (0): Linear(in_features=128, out_features=128, bias=True)
      )
      (lin2): Sequential(
        (0): Linear(in_features=128, out_features=128, bias=False)
      )
      (lin3): Sequential(
        (0): Linear(in_features=128, out_features=128, bias=False)
      )
      (activation): LeakyReLU(negative_slope=0.01)
    )
    (6): FeatureExtractor(
      (lin1): Sequential(
        (0): Linear(in_features=128, out_features=128, bias=True)
      )
      (lin2): Sequential(
        (0): Linear(in_features=128, out_features=128, bias=False)
      )
      (lin3): Sequential(
        (0): Linear(in_features=128, out_features=128, bias=False)
      )
      (activation): LeakyReLU(negative_slope=0.01)
    )
    (7): FeatureExtractor(
      (lin1): Sequential(
        (0): Linear(in_features=128, out_features=128, bias=True)
      )
      (lin2): Sequential(
        (0): Linear(in_features=128, out_features=128, bias=False)
      )
      (lin3): Sequential(
        (0): Linear(in_features=128, out_features=128, bias=False)
      )
      (activation): LeakyReLU(negative_slope=0.01)
    )
  )
  (after_conv): Sequential(
    (0): Linear(in_features=128, out_features=128, bias=True)
  )
  (final_lin): Sequential(
    (0): Linear(in_features=128, out_features=1, bias=True)
  )
)
| 07-01 17:50:24 load dataset: ego_small
200
| 07-01 17:50:24 model: Powerful(
  (activation): LeakyReLU(negative_slope=0.01)
  (time_mlp): Sequential(
    (0): Linear(in_features=1, out_features=4, bias=True)
    (1): GELU()
    (2): Linear(in_features=4, out_features=1, bias=True)
  )
  (in_lin): Sequential(
    (0): Linear(in_features=2, out_features=128, bias=True)
  )
  (layer_cat_lin): Sequential(
    (0): Linear(in_features=1026, out_features=128, bias=True)
  )
  (convs): ModuleList(
    (0): PowerfulLayer(
      (m1): Sequential(
        (0): Linear(in_features=128, out_features=128, bias=True)
        (1): LeakyReLU(negative_slope=0.01)
        (2): Linear(in_features=128, out_features=128, bias=True)
      )
      (m2): Sequential(
        (0): Linear(in_features=128, out_features=128, bias=True)
        (1): LeakyReLU(negative_slope=0.01)
        (2): Linear(in_features=128, out_features=128, bias=True)
      )
      (m4): Sequential(
        (0): Linear(in_features=256, out_features=128, bias=True)
      )
    )
    (1): PowerfulLayer(
      (m1): Sequential(
        (0): Linear(in_features=128, out_features=128, bias=True)
        (1): LeakyReLU(negative_slope=0.01)
        (2): Linear(in_features=128, out_features=128, bias=True)
      )
      (m2): Sequential(
        (0): Linear(in_features=128, out_features=128, bias=True)
        (1): LeakyReLU(negative_slope=0.01)
        (2): Linear(in_features=128, out_features=128, bias=True)
      )
      (m4): Sequential(
        (0): Linear(in_features=256, out_features=128, bias=True)
      )
    )
    (2): PowerfulLayer(
      (m1): Sequential(
        (0): Linear(in_features=128, out_features=128, bias=True)
        (1): LeakyReLU(negative_slope=0.01)
        (2): Linear(in_features=128, out_features=128, bias=True)
      )
      (m2): Sequential(
        (0): Linear(in_features=128, out_features=128, bias=True)
        (1): LeakyReLU(negative_slope=0.01)
        (2): Linear(in_features=128, out_features=128, bias=True)
      )
      (m4): Sequential(
        (0): Linear(in_features=256, out_features=128, bias=True)
      )
    )
    (3): PowerfulLayer(
      (m1): Sequential(
        (0): Linear(in_features=128, out_features=128, bias=True)
        (1): LeakyReLU(negative_slope=0.01)
        (2): Linear(in_features=128, out_features=128, bias=True)
      )
      (m2): Sequential(
        (0): Linear(in_features=128, out_features=128, bias=True)
        (1): LeakyReLU(negative_slope=0.01)
        (2): Linear(in_features=128, out_features=128, bias=True)
      )
      (m4): Sequential(
        (0): Linear(in_features=256, out_features=128, bias=True)
      )
    )
    (4): PowerfulLayer(
      (m1): Sequential(
        (0): Linear(in_features=128, out_features=128, bias=True)
        (1): LeakyReLU(negative_slope=0.01)
        (2): Linear(in_features=128, out_features=128, bias=True)
      )
      (m2): Sequential(
        (0): Linear(in_features=128, out_features=128, bias=True)
        (1): LeakyReLU(negative_slope=0.01)
        (2): Linear(in_features=128, out_features=128, bias=True)
      )
      (m4): Sequential(
        (0): Linear(in_features=256, out_features=128, bias=True)
      )
    )
    (5): PowerfulLayer(
      (m1): Sequential(
        (0): Linear(in_features=128, out_features=128, bias=True)
        (1): LeakyReLU(negative_slope=0.01)
        (2): Linear(in_features=128, out_features=128, bias=True)
      )
      (m2): Sequential(
        (0): Linear(in_features=128, out_features=128, bias=True)
        (1): LeakyReLU(negative_slope=0.01)
        (2): Linear(in_features=128, out_features=128, bias=True)
      )
      (m4): Sequential(
        (0): Linear(in_features=256, out_features=128, bias=True)
      )
    )
    (6): PowerfulLayer(
      (m1): Sequential(
        (0): Linear(in_features=128, out_features=128, bias=True)
        (1): LeakyReLU(negative_slope=0.01)
        (2): Linear(in_features=128, out_features=128, bias=True)
      )
      (m2): Sequential(
        (0): Linear(in_features=128, out_features=128, bias=True)
        (1): LeakyReLU(negative_slope=0.01)
        (2): Linear(in_features=128, out_features=128, bias=True)
      )
      (m4): Sequential(
        (0): Linear(in_features=256, out_features=128, bias=True)
      )
    )
    (7): PowerfulLayer(
      (m1): Sequential(
        (0): Linear(in_features=128, out_features=128, bias=True)
        (1): LeakyReLU(negative_slope=0.01)
        (2): Linear(in_features=128, out_features=128, bias=True)
      )
      (m2): Sequential(
        (0): Linear(in_features=128, out_features=128, bias=True)
        (1): LeakyReLU(negative_slope=0.01)
        (2): Linear(in_features=128, out_features=128, bias=True)
      )
      (m4): Sequential(
        (0): Linear(in_features=256, out_features=128, bias=True)
      )
    )
  )
  (bns): ModuleList(
    (0): None
    (1): None
    (2): None
    (3): None
    (4): None
    (5): None
    (6): None
    (7): None
  )
  (feature_extractors): ModuleList(
    (0): FeatureExtractor(
      (lin1): Sequential(
        (0): Linear(in_features=128, out_features=128, bias=True)
      )
      (lin2): Sequential(
        (0): Linear(in_features=128, out_features=128, bias=False)
      )
      (lin3): Sequential(
        (0): Linear(in_features=128, out_features=128, bias=False)
      )
      (activation): LeakyReLU(negative_slope=0.01)
    )
    (1): FeatureExtractor(
      (lin1): Sequential(
        (0): Linear(in_features=128, out_features=128, bias=True)
      )
      (lin2): Sequential(
        (0): Linear(in_features=128, out_features=128, bias=False)
      )
      (lin3): Sequential(
        (0): Linear(in_features=128, out_features=128, bias=False)
      )
      (activation): LeakyReLU(negative_slope=0.01)
    )
    (2): FeatureExtractor(
      (lin1): Sequential(
        (0): Linear(in_features=128, out_features=128, bias=True)
      )
      (lin2): Sequential(
        (0): Linear(in_features=128, out_features=128, bias=False)
      )
      (lin3): Sequential(
        (0): Linear(in_features=128, out_features=128, bias=False)
      )
      (activation): LeakyReLU(negative_slope=0.01)
    )
    (3): FeatureExtractor(
      (lin1): Sequential(
        (0): Linear(in_features=128, out_features=128, bias=True)
      )
      (lin2): Sequential(
        (0): Linear(in_features=128, out_features=128, bias=False)
      )
      (lin3): Sequential(
        (0): Linear(in_features=128, out_features=128, bias=False)
      )
      (activation): LeakyReLU(negative_slope=0.01)
    )
    (4): FeatureExtractor(
      (lin1): Sequential(
        (0): Linear(in_features=128, out_features=128, bias=True)
      )
      (lin2): Sequential(
        (0): Linear(in_features=128, out_features=128, bias=False)
      )
      (lin3): Sequential(
        (0): Linear(in_features=128, out_features=128, bias=False)
      )
      (activation): LeakyReLU(negative_slope=0.01)
    )
    (5): FeatureExtractor(
      (lin1): Sequential(
        (0): Linear(in_features=128, out_features=128, bias=True)
      )
      (lin2): Sequential(
        (0): Linear(in_features=128, out_features=128, bias=False)
      )
      (lin3): Sequential(
        (0): Linear(in_features=128, out_features=128, bias=False)
      )
      (activation): LeakyReLU(negative_slope=0.01)
    )
    (6): FeatureExtractor(
      (lin1): Sequential(
        (0): Linear(in_features=128, out_features=128, bias=True)
      )
      (lin2): Sequential(
        (0): Linear(in_features=128, out_features=128, bias=False)
      )
      (lin3): Sequential(
        (0): Linear(in_features=128, out_features=128, bias=False)
      )
      (activation): LeakyReLU(negative_slope=0.01)
    )
    (7): FeatureExtractor(
      (lin1): Sequential(
        (0): Linear(in_features=128, out_features=128, bias=True)
      )
      (lin2): Sequential(
        (0): Linear(in_features=128, out_features=128, bias=False)
      )
      (lin3): Sequential(
        (0): Linear(in_features=128, out_features=128, bias=False)
      )
      (activation): LeakyReLU(negative_slope=0.01)
    )
  )
  (after_conv): Sequential(
    (0): Linear(in_features=128, out_features=128, bias=True)
  )
  (final_lin): Sequential(
    (0): Linear(in_features=128, out_features=1, bias=True)
  )
)
| 07-01 17:52:34 load dataset: ego_small
200
| 07-01 17:52:34 model: Powerful(
  (activation): LeakyReLU(negative_slope=0.01)
  (time_mlp): Sequential(
    (0): Linear(in_features=1, out_features=4, bias=True)
    (1): GELU()
    (2): Linear(in_features=4, out_features=1, bias=True)
  )
  (in_lin): Sequential(
    (0): Linear(in_features=2, out_features=128, bias=True)
  )
  (layer_cat_lin): Sequential(
    (0): Linear(in_features=1026, out_features=128, bias=True)
  )
  (convs): ModuleList(
    (0): PowerfulLayer(
      (m1): Sequential(
        (0): Linear(in_features=128, out_features=128, bias=True)
        (1): LeakyReLU(negative_slope=0.01)
        (2): Linear(in_features=128, out_features=128, bias=True)
      )
      (m2): Sequential(
        (0): Linear(in_features=128, out_features=128, bias=True)
        (1): LeakyReLU(negative_slope=0.01)
        (2): Linear(in_features=128, out_features=128, bias=True)
      )
      (m4): Sequential(
        (0): Linear(in_features=256, out_features=128, bias=True)
      )
    )
    (1): PowerfulLayer(
      (m1): Sequential(
        (0): Linear(in_features=128, out_features=128, bias=True)
        (1): LeakyReLU(negative_slope=0.01)
        (2): Linear(in_features=128, out_features=128, bias=True)
      )
      (m2): Sequential(
        (0): Linear(in_features=128, out_features=128, bias=True)
        (1): LeakyReLU(negative_slope=0.01)
        (2): Linear(in_features=128, out_features=128, bias=True)
      )
      (m4): Sequential(
        (0): Linear(in_features=256, out_features=128, bias=True)
      )
    )
    (2): PowerfulLayer(
      (m1): Sequential(
        (0): Linear(in_features=128, out_features=128, bias=True)
        (1): LeakyReLU(negative_slope=0.01)
        (2): Linear(in_features=128, out_features=128, bias=True)
      )
      (m2): Sequential(
        (0): Linear(in_features=128, out_features=128, bias=True)
        (1): LeakyReLU(negative_slope=0.01)
        (2): Linear(in_features=128, out_features=128, bias=True)
      )
      (m4): Sequential(
        (0): Linear(in_features=256, out_features=128, bias=True)
      )
    )
    (3): PowerfulLayer(
      (m1): Sequential(
        (0): Linear(in_features=128, out_features=128, bias=True)
        (1): LeakyReLU(negative_slope=0.01)
        (2): Linear(in_features=128, out_features=128, bias=True)
      )
      (m2): Sequential(
        (0): Linear(in_features=128, out_features=128, bias=True)
        (1): LeakyReLU(negative_slope=0.01)
        (2): Linear(in_features=128, out_features=128, bias=True)
      )
      (m4): Sequential(
        (0): Linear(in_features=256, out_features=128, bias=True)
      )
    )
    (4): PowerfulLayer(
      (m1): Sequential(
        (0): Linear(in_features=128, out_features=128, bias=True)
        (1): LeakyReLU(negative_slope=0.01)
        (2): Linear(in_features=128, out_features=128, bias=True)
      )
      (m2): Sequential(
        (0): Linear(in_features=128, out_features=128, bias=True)
        (1): LeakyReLU(negative_slope=0.01)
        (2): Linear(in_features=128, out_features=128, bias=True)
      )
      (m4): Sequential(
        (0): Linear(in_features=256, out_features=128, bias=True)
      )
    )
    (5): PowerfulLayer(
      (m1): Sequential(
        (0): Linear(in_features=128, out_features=128, bias=True)
        (1): LeakyReLU(negative_slope=0.01)
        (2): Linear(in_features=128, out_features=128, bias=True)
      )
      (m2): Sequential(
        (0): Linear(in_features=128, out_features=128, bias=True)
        (1): LeakyReLU(negative_slope=0.01)
        (2): Linear(in_features=128, out_features=128, bias=True)
      )
      (m4): Sequential(
        (0): Linear(in_features=256, out_features=128, bias=True)
      )
    )
    (6): PowerfulLayer(
      (m1): Sequential(
        (0): Linear(in_features=128, out_features=128, bias=True)
        (1): LeakyReLU(negative_slope=0.01)
        (2): Linear(in_features=128, out_features=128, bias=True)
      )
      (m2): Sequential(
        (0): Linear(in_features=128, out_features=128, bias=True)
        (1): LeakyReLU(negative_slope=0.01)
        (2): Linear(in_features=128, out_features=128, bias=True)
      )
      (m4): Sequential(
        (0): Linear(in_features=256, out_features=128, bias=True)
      )
    )
    (7): PowerfulLayer(
      (m1): Sequential(
        (0): Linear(in_features=128, out_features=128, bias=True)
        (1): LeakyReLU(negative_slope=0.01)
        (2): Linear(in_features=128, out_features=128, bias=True)
      )
      (m2): Sequential(
        (0): Linear(in_features=128, out_features=128, bias=True)
        (1): LeakyReLU(negative_slope=0.01)
        (2): Linear(in_features=128, out_features=128, bias=True)
      )
      (m4): Sequential(
        (0): Linear(in_features=256, out_features=128, bias=True)
      )
    )
  )
  (bns): ModuleList(
    (0): None
    (1): None
    (2): None
    (3): None
    (4): None
    (5): None
    (6): None
    (7): None
  )
  (feature_extractors): ModuleList(
    (0): FeatureExtractor(
      (lin1): Sequential(
        (0): Linear(in_features=128, out_features=128, bias=True)
      )
      (lin2): Sequential(
        (0): Linear(in_features=128, out_features=128, bias=False)
      )
      (lin3): Sequential(
        (0): Linear(in_features=128, out_features=128, bias=False)
      )
      (activation): LeakyReLU(negative_slope=0.01)
    )
    (1): FeatureExtractor(
      (lin1): Sequential(
        (0): Linear(in_features=128, out_features=128, bias=True)
      )
      (lin2): Sequential(
        (0): Linear(in_features=128, out_features=128, bias=False)
      )
      (lin3): Sequential(
        (0): Linear(in_features=128, out_features=128, bias=False)
      )
      (activation): LeakyReLU(negative_slope=0.01)
    )
    (2): FeatureExtractor(
      (lin1): Sequential(
        (0): Linear(in_features=128, out_features=128, bias=True)
      )
      (lin2): Sequential(
        (0): Linear(in_features=128, out_features=128, bias=False)
      )
      (lin3): Sequential(
        (0): Linear(in_features=128, out_features=128, bias=False)
      )
      (activation): LeakyReLU(negative_slope=0.01)
    )
    (3): FeatureExtractor(
      (lin1): Sequential(
        (0): Linear(in_features=128, out_features=128, bias=True)
      )
      (lin2): Sequential(
        (0): Linear(in_features=128, out_features=128, bias=False)
      )
      (lin3): Sequential(
        (0): Linear(in_features=128, out_features=128, bias=False)
      )
      (activation): LeakyReLU(negative_slope=0.01)
    )
    (4): FeatureExtractor(
      (lin1): Sequential(
        (0): Linear(in_features=128, out_features=128, bias=True)
      )
      (lin2): Sequential(
        (0): Linear(in_features=128, out_features=128, bias=False)
      )
      (lin3): Sequential(
        (0): Linear(in_features=128, out_features=128, bias=False)
      )
      (activation): LeakyReLU(negative_slope=0.01)
    )
    (5): FeatureExtractor(
      (lin1): Sequential(
        (0): Linear(in_features=128, out_features=128, bias=True)
      )
      (lin2): Sequential(
        (0): Linear(in_features=128, out_features=128, bias=False)
      )
      (lin3): Sequential(
        (0): Linear(in_features=128, out_features=128, bias=False)
      )
      (activation): LeakyReLU(negative_slope=0.01)
    )
    (6): FeatureExtractor(
      (lin1): Sequential(
        (0): Linear(in_features=128, out_features=128, bias=True)
      )
      (lin2): Sequential(
        (0): Linear(in_features=128, out_features=128, bias=False)
      )
      (lin3): Sequential(
        (0): Linear(in_features=128, out_features=128, bias=False)
      )
      (activation): LeakyReLU(negative_slope=0.01)
    )
    (7): FeatureExtractor(
      (lin1): Sequential(
        (0): Linear(in_features=128, out_features=128, bias=True)
      )
      (lin2): Sequential(
        (0): Linear(in_features=128, out_features=128, bias=False)
      )
      (lin3): Sequential(
        (0): Linear(in_features=128, out_features=128, bias=False)
      )
      (activation): LeakyReLU(negative_slope=0.01)
    )
  )
  (after_conv): Sequential(
    (0): Linear(in_features=128, out_features=128, bias=True)
  )
  (final_lin): Sequential(
    (0): Linear(in_features=128, out_features=1, bias=True)
  )
)
| 07-01 17:54:43 load dataset: ego_small
200
| 07-01 17:54:43 model: Powerful(
  (activation): LeakyReLU(negative_slope=0.01)
  (time_mlp): Sequential(
    (0): Linear(in_features=1, out_features=4, bias=True)
    (1): GELU()
    (2): Linear(in_features=4, out_features=1, bias=True)
  )
  (in_lin): Sequential(
    (0): Linear(in_features=2, out_features=128, bias=True)
  )
  (layer_cat_lin): Sequential(
    (0): Linear(in_features=1026, out_features=128, bias=True)
  )
  (convs): ModuleList(
    (0): PowerfulLayer(
      (m1): Sequential(
        (0): Linear(in_features=128, out_features=128, bias=True)
        (1): LeakyReLU(negative_slope=0.01)
        (2): Linear(in_features=128, out_features=128, bias=True)
      )
      (m2): Sequential(
        (0): Linear(in_features=128, out_features=128, bias=True)
        (1): LeakyReLU(negative_slope=0.01)
        (2): Linear(in_features=128, out_features=128, bias=True)
      )
      (m4): Sequential(
        (0): Linear(in_features=256, out_features=128, bias=True)
      )
    )
    (1): PowerfulLayer(
      (m1): Sequential(
        (0): Linear(in_features=128, out_features=128, bias=True)
        (1): LeakyReLU(negative_slope=0.01)
        (2): Linear(in_features=128, out_features=128, bias=True)
      )
      (m2): Sequential(
        (0): Linear(in_features=128, out_features=128, bias=True)
        (1): LeakyReLU(negative_slope=0.01)
        (2): Linear(in_features=128, out_features=128, bias=True)
      )
      (m4): Sequential(
        (0): Linear(in_features=256, out_features=128, bias=True)
      )
    )
    (2): PowerfulLayer(
      (m1): Sequential(
        (0): Linear(in_features=128, out_features=128, bias=True)
        (1): LeakyReLU(negative_slope=0.01)
        (2): Linear(in_features=128, out_features=128, bias=True)
      )
      (m2): Sequential(
        (0): Linear(in_features=128, out_features=128, bias=True)
        (1): LeakyReLU(negative_slope=0.01)
        (2): Linear(in_features=128, out_features=128, bias=True)
      )
      (m4): Sequential(
        (0): Linear(in_features=256, out_features=128, bias=True)
      )
    )
    (3): PowerfulLayer(
      (m1): Sequential(
        (0): Linear(in_features=128, out_features=128, bias=True)
        (1): LeakyReLU(negative_slope=0.01)
        (2): Linear(in_features=128, out_features=128, bias=True)
      )
      (m2): Sequential(
        (0): Linear(in_features=128, out_features=128, bias=True)
        (1): LeakyReLU(negative_slope=0.01)
        (2): Linear(in_features=128, out_features=128, bias=True)
      )
      (m4): Sequential(
        (0): Linear(in_features=256, out_features=128, bias=True)
      )
    )
    (4): PowerfulLayer(
      (m1): Sequential(
        (0): Linear(in_features=128, out_features=128, bias=True)
        (1): LeakyReLU(negative_slope=0.01)
        (2): Linear(in_features=128, out_features=128, bias=True)
      )
      (m2): Sequential(
        (0): Linear(in_features=128, out_features=128, bias=True)
        (1): LeakyReLU(negative_slope=0.01)
        (2): Linear(in_features=128, out_features=128, bias=True)
      )
      (m4): Sequential(
        (0): Linear(in_features=256, out_features=128, bias=True)
      )
    )
    (5): PowerfulLayer(
      (m1): Sequential(
        (0): Linear(in_features=128, out_features=128, bias=True)
        (1): LeakyReLU(negative_slope=0.01)
        (2): Linear(in_features=128, out_features=128, bias=True)
      )
      (m2): Sequential(
        (0): Linear(in_features=128, out_features=128, bias=True)
        (1): LeakyReLU(negative_slope=0.01)
        (2): Linear(in_features=128, out_features=128, bias=True)
      )
      (m4): Sequential(
        (0): Linear(in_features=256, out_features=128, bias=True)
      )
    )
    (6): PowerfulLayer(
      (m1): Sequential(
        (0): Linear(in_features=128, out_features=128, bias=True)
        (1): LeakyReLU(negative_slope=0.01)
        (2): Linear(in_features=128, out_features=128, bias=True)
      )
      (m2): Sequential(
        (0): Linear(in_features=128, out_features=128, bias=True)
        (1): LeakyReLU(negative_slope=0.01)
        (2): Linear(in_features=128, out_features=128, bias=True)
      )
      (m4): Sequential(
        (0): Linear(in_features=256, out_features=128, bias=True)
      )
    )
    (7): PowerfulLayer(
      (m1): Sequential(
        (0): Linear(in_features=128, out_features=128, bias=True)
        (1): LeakyReLU(negative_slope=0.01)
        (2): Linear(in_features=128, out_features=128, bias=True)
      )
      (m2): Sequential(
        (0): Linear(in_features=128, out_features=128, bias=True)
        (1): LeakyReLU(negative_slope=0.01)
        (2): Linear(in_features=128, out_features=128, bias=True)
      )
      (m4): Sequential(
        (0): Linear(in_features=256, out_features=128, bias=True)
      )
    )
  )
  (bns): ModuleList(
    (0): None
    (1): None
    (2): None
    (3): None
    (4): None
    (5): None
    (6): None
    (7): None
  )
  (feature_extractors): ModuleList(
    (0): FeatureExtractor(
      (lin1): Sequential(
        (0): Linear(in_features=128, out_features=128, bias=True)
      )
      (lin2): Sequential(
        (0): Linear(in_features=128, out_features=128, bias=False)
      )
      (lin3): Sequential(
        (0): Linear(in_features=128, out_features=128, bias=False)
      )
      (activation): LeakyReLU(negative_slope=0.01)
    )
    (1): FeatureExtractor(
      (lin1): Sequential(
        (0): Linear(in_features=128, out_features=128, bias=True)
      )
      (lin2): Sequential(
        (0): Linear(in_features=128, out_features=128, bias=False)
      )
      (lin3): Sequential(
        (0): Linear(in_features=128, out_features=128, bias=False)
      )
      (activation): LeakyReLU(negative_slope=0.01)
    )
    (2): FeatureExtractor(
      (lin1): Sequential(
        (0): Linear(in_features=128, out_features=128, bias=True)
      )
      (lin2): Sequential(
        (0): Linear(in_features=128, out_features=128, bias=False)
      )
      (lin3): Sequential(
        (0): Linear(in_features=128, out_features=128, bias=False)
      )
      (activation): LeakyReLU(negative_slope=0.01)
    )
    (3): FeatureExtractor(
      (lin1): Sequential(
        (0): Linear(in_features=128, out_features=128, bias=True)
      )
      (lin2): Sequential(
        (0): Linear(in_features=128, out_features=128, bias=False)
      )
      (lin3): Sequential(
        (0): Linear(in_features=128, out_features=128, bias=False)
      )
      (activation): LeakyReLU(negative_slope=0.01)
    )
    (4): FeatureExtractor(
      (lin1): Sequential(
        (0): Linear(in_features=128, out_features=128, bias=True)
      )
      (lin2): Sequential(
        (0): Linear(in_features=128, out_features=128, bias=False)
      )
      (lin3): Sequential(
        (0): Linear(in_features=128, out_features=128, bias=False)
      )
      (activation): LeakyReLU(negative_slope=0.01)
    )
    (5): FeatureExtractor(
      (lin1): Sequential(
        (0): Linear(in_features=128, out_features=128, bias=True)
      )
      (lin2): Sequential(
        (0): Linear(in_features=128, out_features=128, bias=False)
      )
      (lin3): Sequential(
        (0): Linear(in_features=128, out_features=128, bias=False)
      )
      (activation): LeakyReLU(negative_slope=0.01)
    )
    (6): FeatureExtractor(
      (lin1): Sequential(
        (0): Linear(in_features=128, out_features=128, bias=True)
      )
      (lin2): Sequential(
        (0): Linear(in_features=128, out_features=128, bias=False)
      )
      (lin3): Sequential(
        (0): Linear(in_features=128, out_features=128, bias=False)
      )
      (activation): LeakyReLU(negative_slope=0.01)
    )
    (7): FeatureExtractor(
      (lin1): Sequential(
        (0): Linear(in_features=128, out_features=128, bias=True)
      )
      (lin2): Sequential(
        (0): Linear(in_features=128, out_features=128, bias=False)
      )
      (lin3): Sequential(
        (0): Linear(in_features=128, out_features=128, bias=False)
      )
      (activation): LeakyReLU(negative_slope=0.01)
    )
  )
  (after_conv): Sequential(
    (0): Linear(in_features=128, out_features=128, bias=True)
  )
  (final_lin): Sequential(
    (0): Linear(in_features=128, out_features=1, bias=True)
  )
)
| 07-01 17:56:58 epoch: 004| time: 4.4s| train loss: +2.473e-02 | test loss: +3.348e-02 | 
| 07-01 17:56:58 epoch: 004| train loss i: nan test loss i: nan | 
| 07-01 17:56:58 epoch: 004| time: 4.6s| train loss: +2.473e-02 | test loss: +3.348e-02 | 
| 07-01 17:56:58 epoch: 004| train loss i: nan test loss i: nan | 
| 07-01 17:56:58 model: Powerful(
  (activation): LeakyReLU(negative_slope=0.01)
  (time_mlp): Sequential(
    (0): Linear(in_features=1, out_features=4, bias=True)
    (1): GELU()
    (2): Linear(in_features=4, out_features=1, bias=True)
  )
  (in_lin): Sequential(
    (0): Linear(in_features=2, out_features=128, bias=True)
  )
  (layer_cat_lin): Sequential(
    (0): Linear(in_features=1026, out_features=128, bias=True)
  )
  (convs): ModuleList(
    (0): PowerfulLayer(
      (m1): Sequential(
        (0): Linear(in_features=128, out_features=128, bias=True)
        (1): LeakyReLU(negative_slope=0.01)
        (2): Linear(in_features=128, out_features=128, bias=True)
      )
      (m2): Sequential(
        (0): Linear(in_features=128, out_features=128, bias=True)
        (1): LeakyReLU(negative_slope=0.01)
        (2): Linear(in_features=128, out_features=128, bias=True)
      )
      (m4): Sequential(
        (0): Linear(in_features=256, out_features=128, bias=True)
      )
    )
    (1): PowerfulLayer(
      (m1): Sequential(
        (0): Linear(in_features=128, out_features=128, bias=True)
        (1): LeakyReLU(negative_slope=0.01)
        (2): Linear(in_features=128, out_features=128, bias=True)
      )
      (m2): Sequential(
        (0): Linear(in_features=128, out_features=128, bias=True)
        (1): LeakyReLU(negative_slope=0.01)
        (2): Linear(in_features=128, out_features=128, bias=True)
      )
      (m4): Sequential(
        (0): Linear(in_features=256, out_features=128, bias=True)
      )
    )
    (2): PowerfulLayer(
      (m1): Sequential(
        (0): Linear(in_features=128, out_features=128, bias=True)
        (1): LeakyReLU(negative_slope=0.01)
        (2): Linear(in_features=128, out_features=128, bias=True)
      )
      (m2): Sequential(
        (0): Linear(in_features=128, out_features=128, bias=True)
        (1): LeakyReLU(negative_slope=0.01)
        (2): Linear(in_features=128, out_features=128, bias=True)
      )
      (m4): Sequential(
        (0): Linear(in_features=256, out_features=128, bias=True)
      )
    )
    (3): PowerfulLayer(
      (m1): Sequential(
        (0): Linear(in_features=128, out_features=128, bias=True)
        (1): LeakyReLU(negative_slope=0.01)
        (2): Linear(in_features=128, out_features=128, bias=True)
      )
      (m2): Sequential(
        (0): Linear(in_features=128, out_features=128, bias=True)
        (1): LeakyReLU(negative_slope=0.01)
        (2): Linear(in_features=128, out_features=128, bias=True)
      )
      (m4): Sequential(
        (0): Linear(in_features=256, out_features=128, bias=True)
      )
    )
    (4): PowerfulLayer(
      (m1): Sequential(
        (0): Linear(in_features=128, out_features=128, bias=True)
        (1): LeakyReLU(negative_slope=0.01)
        (2): Linear(in_features=128, out_features=128, bias=True)
      )
      (m2): Sequential(
        (0): Linear(in_features=128, out_features=128, bias=True)
        (1): LeakyReLU(negative_slope=0.01)
        (2): Linear(in_features=128, out_features=128, bias=True)
      )
      (m4): Sequential(
        (0): Linear(in_features=256, out_features=128, bias=True)
      )
    )
    (5): PowerfulLayer(
      (m1): Sequential(
        (0): Linear(in_features=128, out_features=128, bias=True)
        (1): LeakyReLU(negative_slope=0.01)
        (2): Linear(in_features=128, out_features=128, bias=True)
      )
      (m2): Sequential(
        (0): Linear(in_features=128, out_features=128, bias=True)
        (1): LeakyReLU(negative_slope=0.01)
        (2): Linear(in_features=128, out_features=128, bias=True)
      )
      (m4): Sequential(
        (0): Linear(in_features=256, out_features=128, bias=True)
      )
    )
    (6): PowerfulLayer(
      (m1): Sequential(
        (0): Linear(in_features=128, out_features=128, bias=True)
        (1): LeakyReLU(negative_slope=0.01)
        (2): Linear(in_features=128, out_features=128, bias=True)
      )
      (m2): Sequential(
        (0): Linear(in_features=128, out_features=128, bias=True)
        (1): LeakyReLU(negative_slope=0.01)
        (2): Linear(in_features=128, out_features=128, bias=True)
      )
      (m4): Sequential(
        (0): Linear(in_features=256, out_features=128, bias=True)
      )
    )
    (7): PowerfulLayer(
      (m1): Sequential(
        (0): Linear(in_features=128, out_features=128, bias=True)
        (1): LeakyReLU(negative_slope=0.01)
        (2): Linear(in_features=128, out_features=128, bias=True)
      )
      (m2): Sequential(
        (0): Linear(in_features=128, out_features=128, bias=True)
        (1): LeakyReLU(negative_slope=0.01)
        (2): Linear(in_features=128, out_features=128, bias=True)
      )
      (m4): Sequential(
        (0): Linear(in_features=256, out_features=128, bias=True)
      )
    )
  )
  (bns): ModuleList(
    (0): None
    (1): None
    (2): None
    (3): None
    (4): None
    (5): None
    (6): None
    (7): None
  )
  (feature_extractors): ModuleList(
    (0): FeatureExtractor(
      (lin1): Sequential(
        (0): Linear(in_features=128, out_features=128, bias=True)
      )
      (lin2): Sequential(
        (0): Linear(in_features=128, out_features=128, bias=False)
      )
      (lin3): Sequential(
        (0): Linear(in_features=128, out_features=128, bias=False)
      )
      (activation): LeakyReLU(negative_slope=0.01)
    )
    (1): FeatureExtractor(
      (lin1): Sequential(
        (0): Linear(in_features=128, out_features=128, bias=True)
      )
      (lin2): Sequential(
        (0): Linear(in_features=128, out_features=128, bias=False)
      )
      (lin3): Sequential(
        (0): Linear(in_features=128, out_features=128, bias=False)
      )
      (activation): LeakyReLU(negative_slope=0.01)
    )
    (2): FeatureExtractor(
      (lin1): Sequential(
        (0): Linear(in_features=128, out_features=128, bias=True)
      )
      (lin2): Sequential(
        (0): Linear(in_features=128, out_features=128, bias=False)
      )
      (lin3): Sequential(
        (0): Linear(in_features=128, out_features=128, bias=False)
      )
      (activation): LeakyReLU(negative_slope=0.01)
    )
    (3): FeatureExtractor(
      (lin1): Sequential(
        (0): Linear(in_features=128, out_features=128, bias=True)
      )
      (lin2): Sequential(
        (0): Linear(in_features=128, out_features=128, bias=False)
      )
      (lin3): Sequential(
        (0): Linear(in_features=128, out_features=128, bias=False)
      )
      (activation): LeakyReLU(negative_slope=0.01)
    )
    (4): FeatureExtractor(
      (lin1): Sequential(
        (0): Linear(in_features=128, out_features=128, bias=True)
      )
      (lin2): Sequential(
        (0): Linear(in_features=128, out_features=128, bias=False)
      )
      (lin3): Sequential(
        (0): Linear(in_features=128, out_features=128, bias=False)
      )
      (activation): LeakyReLU(negative_slope=0.01)
    )
    (5): FeatureExtractor(
      (lin1): Sequential(
        (0): Linear(in_features=128, out_features=128, bias=True)
      )
      (lin2): Sequential(
        (0): Linear(in_features=128, out_features=128, bias=False)
      )
      (lin3): Sequential(
        (0): Linear(in_features=128, out_features=128, bias=False)
      )
      (activation): LeakyReLU(negative_slope=0.01)
    )
    (6): FeatureExtractor(
      (lin1): Sequential(
        (0): Linear(in_features=128, out_features=128, bias=True)
      )
      (lin2): Sequential(
        (0): Linear(in_features=128, out_features=128, bias=False)
      )
      (lin3): Sequential(
        (0): Linear(in_features=128, out_features=128, bias=False)
      )
      (activation): LeakyReLU(negative_slope=0.01)
    )
    (7): FeatureExtractor(
      (lin1): Sequential(
        (0): Linear(in_features=128, out_features=128, bias=True)
      )
      (lin2): Sequential(
        (0): Linear(in_features=128, out_features=128, bias=False)
      )
      (lin3): Sequential(
        (0): Linear(in_features=128, out_features=128, bias=False)
      )
      (activation): LeakyReLU(negative_slope=0.01)
    )
  )
  (after_conv): Sequential(
    (0): Linear(in_features=128, out_features=128, bias=True)
  )
  (final_lin): Sequential(
    (0): Linear(in_features=128, out_features=1, bias=True)
  )
)
| 07-01 18:03:54 load dataset: ego_small
200
| 07-01 18:03:54 model: Powerful(
  (activation): LeakyReLU(negative_slope=0.01)
  (time_mlp): Sequential(
    (0): Linear(in_features=1, out_features=4, bias=True)
    (1): GELU()
    (2): Linear(in_features=4, out_features=1, bias=True)
  )
  (in_lin): Sequential(
    (0): Linear(in_features=2, out_features=128, bias=True)
  )
  (layer_cat_lin): Sequential(
    (0): Linear(in_features=1026, out_features=128, bias=True)
  )
  (convs): ModuleList(
    (0): PowerfulLayer(
      (m1): Sequential(
        (0): Linear(in_features=128, out_features=128, bias=True)
        (1): LeakyReLU(negative_slope=0.01)
        (2): Linear(in_features=128, out_features=128, bias=True)
      )
      (m2): Sequential(
        (0): Linear(in_features=128, out_features=128, bias=True)
        (1): LeakyReLU(negative_slope=0.01)
        (2): Linear(in_features=128, out_features=128, bias=True)
      )
      (m4): Sequential(
        (0): Linear(in_features=256, out_features=128, bias=True)
      )
    )
    (1): PowerfulLayer(
      (m1): Sequential(
        (0): Linear(in_features=128, out_features=128, bias=True)
        (1): LeakyReLU(negative_slope=0.01)
        (2): Linear(in_features=128, out_features=128, bias=True)
      )
      (m2): Sequential(
        (0): Linear(in_features=128, out_features=128, bias=True)
        (1): LeakyReLU(negative_slope=0.01)
        (2): Linear(in_features=128, out_features=128, bias=True)
      )
      (m4): Sequential(
        (0): Linear(in_features=256, out_features=128, bias=True)
      )
    )
    (2): PowerfulLayer(
      (m1): Sequential(
        (0): Linear(in_features=128, out_features=128, bias=True)
        (1): LeakyReLU(negative_slope=0.01)
        (2): Linear(in_features=128, out_features=128, bias=True)
      )
      (m2): Sequential(
        (0): Linear(in_features=128, out_features=128, bias=True)
        (1): LeakyReLU(negative_slope=0.01)
        (2): Linear(in_features=128, out_features=128, bias=True)
      )
      (m4): Sequential(
        (0): Linear(in_features=256, out_features=128, bias=True)
      )
    )
    (3): PowerfulLayer(
      (m1): Sequential(
        (0): Linear(in_features=128, out_features=128, bias=True)
        (1): LeakyReLU(negative_slope=0.01)
        (2): Linear(in_features=128, out_features=128, bias=True)
      )
      (m2): Sequential(
        (0): Linear(in_features=128, out_features=128, bias=True)
        (1): LeakyReLU(negative_slope=0.01)
        (2): Linear(in_features=128, out_features=128, bias=True)
      )
      (m4): Sequential(
        (0): Linear(in_features=256, out_features=128, bias=True)
      )
    )
    (4): PowerfulLayer(
      (m1): Sequential(
        (0): Linear(in_features=128, out_features=128, bias=True)
        (1): LeakyReLU(negative_slope=0.01)
        (2): Linear(in_features=128, out_features=128, bias=True)
      )
      (m2): Sequential(
        (0): Linear(in_features=128, out_features=128, bias=True)
        (1): LeakyReLU(negative_slope=0.01)
        (2): Linear(in_features=128, out_features=128, bias=True)
      )
      (m4): Sequential(
        (0): Linear(in_features=256, out_features=128, bias=True)
      )
    )
    (5): PowerfulLayer(
      (m1): Sequential(
        (0): Linear(in_features=128, out_features=128, bias=True)
        (1): LeakyReLU(negative_slope=0.01)
        (2): Linear(in_features=128, out_features=128, bias=True)
      )
      (m2): Sequential(
        (0): Linear(in_features=128, out_features=128, bias=True)
        (1): LeakyReLU(negative_slope=0.01)
        (2): Linear(in_features=128, out_features=128, bias=True)
      )
      (m4): Sequential(
        (0): Linear(in_features=256, out_features=128, bias=True)
      )
    )
    (6): PowerfulLayer(
      (m1): Sequential(
        (0): Linear(in_features=128, out_features=128, bias=True)
        (1): LeakyReLU(negative_slope=0.01)
        (2): Linear(in_features=128, out_features=128, bias=True)
      )
      (m2): Sequential(
        (0): Linear(in_features=128, out_features=128, bias=True)
        (1): LeakyReLU(negative_slope=0.01)
        (2): Linear(in_features=128, out_features=128, bias=True)
      )
      (m4): Sequential(
        (0): Linear(in_features=256, out_features=128, bias=True)
      )
    )
    (7): PowerfulLayer(
      (m1): Sequential(
        (0): Linear(in_features=128, out_features=128, bias=True)
        (1): LeakyReLU(negative_slope=0.01)
        (2): Linear(in_features=128, out_features=128, bias=True)
      )
      (m2): Sequential(
        (0): Linear(in_features=128, out_features=128, bias=True)
        (1): LeakyReLU(negative_slope=0.01)
        (2): Linear(in_features=128, out_features=128, bias=True)
      )
      (m4): Sequential(
        (0): Linear(in_features=256, out_features=128, bias=True)
      )
    )
  )
  (bns): ModuleList(
    (0): None
    (1): None
    (2): None
    (3): None
    (4): None
    (5): None
    (6): None
    (7): None
  )
  (feature_extractors): ModuleList(
    (0): FeatureExtractor(
      (lin1): Sequential(
        (0): Linear(in_features=128, out_features=128, bias=True)
      )
      (lin2): Sequential(
        (0): Linear(in_features=128, out_features=128, bias=False)
      )
      (lin3): Sequential(
        (0): Linear(in_features=128, out_features=128, bias=False)
      )
      (activation): LeakyReLU(negative_slope=0.01)
    )
    (1): FeatureExtractor(
      (lin1): Sequential(
        (0): Linear(in_features=128, out_features=128, bias=True)
      )
      (lin2): Sequential(
        (0): Linear(in_features=128, out_features=128, bias=False)
      )
      (lin3): Sequential(
        (0): Linear(in_features=128, out_features=128, bias=False)
      )
      (activation): LeakyReLU(negative_slope=0.01)
    )
    (2): FeatureExtractor(
      (lin1): Sequential(
        (0): Linear(in_features=128, out_features=128, bias=True)
      )
      (lin2): Sequential(
        (0): Linear(in_features=128, out_features=128, bias=False)
      )
      (lin3): Sequential(
        (0): Linear(in_features=128, out_features=128, bias=False)
      )
      (activation): LeakyReLU(negative_slope=0.01)
    )
    (3): FeatureExtractor(
      (lin1): Sequential(
        (0): Linear(in_features=128, out_features=128, bias=True)
      )
      (lin2): Sequential(
        (0): Linear(in_features=128, out_features=128, bias=False)
      )
      (lin3): Sequential(
        (0): Linear(in_features=128, out_features=128, bias=False)
      )
      (activation): LeakyReLU(negative_slope=0.01)
    )
    (4): FeatureExtractor(
      (lin1): Sequential(
        (0): Linear(in_features=128, out_features=128, bias=True)
      )
      (lin2): Sequential(
        (0): Linear(in_features=128, out_features=128, bias=False)
      )
      (lin3): Sequential(
        (0): Linear(in_features=128, out_features=128, bias=False)
      )
      (activation): LeakyReLU(negative_slope=0.01)
    )
    (5): FeatureExtractor(
      (lin1): Sequential(
        (0): Linear(in_features=128, out_features=128, bias=True)
      )
      (lin2): Sequential(
        (0): Linear(in_features=128, out_features=128, bias=False)
      )
      (lin3): Sequential(
        (0): Linear(in_features=128, out_features=128, bias=False)
      )
      (activation): LeakyReLU(negative_slope=0.01)
    )
    (6): FeatureExtractor(
      (lin1): Sequential(
        (0): Linear(in_features=128, out_features=128, bias=True)
      )
      (lin2): Sequential(
        (0): Linear(in_features=128, out_features=128, bias=False)
      )
      (lin3): Sequential(
        (0): Linear(in_features=128, out_features=128, bias=False)
      )
      (activation): LeakyReLU(negative_slope=0.01)
    )
    (7): FeatureExtractor(
      (lin1): Sequential(
        (0): Linear(in_features=128, out_features=128, bias=True)
      )
      (lin2): Sequential(
        (0): Linear(in_features=128, out_features=128, bias=False)
      )
      (lin3): Sequential(
        (0): Linear(in_features=128, out_features=128, bias=False)
      )
      (activation): LeakyReLU(negative_slope=0.01)
    )
  )
  (after_conv): Sequential(
    (0): Linear(in_features=128, out_features=128, bias=True)
  )
  (final_lin): Sequential(
    (0): Linear(in_features=128, out_features=1, bias=True)
  )
)
| 07-01 18:06:02 load dataset: ego_small
200
| 07-01 18:06:03 model: Powerful(
  (activation): LeakyReLU(negative_slope=0.01)
  (time_mlp): Sequential(
    (0): Linear(in_features=1, out_features=4, bias=True)
    (1): GELU()
    (2): Linear(in_features=4, out_features=1, bias=True)
  )
  (in_lin): Sequential(
    (0): Linear(in_features=2, out_features=128, bias=True)
  )
  (layer_cat_lin): Sequential(
    (0): Linear(in_features=1026, out_features=128, bias=True)
  )
  (convs): ModuleList(
    (0): PowerfulLayer(
      (m1): Sequential(
        (0): Linear(in_features=128, out_features=128, bias=True)
        (1): LeakyReLU(negative_slope=0.01)
        (2): Linear(in_features=128, out_features=128, bias=True)
      )
      (m2): Sequential(
        (0): Linear(in_features=128, out_features=128, bias=True)
        (1): LeakyReLU(negative_slope=0.01)
        (2): Linear(in_features=128, out_features=128, bias=True)
      )
      (m4): Sequential(
        (0): Linear(in_features=256, out_features=128, bias=True)
      )
    )
    (1): PowerfulLayer(
      (m1): Sequential(
        (0): Linear(in_features=128, out_features=128, bias=True)
        (1): LeakyReLU(negative_slope=0.01)
        (2): Linear(in_features=128, out_features=128, bias=True)
      )
      (m2): Sequential(
        (0): Linear(in_features=128, out_features=128, bias=True)
        (1): LeakyReLU(negative_slope=0.01)
        (2): Linear(in_features=128, out_features=128, bias=True)
      )
      (m4): Sequential(
        (0): Linear(in_features=256, out_features=128, bias=True)
      )
    )
    (2): PowerfulLayer(
      (m1): Sequential(
        (0): Linear(in_features=128, out_features=128, bias=True)
        (1): LeakyReLU(negative_slope=0.01)
        (2): Linear(in_features=128, out_features=128, bias=True)
      )
      (m2): Sequential(
        (0): Linear(in_features=128, out_features=128, bias=True)
        (1): LeakyReLU(negative_slope=0.01)
        (2): Linear(in_features=128, out_features=128, bias=True)
      )
      (m4): Sequential(
        (0): Linear(in_features=256, out_features=128, bias=True)
      )
    )
    (3): PowerfulLayer(
      (m1): Sequential(
        (0): Linear(in_features=128, out_features=128, bias=True)
        (1): LeakyReLU(negative_slope=0.01)
        (2): Linear(in_features=128, out_features=128, bias=True)
      )
      (m2): Sequential(
        (0): Linear(in_features=128, out_features=128, bias=True)
        (1): LeakyReLU(negative_slope=0.01)
        (2): Linear(in_features=128, out_features=128, bias=True)
      )
      (m4): Sequential(
        (0): Linear(in_features=256, out_features=128, bias=True)
      )
    )
    (4): PowerfulLayer(
      (m1): Sequential(
        (0): Linear(in_features=128, out_features=128, bias=True)
        (1): LeakyReLU(negative_slope=0.01)
        (2): Linear(in_features=128, out_features=128, bias=True)
      )
      (m2): Sequential(
        (0): Linear(in_features=128, out_features=128, bias=True)
        (1): LeakyReLU(negative_slope=0.01)
        (2): Linear(in_features=128, out_features=128, bias=True)
      )
      (m4): Sequential(
        (0): Linear(in_features=256, out_features=128, bias=True)
      )
    )
    (5): PowerfulLayer(
      (m1): Sequential(
        (0): Linear(in_features=128, out_features=128, bias=True)
        (1): LeakyReLU(negative_slope=0.01)
        (2): Linear(in_features=128, out_features=128, bias=True)
      )
      (m2): Sequential(
        (0): Linear(in_features=128, out_features=128, bias=True)
        (1): LeakyReLU(negative_slope=0.01)
        (2): Linear(in_features=128, out_features=128, bias=True)
      )
      (m4): Sequential(
        (0): Linear(in_features=256, out_features=128, bias=True)
      )
    )
    (6): PowerfulLayer(
      (m1): Sequential(
        (0): Linear(in_features=128, out_features=128, bias=True)
        (1): LeakyReLU(negative_slope=0.01)
        (2): Linear(in_features=128, out_features=128, bias=True)
      )
      (m2): Sequential(
        (0): Linear(in_features=128, out_features=128, bias=True)
        (1): LeakyReLU(negative_slope=0.01)
        (2): Linear(in_features=128, out_features=128, bias=True)
      )
      (m4): Sequential(
        (0): Linear(in_features=256, out_features=128, bias=True)
      )
    )
    (7): PowerfulLayer(
      (m1): Sequential(
        (0): Linear(in_features=128, out_features=128, bias=True)
        (1): LeakyReLU(negative_slope=0.01)
        (2): Linear(in_features=128, out_features=128, bias=True)
      )
      (m2): Sequential(
        (0): Linear(in_features=128, out_features=128, bias=True)
        (1): LeakyReLU(negative_slope=0.01)
        (2): Linear(in_features=128, out_features=128, bias=True)
      )
      (m4): Sequential(
        (0): Linear(in_features=256, out_features=128, bias=True)
      )
    )
  )
  (bns): ModuleList(
    (0): None
    (1): None
    (2): None
    (3): None
    (4): None
    (5): None
    (6): None
    (7): None
  )
  (feature_extractors): ModuleList(
    (0): FeatureExtractor(
      (lin1): Sequential(
        (0): Linear(in_features=128, out_features=128, bias=True)
      )
      (lin2): Sequential(
        (0): Linear(in_features=128, out_features=128, bias=False)
      )
      (lin3): Sequential(
        (0): Linear(in_features=128, out_features=128, bias=False)
      )
      (activation): LeakyReLU(negative_slope=0.01)
    )
    (1): FeatureExtractor(
      (lin1): Sequential(
        (0): Linear(in_features=128, out_features=128, bias=True)
      )
      (lin2): Sequential(
        (0): Linear(in_features=128, out_features=128, bias=False)
      )
      (lin3): Sequential(
        (0): Linear(in_features=128, out_features=128, bias=False)
      )
      (activation): LeakyReLU(negative_slope=0.01)
    )
    (2): FeatureExtractor(
      (lin1): Sequential(
        (0): Linear(in_features=128, out_features=128, bias=True)
      )
      (lin2): Sequential(
        (0): Linear(in_features=128, out_features=128, bias=False)
      )
      (lin3): Sequential(
        (0): Linear(in_features=128, out_features=128, bias=False)
      )
      (activation): LeakyReLU(negative_slope=0.01)
    )
    (3): FeatureExtractor(
      (lin1): Sequential(
        (0): Linear(in_features=128, out_features=128, bias=True)
      )
      (lin2): Sequential(
        (0): Linear(in_features=128, out_features=128, bias=False)
      )
      (lin3): Sequential(
        (0): Linear(in_features=128, out_features=128, bias=False)
      )
      (activation): LeakyReLU(negative_slope=0.01)
    )
    (4): FeatureExtractor(
      (lin1): Sequential(
        (0): Linear(in_features=128, out_features=128, bias=True)
      )
      (lin2): Sequential(
        (0): Linear(in_features=128, out_features=128, bias=False)
      )
      (lin3): Sequential(
        (0): Linear(in_features=128, out_features=128, bias=False)
      )
      (activation): LeakyReLU(negative_slope=0.01)
    )
    (5): FeatureExtractor(
      (lin1): Sequential(
        (0): Linear(in_features=128, out_features=128, bias=True)
      )
      (lin2): Sequential(
        (0): Linear(in_features=128, out_features=128, bias=False)
      )
      (lin3): Sequential(
        (0): Linear(in_features=128, out_features=128, bias=False)
      )
      (activation): LeakyReLU(negative_slope=0.01)
    )
    (6): FeatureExtractor(
      (lin1): Sequential(
        (0): Linear(in_features=128, out_features=128, bias=True)
      )
      (lin2): Sequential(
        (0): Linear(in_features=128, out_features=128, bias=False)
      )
      (lin3): Sequential(
        (0): Linear(in_features=128, out_features=128, bias=False)
      )
      (activation): LeakyReLU(negative_slope=0.01)
    )
    (7): FeatureExtractor(
      (lin1): Sequential(
        (0): Linear(in_features=128, out_features=128, bias=True)
      )
      (lin2): Sequential(
        (0): Linear(in_features=128, out_features=128, bias=False)
      )
      (lin3): Sequential(
        (0): Linear(in_features=128, out_features=128, bias=False)
      )
      (activation): LeakyReLU(negative_slope=0.01)
    )
  )
  (after_conv): Sequential(
    (0): Linear(in_features=128, out_features=128, bias=True)
  )
  (final_lin): Sequential(
    (0): Linear(in_features=128, out_features=1, bias=True)
  )
)
| 07-01 18:08:11 load dataset: ego_small
200
| 07-01 18:08:11 model: Powerful(
  (activation): LeakyReLU(negative_slope=0.01)
  (time_mlp): Sequential(
    (0): Linear(in_features=1, out_features=4, bias=True)
    (1): GELU()
    (2): Linear(in_features=4, out_features=1, bias=True)
  )
  (in_lin): Sequential(
    (0): Linear(in_features=2, out_features=128, bias=True)
  )
  (layer_cat_lin): Sequential(
    (0): Linear(in_features=1026, out_features=128, bias=True)
  )
  (convs): ModuleList(
    (0): PowerfulLayer(
      (m1): Sequential(
        (0): Linear(in_features=128, out_features=128, bias=True)
        (1): LeakyReLU(negative_slope=0.01)
        (2): Linear(in_features=128, out_features=128, bias=True)
      )
      (m2): Sequential(
        (0): Linear(in_features=128, out_features=128, bias=True)
        (1): LeakyReLU(negative_slope=0.01)
        (2): Linear(in_features=128, out_features=128, bias=True)
      )
      (m4): Sequential(
        (0): Linear(in_features=256, out_features=128, bias=True)
      )
    )
    (1): PowerfulLayer(
      (m1): Sequential(
        (0): Linear(in_features=128, out_features=128, bias=True)
        (1): LeakyReLU(negative_slope=0.01)
        (2): Linear(in_features=128, out_features=128, bias=True)
      )
      (m2): Sequential(
        (0): Linear(in_features=128, out_features=128, bias=True)
        (1): LeakyReLU(negative_slope=0.01)
        (2): Linear(in_features=128, out_features=128, bias=True)
      )
      (m4): Sequential(
        (0): Linear(in_features=256, out_features=128, bias=True)
      )
    )
    (2): PowerfulLayer(
      (m1): Sequential(
        (0): Linear(in_features=128, out_features=128, bias=True)
        (1): LeakyReLU(negative_slope=0.01)
        (2): Linear(in_features=128, out_features=128, bias=True)
      )
      (m2): Sequential(
        (0): Linear(in_features=128, out_features=128, bias=True)
        (1): LeakyReLU(negative_slope=0.01)
        (2): Linear(in_features=128, out_features=128, bias=True)
      )
      (m4): Sequential(
        (0): Linear(in_features=256, out_features=128, bias=True)
      )
    )
    (3): PowerfulLayer(
      (m1): Sequential(
        (0): Linear(in_features=128, out_features=128, bias=True)
        (1): LeakyReLU(negative_slope=0.01)
        (2): Linear(in_features=128, out_features=128, bias=True)
      )
      (m2): Sequential(
        (0): Linear(in_features=128, out_features=128, bias=True)
        (1): LeakyReLU(negative_slope=0.01)
        (2): Linear(in_features=128, out_features=128, bias=True)
      )
      (m4): Sequential(
        (0): Linear(in_features=256, out_features=128, bias=True)
      )
    )
    (4): PowerfulLayer(
      (m1): Sequential(
        (0): Linear(in_features=128, out_features=128, bias=True)
        (1): LeakyReLU(negative_slope=0.01)
        (2): Linear(in_features=128, out_features=128, bias=True)
      )
      (m2): Sequential(
        (0): Linear(in_features=128, out_features=128, bias=True)
        (1): LeakyReLU(negative_slope=0.01)
        (2): Linear(in_features=128, out_features=128, bias=True)
      )
      (m4): Sequential(
        (0): Linear(in_features=256, out_features=128, bias=True)
      )
    )
    (5): PowerfulLayer(
      (m1): Sequential(
        (0): Linear(in_features=128, out_features=128, bias=True)
        (1): LeakyReLU(negative_slope=0.01)
        (2): Linear(in_features=128, out_features=128, bias=True)
      )
      (m2): Sequential(
        (0): Linear(in_features=128, out_features=128, bias=True)
        (1): LeakyReLU(negative_slope=0.01)
        (2): Linear(in_features=128, out_features=128, bias=True)
      )
      (m4): Sequential(
        (0): Linear(in_features=256, out_features=128, bias=True)
      )
    )
    (6): PowerfulLayer(
      (m1): Sequential(
        (0): Linear(in_features=128, out_features=128, bias=True)
        (1): LeakyReLU(negative_slope=0.01)
        (2): Linear(in_features=128, out_features=128, bias=True)
      )
      (m2): Sequential(
        (0): Linear(in_features=128, out_features=128, bias=True)
        (1): LeakyReLU(negative_slope=0.01)
        (2): Linear(in_features=128, out_features=128, bias=True)
      )
      (m4): Sequential(
        (0): Linear(in_features=256, out_features=128, bias=True)
      )
    )
    (7): PowerfulLayer(
      (m1): Sequential(
        (0): Linear(in_features=128, out_features=128, bias=True)
        (1): LeakyReLU(negative_slope=0.01)
        (2): Linear(in_features=128, out_features=128, bias=True)
      )
      (m2): Sequential(
        (0): Linear(in_features=128, out_features=128, bias=True)
        (1): LeakyReLU(negative_slope=0.01)
        (2): Linear(in_features=128, out_features=128, bias=True)
      )
      (m4): Sequential(
        (0): Linear(in_features=256, out_features=128, bias=True)
      )
    )
  )
  (bns): ModuleList(
    (0): None
    (1): None
    (2): None
    (3): None
    (4): None
    (5): None
    (6): None
    (7): None
  )
  (feature_extractors): ModuleList(
    (0): FeatureExtractor(
      (lin1): Sequential(
        (0): Linear(in_features=128, out_features=128, bias=True)
      )
      (lin2): Sequential(
        (0): Linear(in_features=128, out_features=128, bias=False)
      )
      (lin3): Sequential(
        (0): Linear(in_features=128, out_features=128, bias=False)
      )
      (activation): LeakyReLU(negative_slope=0.01)
    )
    (1): FeatureExtractor(
      (lin1): Sequential(
        (0): Linear(in_features=128, out_features=128, bias=True)
      )
      (lin2): Sequential(
        (0): Linear(in_features=128, out_features=128, bias=False)
      )
      (lin3): Sequential(
        (0): Linear(in_features=128, out_features=128, bias=False)
      )
      (activation): LeakyReLU(negative_slope=0.01)
    )
    (2): FeatureExtractor(
      (lin1): Sequential(
        (0): Linear(in_features=128, out_features=128, bias=True)
      )
      (lin2): Sequential(
        (0): Linear(in_features=128, out_features=128, bias=False)
      )
      (lin3): Sequential(
        (0): Linear(in_features=128, out_features=128, bias=False)
      )
      (activation): LeakyReLU(negative_slope=0.01)
    )
    (3): FeatureExtractor(
      (lin1): Sequential(
        (0): Linear(in_features=128, out_features=128, bias=True)
      )
      (lin2): Sequential(
        (0): Linear(in_features=128, out_features=128, bias=False)
      )
      (lin3): Sequential(
        (0): Linear(in_features=128, out_features=128, bias=False)
      )
      (activation): LeakyReLU(negative_slope=0.01)
    )
    (4): FeatureExtractor(
      (lin1): Sequential(
        (0): Linear(in_features=128, out_features=128, bias=True)
      )
      (lin2): Sequential(
        (0): Linear(in_features=128, out_features=128, bias=False)
      )
      (lin3): Sequential(
        (0): Linear(in_features=128, out_features=128, bias=False)
      )
      (activation): LeakyReLU(negative_slope=0.01)
    )
    (5): FeatureExtractor(
      (lin1): Sequential(
        (0): Linear(in_features=128, out_features=128, bias=True)
      )
      (lin2): Sequential(
        (0): Linear(in_features=128, out_features=128, bias=False)
      )
      (lin3): Sequential(
        (0): Linear(in_features=128, out_features=128, bias=False)
      )
      (activation): LeakyReLU(negative_slope=0.01)
    )
    (6): FeatureExtractor(
      (lin1): Sequential(
        (0): Linear(in_features=128, out_features=128, bias=True)
      )
      (lin2): Sequential(
        (0): Linear(in_features=128, out_features=128, bias=False)
      )
      (lin3): Sequential(
        (0): Linear(in_features=128, out_features=128, bias=False)
      )
      (activation): LeakyReLU(negative_slope=0.01)
    )
    (7): FeatureExtractor(
      (lin1): Sequential(
        (0): Linear(in_features=128, out_features=128, bias=True)
      )
      (lin2): Sequential(
        (0): Linear(in_features=128, out_features=128, bias=False)
      )
      (lin3): Sequential(
        (0): Linear(in_features=128, out_features=128, bias=False)
      )
      (activation): LeakyReLU(negative_slope=0.01)
    )
  )
  (after_conv): Sequential(
    (0): Linear(in_features=128, out_features=128, bias=True)
  )
  (final_lin): Sequential(
    (0): Linear(in_features=128, out_features=1, bias=True)
  )
)
| 07-01 18:10:27 epoch: 005| time: 4.5s| train loss: +2.512e-02 | test loss: +2.903e-02 | 
| 07-01 18:10:27 epoch: 005| train loss i: nan test loss i: nan | 
| 07-01 18:10:27 epoch: 005| time: 4.6s| train loss: +2.512e-02 | test loss: +2.903e-02 | 
| 07-01 18:10:27 epoch: 005| train loss i: nan test loss i: nan | 
| 07-01 18:10:27 model: Powerful(
  (activation): LeakyReLU(negative_slope=0.01)
  (time_mlp): Sequential(
    (0): Linear(in_features=1, out_features=4, bias=True)
    (1): GELU()
    (2): Linear(in_features=4, out_features=1, bias=True)
  )
  (in_lin): Sequential(
    (0): Linear(in_features=2, out_features=128, bias=True)
  )
  (layer_cat_lin): Sequential(
    (0): Linear(in_features=1026, out_features=128, bias=True)
  )
  (convs): ModuleList(
    (0): PowerfulLayer(
      (m1): Sequential(
        (0): Linear(in_features=128, out_features=128, bias=True)
        (1): LeakyReLU(negative_slope=0.01)
        (2): Linear(in_features=128, out_features=128, bias=True)
      )
      (m2): Sequential(
        (0): Linear(in_features=128, out_features=128, bias=True)
        (1): LeakyReLU(negative_slope=0.01)
        (2): Linear(in_features=128, out_features=128, bias=True)
      )
      (m4): Sequential(
        (0): Linear(in_features=256, out_features=128, bias=True)
      )
    )
    (1): PowerfulLayer(
      (m1): Sequential(
        (0): Linear(in_features=128, out_features=128, bias=True)
        (1): LeakyReLU(negative_slope=0.01)
        (2): Linear(in_features=128, out_features=128, bias=True)
      )
      (m2): Sequential(
        (0): Linear(in_features=128, out_features=128, bias=True)
        (1): LeakyReLU(negative_slope=0.01)
        (2): Linear(in_features=128, out_features=128, bias=True)
      )
      (m4): Sequential(
        (0): Linear(in_features=256, out_features=128, bias=True)
      )
    )
    (2): PowerfulLayer(
      (m1): Sequential(
        (0): Linear(in_features=128, out_features=128, bias=True)
        (1): LeakyReLU(negative_slope=0.01)
        (2): Linear(in_features=128, out_features=128, bias=True)
      )
      (m2): Sequential(
        (0): Linear(in_features=128, out_features=128, bias=True)
        (1): LeakyReLU(negative_slope=0.01)
        (2): Linear(in_features=128, out_features=128, bias=True)
      )
      (m4): Sequential(
        (0): Linear(in_features=256, out_features=128, bias=True)
      )
    )
    (3): PowerfulLayer(
      (m1): Sequential(
        (0): Linear(in_features=128, out_features=128, bias=True)
        (1): LeakyReLU(negative_slope=0.01)
        (2): Linear(in_features=128, out_features=128, bias=True)
      )
      (m2): Sequential(
        (0): Linear(in_features=128, out_features=128, bias=True)
        (1): LeakyReLU(negative_slope=0.01)
        (2): Linear(in_features=128, out_features=128, bias=True)
      )
      (m4): Sequential(
        (0): Linear(in_features=256, out_features=128, bias=True)
      )
    )
    (4): PowerfulLayer(
      (m1): Sequential(
        (0): Linear(in_features=128, out_features=128, bias=True)
        (1): LeakyReLU(negative_slope=0.01)
        (2): Linear(in_features=128, out_features=128, bias=True)
      )
      (m2): Sequential(
        (0): Linear(in_features=128, out_features=128, bias=True)
        (1): LeakyReLU(negative_slope=0.01)
        (2): Linear(in_features=128, out_features=128, bias=True)
      )
      (m4): Sequential(
        (0): Linear(in_features=256, out_features=128, bias=True)
      )
    )
    (5): PowerfulLayer(
      (m1): Sequential(
        (0): Linear(in_features=128, out_features=128, bias=True)
        (1): LeakyReLU(negative_slope=0.01)
        (2): Linear(in_features=128, out_features=128, bias=True)
      )
      (m2): Sequential(
        (0): Linear(in_features=128, out_features=128, bias=True)
        (1): LeakyReLU(negative_slope=0.01)
        (2): Linear(in_features=128, out_features=128, bias=True)
      )
      (m4): Sequential(
        (0): Linear(in_features=256, out_features=128, bias=True)
      )
    )
    (6): PowerfulLayer(
      (m1): Sequential(
        (0): Linear(in_features=128, out_features=128, bias=True)
        (1): LeakyReLU(negative_slope=0.01)
        (2): Linear(in_features=128, out_features=128, bias=True)
      )
      (m2): Sequential(
        (0): Linear(in_features=128, out_features=128, bias=True)
        (1): LeakyReLU(negative_slope=0.01)
        (2): Linear(in_features=128, out_features=128, bias=True)
      )
      (m4): Sequential(
        (0): Linear(in_features=256, out_features=128, bias=True)
      )
    )
    (7): PowerfulLayer(
      (m1): Sequential(
        (0): Linear(in_features=128, out_features=128, bias=True)
        (1): LeakyReLU(negative_slope=0.01)
        (2): Linear(in_features=128, out_features=128, bias=True)
      )
      (m2): Sequential(
        (0): Linear(in_features=128, out_features=128, bias=True)
        (1): LeakyReLU(negative_slope=0.01)
        (2): Linear(in_features=128, out_features=128, bias=True)
      )
      (m4): Sequential(
        (0): Linear(in_features=256, out_features=128, bias=True)
      )
    )
  )
  (bns): ModuleList(
    (0): None
    (1): None
    (2): None
    (3): None
    (4): None
    (5): None
    (6): None
    (7): None
  )
  (feature_extractors): ModuleList(
    (0): FeatureExtractor(
      (lin1): Sequential(
        (0): Linear(in_features=128, out_features=128, bias=True)
      )
      (lin2): Sequential(
        (0): Linear(in_features=128, out_features=128, bias=False)
      )
      (lin3): Sequential(
        (0): Linear(in_features=128, out_features=128, bias=False)
      )
      (activation): LeakyReLU(negative_slope=0.01)
    )
    (1): FeatureExtractor(
      (lin1): Sequential(
        (0): Linear(in_features=128, out_features=128, bias=True)
      )
      (lin2): Sequential(
        (0): Linear(in_features=128, out_features=128, bias=False)
      )
      (lin3): Sequential(
        (0): Linear(in_features=128, out_features=128, bias=False)
      )
      (activation): LeakyReLU(negative_slope=0.01)
    )
    (2): FeatureExtractor(
      (lin1): Sequential(
        (0): Linear(in_features=128, out_features=128, bias=True)
      )
      (lin2): Sequential(
        (0): Linear(in_features=128, out_features=128, bias=False)
      )
      (lin3): Sequential(
        (0): Linear(in_features=128, out_features=128, bias=False)
      )
      (activation): LeakyReLU(negative_slope=0.01)
    )
    (3): FeatureExtractor(
      (lin1): Sequential(
        (0): Linear(in_features=128, out_features=128, bias=True)
      )
      (lin2): Sequential(
        (0): Linear(in_features=128, out_features=128, bias=False)
      )
      (lin3): Sequential(
        (0): Linear(in_features=128, out_features=128, bias=False)
      )
      (activation): LeakyReLU(negative_slope=0.01)
    )
    (4): FeatureExtractor(
      (lin1): Sequential(
        (0): Linear(in_features=128, out_features=128, bias=True)
      )
      (lin2): Sequential(
        (0): Linear(in_features=128, out_features=128, bias=False)
      )
      (lin3): Sequential(
        (0): Linear(in_features=128, out_features=128, bias=False)
      )
      (activation): LeakyReLU(negative_slope=0.01)
    )
    (5): FeatureExtractor(
      (lin1): Sequential(
        (0): Linear(in_features=128, out_features=128, bias=True)
      )
      (lin2): Sequential(
        (0): Linear(in_features=128, out_features=128, bias=False)
      )
      (lin3): Sequential(
        (0): Linear(in_features=128, out_features=128, bias=False)
      )
      (activation): LeakyReLU(negative_slope=0.01)
    )
    (6): FeatureExtractor(
      (lin1): Sequential(
        (0): Linear(in_features=128, out_features=128, bias=True)
      )
      (lin2): Sequential(
        (0): Linear(in_features=128, out_features=128, bias=False)
      )
      (lin3): Sequential(
        (0): Linear(in_features=128, out_features=128, bias=False)
      )
      (activation): LeakyReLU(negative_slope=0.01)
    )
    (7): FeatureExtractor(
      (lin1): Sequential(
        (0): Linear(in_features=128, out_features=128, bias=True)
      )
      (lin2): Sequential(
        (0): Linear(in_features=128, out_features=128, bias=False)
      )
      (lin3): Sequential(
        (0): Linear(in_features=128, out_features=128, bias=False)
      )
      (activation): LeakyReLU(negative_slope=0.01)
    )
  )
  (after_conv): Sequential(
    (0): Linear(in_features=128, out_features=128, bias=True)
  )
  (final_lin): Sequential(
    (0): Linear(in_features=128, out_features=1, bias=True)
  )
)
| 07-01 18:17:24 load dataset: ego_small
200
| 07-01 18:17:24 model: Powerful(
  (activation): LeakyReLU(negative_slope=0.01)
  (time_mlp): Sequential(
    (0): Linear(in_features=1, out_features=4, bias=True)
    (1): GELU()
    (2): Linear(in_features=4, out_features=1, bias=True)
  )
  (in_lin): Sequential(
    (0): Linear(in_features=2, out_features=128, bias=True)
  )
  (layer_cat_lin): Sequential(
    (0): Linear(in_features=1026, out_features=128, bias=True)
  )
  (convs): ModuleList(
    (0): PowerfulLayer(
      (m1): Sequential(
        (0): Linear(in_features=128, out_features=128, bias=True)
        (1): LeakyReLU(negative_slope=0.01)
        (2): Linear(in_features=128, out_features=128, bias=True)
      )
      (m2): Sequential(
        (0): Linear(in_features=128, out_features=128, bias=True)
        (1): LeakyReLU(negative_slope=0.01)
        (2): Linear(in_features=128, out_features=128, bias=True)
      )
      (m4): Sequential(
        (0): Linear(in_features=256, out_features=128, bias=True)
      )
    )
    (1): PowerfulLayer(
      (m1): Sequential(
        (0): Linear(in_features=128, out_features=128, bias=True)
        (1): LeakyReLU(negative_slope=0.01)
        (2): Linear(in_features=128, out_features=128, bias=True)
      )
      (m2): Sequential(
        (0): Linear(in_features=128, out_features=128, bias=True)
        (1): LeakyReLU(negative_slope=0.01)
        (2): Linear(in_features=128, out_features=128, bias=True)
      )
      (m4): Sequential(
        (0): Linear(in_features=256, out_features=128, bias=True)
      )
    )
    (2): PowerfulLayer(
      (m1): Sequential(
        (0): Linear(in_features=128, out_features=128, bias=True)
        (1): LeakyReLU(negative_slope=0.01)
        (2): Linear(in_features=128, out_features=128, bias=True)
      )
      (m2): Sequential(
        (0): Linear(in_features=128, out_features=128, bias=True)
        (1): LeakyReLU(negative_slope=0.01)
        (2): Linear(in_features=128, out_features=128, bias=True)
      )
      (m4): Sequential(
        (0): Linear(in_features=256, out_features=128, bias=True)
      )
    )
    (3): PowerfulLayer(
      (m1): Sequential(
        (0): Linear(in_features=128, out_features=128, bias=True)
        (1): LeakyReLU(negative_slope=0.01)
        (2): Linear(in_features=128, out_features=128, bias=True)
      )
      (m2): Sequential(
        (0): Linear(in_features=128, out_features=128, bias=True)
        (1): LeakyReLU(negative_slope=0.01)
        (2): Linear(in_features=128, out_features=128, bias=True)
      )
      (m4): Sequential(
        (0): Linear(in_features=256, out_features=128, bias=True)
      )
    )
    (4): PowerfulLayer(
      (m1): Sequential(
        (0): Linear(in_features=128, out_features=128, bias=True)
        (1): LeakyReLU(negative_slope=0.01)
        (2): Linear(in_features=128, out_features=128, bias=True)
      )
      (m2): Sequential(
        (0): Linear(in_features=128, out_features=128, bias=True)
        (1): LeakyReLU(negative_slope=0.01)
        (2): Linear(in_features=128, out_features=128, bias=True)
      )
      (m4): Sequential(
        (0): Linear(in_features=256, out_features=128, bias=True)
      )
    )
    (5): PowerfulLayer(
      (m1): Sequential(
        (0): Linear(in_features=128, out_features=128, bias=True)
        (1): LeakyReLU(negative_slope=0.01)
        (2): Linear(in_features=128, out_features=128, bias=True)
      )
      (m2): Sequential(
        (0): Linear(in_features=128, out_features=128, bias=True)
        (1): LeakyReLU(negative_slope=0.01)
        (2): Linear(in_features=128, out_features=128, bias=True)
      )
      (m4): Sequential(
        (0): Linear(in_features=256, out_features=128, bias=True)
      )
    )
    (6): PowerfulLayer(
      (m1): Sequential(
        (0): Linear(in_features=128, out_features=128, bias=True)
        (1): LeakyReLU(negative_slope=0.01)
        (2): Linear(in_features=128, out_features=128, bias=True)
      )
      (m2): Sequential(
        (0): Linear(in_features=128, out_features=128, bias=True)
        (1): LeakyReLU(negative_slope=0.01)
        (2): Linear(in_features=128, out_features=128, bias=True)
      )
      (m4): Sequential(
        (0): Linear(in_features=256, out_features=128, bias=True)
      )
    )
    (7): PowerfulLayer(
      (m1): Sequential(
        (0): Linear(in_features=128, out_features=128, bias=True)
        (1): LeakyReLU(negative_slope=0.01)
        (2): Linear(in_features=128, out_features=128, bias=True)
      )
      (m2): Sequential(
        (0): Linear(in_features=128, out_features=128, bias=True)
        (1): LeakyReLU(negative_slope=0.01)
        (2): Linear(in_features=128, out_features=128, bias=True)
      )
      (m4): Sequential(
        (0): Linear(in_features=256, out_features=128, bias=True)
      )
    )
  )
  (bns): ModuleList(
    (0): None
    (1): None
    (2): None
    (3): None
    (4): None
    (5): None
    (6): None
    (7): None
  )
  (feature_extractors): ModuleList(
    (0): FeatureExtractor(
      (lin1): Sequential(
        (0): Linear(in_features=128, out_features=128, bias=True)
      )
      (lin2): Sequential(
        (0): Linear(in_features=128, out_features=128, bias=False)
      )
      (lin3): Sequential(
        (0): Linear(in_features=128, out_features=128, bias=False)
      )
      (activation): LeakyReLU(negative_slope=0.01)
    )
    (1): FeatureExtractor(
      (lin1): Sequential(
        (0): Linear(in_features=128, out_features=128, bias=True)
      )
      (lin2): Sequential(
        (0): Linear(in_features=128, out_features=128, bias=False)
      )
      (lin3): Sequential(
        (0): Linear(in_features=128, out_features=128, bias=False)
      )
      (activation): LeakyReLU(negative_slope=0.01)
    )
    (2): FeatureExtractor(
      (lin1): Sequential(
        (0): Linear(in_features=128, out_features=128, bias=True)
      )
      (lin2): Sequential(
        (0): Linear(in_features=128, out_features=128, bias=False)
      )
      (lin3): Sequential(
        (0): Linear(in_features=128, out_features=128, bias=False)
      )
      (activation): LeakyReLU(negative_slope=0.01)
    )
    (3): FeatureExtractor(
      (lin1): Sequential(
        (0): Linear(in_features=128, out_features=128, bias=True)
      )
      (lin2): Sequential(
        (0): Linear(in_features=128, out_features=128, bias=False)
      )
      (lin3): Sequential(
        (0): Linear(in_features=128, out_features=128, bias=False)
      )
      (activation): LeakyReLU(negative_slope=0.01)
    )
    (4): FeatureExtractor(
      (lin1): Sequential(
        (0): Linear(in_features=128, out_features=128, bias=True)
      )
      (lin2): Sequential(
        (0): Linear(in_features=128, out_features=128, bias=False)
      )
      (lin3): Sequential(
        (0): Linear(in_features=128, out_features=128, bias=False)
      )
      (activation): LeakyReLU(negative_slope=0.01)
    )
    (5): FeatureExtractor(
      (lin1): Sequential(
        (0): Linear(in_features=128, out_features=128, bias=True)
      )
      (lin2): Sequential(
        (0): Linear(in_features=128, out_features=128, bias=False)
      )
      (lin3): Sequential(
        (0): Linear(in_features=128, out_features=128, bias=False)
      )
      (activation): LeakyReLU(negative_slope=0.01)
    )
    (6): FeatureExtractor(
      (lin1): Sequential(
        (0): Linear(in_features=128, out_features=128, bias=True)
      )
      (lin2): Sequential(
        (0): Linear(in_features=128, out_features=128, bias=False)
      )
      (lin3): Sequential(
        (0): Linear(in_features=128, out_features=128, bias=False)
      )
      (activation): LeakyReLU(negative_slope=0.01)
    )
    (7): FeatureExtractor(
      (lin1): Sequential(
        (0): Linear(in_features=128, out_features=128, bias=True)
      )
      (lin2): Sequential(
        (0): Linear(in_features=128, out_features=128, bias=False)
      )
      (lin3): Sequential(
        (0): Linear(in_features=128, out_features=128, bias=False)
      )
      (activation): LeakyReLU(negative_slope=0.01)
    )
  )
  (after_conv): Sequential(
    (0): Linear(in_features=128, out_features=128, bias=True)
  )
  (final_lin): Sequential(
    (0): Linear(in_features=128, out_features=1, bias=True)
  )
)
| 07-01 18:19:33 load dataset: ego_small
200
| 07-01 18:19:33 model: Powerful(
  (activation): LeakyReLU(negative_slope=0.01)
  (time_mlp): Sequential(
    (0): Linear(in_features=1, out_features=4, bias=True)
    (1): GELU()
    (2): Linear(in_features=4, out_features=1, bias=True)
  )
  (in_lin): Sequential(
    (0): Linear(in_features=2, out_features=128, bias=True)
  )
  (layer_cat_lin): Sequential(
    (0): Linear(in_features=1026, out_features=128, bias=True)
  )
  (convs): ModuleList(
    (0): PowerfulLayer(
      (m1): Sequential(
        (0): Linear(in_features=128, out_features=128, bias=True)
        (1): LeakyReLU(negative_slope=0.01)
        (2): Linear(in_features=128, out_features=128, bias=True)
      )
      (m2): Sequential(
        (0): Linear(in_features=128, out_features=128, bias=True)
        (1): LeakyReLU(negative_slope=0.01)
        (2): Linear(in_features=128, out_features=128, bias=True)
      )
      (m4): Sequential(
        (0): Linear(in_features=256, out_features=128, bias=True)
      )
    )
    (1): PowerfulLayer(
      (m1): Sequential(
        (0): Linear(in_features=128, out_features=128, bias=True)
        (1): LeakyReLU(negative_slope=0.01)
        (2): Linear(in_features=128, out_features=128, bias=True)
      )
      (m2): Sequential(
        (0): Linear(in_features=128, out_features=128, bias=True)
        (1): LeakyReLU(negative_slope=0.01)
        (2): Linear(in_features=128, out_features=128, bias=True)
      )
      (m4): Sequential(
        (0): Linear(in_features=256, out_features=128, bias=True)
      )
    )
    (2): PowerfulLayer(
      (m1): Sequential(
        (0): Linear(in_features=128, out_features=128, bias=True)
        (1): LeakyReLU(negative_slope=0.01)
        (2): Linear(in_features=128, out_features=128, bias=True)
      )
      (m2): Sequential(
        (0): Linear(in_features=128, out_features=128, bias=True)
        (1): LeakyReLU(negative_slope=0.01)
        (2): Linear(in_features=128, out_features=128, bias=True)
      )
      (m4): Sequential(
        (0): Linear(in_features=256, out_features=128, bias=True)
      )
    )
    (3): PowerfulLayer(
      (m1): Sequential(
        (0): Linear(in_features=128, out_features=128, bias=True)
        (1): LeakyReLU(negative_slope=0.01)
        (2): Linear(in_features=128, out_features=128, bias=True)
      )
      (m2): Sequential(
        (0): Linear(in_features=128, out_features=128, bias=True)
        (1): LeakyReLU(negative_slope=0.01)
        (2): Linear(in_features=128, out_features=128, bias=True)
      )
      (m4): Sequential(
        (0): Linear(in_features=256, out_features=128, bias=True)
      )
    )
    (4): PowerfulLayer(
      (m1): Sequential(
        (0): Linear(in_features=128, out_features=128, bias=True)
        (1): LeakyReLU(negative_slope=0.01)
        (2): Linear(in_features=128, out_features=128, bias=True)
      )
      (m2): Sequential(
        (0): Linear(in_features=128, out_features=128, bias=True)
        (1): LeakyReLU(negative_slope=0.01)
        (2): Linear(in_features=128, out_features=128, bias=True)
      )
      (m4): Sequential(
        (0): Linear(in_features=256, out_features=128, bias=True)
      )
    )
    (5): PowerfulLayer(
      (m1): Sequential(
        (0): Linear(in_features=128, out_features=128, bias=True)
        (1): LeakyReLU(negative_slope=0.01)
        (2): Linear(in_features=128, out_features=128, bias=True)
      )
      (m2): Sequential(
        (0): Linear(in_features=128, out_features=128, bias=True)
        (1): LeakyReLU(negative_slope=0.01)
        (2): Linear(in_features=128, out_features=128, bias=True)
      )
      (m4): Sequential(
        (0): Linear(in_features=256, out_features=128, bias=True)
      )
    )
    (6): PowerfulLayer(
      (m1): Sequential(
        (0): Linear(in_features=128, out_features=128, bias=True)
        (1): LeakyReLU(negative_slope=0.01)
        (2): Linear(in_features=128, out_features=128, bias=True)
      )
      (m2): Sequential(
        (0): Linear(in_features=128, out_features=128, bias=True)
        (1): LeakyReLU(negative_slope=0.01)
        (2): Linear(in_features=128, out_features=128, bias=True)
      )
      (m4): Sequential(
        (0): Linear(in_features=256, out_features=128, bias=True)
      )
    )
    (7): PowerfulLayer(
      (m1): Sequential(
        (0): Linear(in_features=128, out_features=128, bias=True)
        (1): LeakyReLU(negative_slope=0.01)
        (2): Linear(in_features=128, out_features=128, bias=True)
      )
      (m2): Sequential(
        (0): Linear(in_features=128, out_features=128, bias=True)
        (1): LeakyReLU(negative_slope=0.01)
        (2): Linear(in_features=128, out_features=128, bias=True)
      )
      (m4): Sequential(
        (0): Linear(in_features=256, out_features=128, bias=True)
      )
    )
  )
  (bns): ModuleList(
    (0): None
    (1): None
    (2): None
    (3): None
    (4): None
    (5): None
    (6): None
    (7): None
  )
  (feature_extractors): ModuleList(
    (0): FeatureExtractor(
      (lin1): Sequential(
        (0): Linear(in_features=128, out_features=128, bias=True)
      )
      (lin2): Sequential(
        (0): Linear(in_features=128, out_features=128, bias=False)
      )
      (lin3): Sequential(
        (0): Linear(in_features=128, out_features=128, bias=False)
      )
      (activation): LeakyReLU(negative_slope=0.01)
    )
    (1): FeatureExtractor(
      (lin1): Sequential(
        (0): Linear(in_features=128, out_features=128, bias=True)
      )
      (lin2): Sequential(
        (0): Linear(in_features=128, out_features=128, bias=False)
      )
      (lin3): Sequential(
        (0): Linear(in_features=128, out_features=128, bias=False)
      )
      (activation): LeakyReLU(negative_slope=0.01)
    )
    (2): FeatureExtractor(
      (lin1): Sequential(
        (0): Linear(in_features=128, out_features=128, bias=True)
      )
      (lin2): Sequential(
        (0): Linear(in_features=128, out_features=128, bias=False)
      )
      (lin3): Sequential(
        (0): Linear(in_features=128, out_features=128, bias=False)
      )
      (activation): LeakyReLU(negative_slope=0.01)
    )
    (3): FeatureExtractor(
      (lin1): Sequential(
        (0): Linear(in_features=128, out_features=128, bias=True)
      )
      (lin2): Sequential(
        (0): Linear(in_features=128, out_features=128, bias=False)
      )
      (lin3): Sequential(
        (0): Linear(in_features=128, out_features=128, bias=False)
      )
      (activation): LeakyReLU(negative_slope=0.01)
    )
    (4): FeatureExtractor(
      (lin1): Sequential(
        (0): Linear(in_features=128, out_features=128, bias=True)
      )
      (lin2): Sequential(
        (0): Linear(in_features=128, out_features=128, bias=False)
      )
      (lin3): Sequential(
        (0): Linear(in_features=128, out_features=128, bias=False)
      )
      (activation): LeakyReLU(negative_slope=0.01)
    )
    (5): FeatureExtractor(
      (lin1): Sequential(
        (0): Linear(in_features=128, out_features=128, bias=True)
      )
      (lin2): Sequential(
        (0): Linear(in_features=128, out_features=128, bias=False)
      )
      (lin3): Sequential(
        (0): Linear(in_features=128, out_features=128, bias=False)
      )
      (activation): LeakyReLU(negative_slope=0.01)
    )
    (6): FeatureExtractor(
      (lin1): Sequential(
        (0): Linear(in_features=128, out_features=128, bias=True)
      )
      (lin2): Sequential(
        (0): Linear(in_features=128, out_features=128, bias=False)
      )
      (lin3): Sequential(
        (0): Linear(in_features=128, out_features=128, bias=False)
      )
      (activation): LeakyReLU(negative_slope=0.01)
    )
    (7): FeatureExtractor(
      (lin1): Sequential(
        (0): Linear(in_features=128, out_features=128, bias=True)
      )
      (lin2): Sequential(
        (0): Linear(in_features=128, out_features=128, bias=False)
      )
      (lin3): Sequential(
        (0): Linear(in_features=128, out_features=128, bias=False)
      )
      (activation): LeakyReLU(negative_slope=0.01)
    )
  )
  (after_conv): Sequential(
    (0): Linear(in_features=128, out_features=128, bias=True)
  )
  (final_lin): Sequential(
    (0): Linear(in_features=128, out_features=1, bias=True)
  )
)
| 07-01 18:21:45 load dataset: ego_small
200
| 07-01 18:21:45 model: Powerful(
  (activation): LeakyReLU(negative_slope=0.01)
  (time_mlp): Sequential(
    (0): Linear(in_features=1, out_features=4, bias=True)
    (1): GELU()
    (2): Linear(in_features=4, out_features=1, bias=True)
  )
  (in_lin): Sequential(
    (0): Linear(in_features=2, out_features=128, bias=True)
  )
  (layer_cat_lin): Sequential(
    (0): Linear(in_features=1026, out_features=128, bias=True)
  )
  (convs): ModuleList(
    (0): PowerfulLayer(
      (m1): Sequential(
        (0): Linear(in_features=128, out_features=128, bias=True)
        (1): LeakyReLU(negative_slope=0.01)
        (2): Linear(in_features=128, out_features=128, bias=True)
      )
      (m2): Sequential(
        (0): Linear(in_features=128, out_features=128, bias=True)
        (1): LeakyReLU(negative_slope=0.01)
        (2): Linear(in_features=128, out_features=128, bias=True)
      )
      (m4): Sequential(
        (0): Linear(in_features=256, out_features=128, bias=True)
      )
    )
    (1): PowerfulLayer(
      (m1): Sequential(
        (0): Linear(in_features=128, out_features=128, bias=True)
        (1): LeakyReLU(negative_slope=0.01)
        (2): Linear(in_features=128, out_features=128, bias=True)
      )
      (m2): Sequential(
        (0): Linear(in_features=128, out_features=128, bias=True)
        (1): LeakyReLU(negative_slope=0.01)
        (2): Linear(in_features=128, out_features=128, bias=True)
      )
      (m4): Sequential(
        (0): Linear(in_features=256, out_features=128, bias=True)
      )
    )
    (2): PowerfulLayer(
      (m1): Sequential(
        (0): Linear(in_features=128, out_features=128, bias=True)
        (1): LeakyReLU(negative_slope=0.01)
        (2): Linear(in_features=128, out_features=128, bias=True)
      )
      (m2): Sequential(
        (0): Linear(in_features=128, out_features=128, bias=True)
        (1): LeakyReLU(negative_slope=0.01)
        (2): Linear(in_features=128, out_features=128, bias=True)
      )
      (m4): Sequential(
        (0): Linear(in_features=256, out_features=128, bias=True)
      )
    )
    (3): PowerfulLayer(
      (m1): Sequential(
        (0): Linear(in_features=128, out_features=128, bias=True)
        (1): LeakyReLU(negative_slope=0.01)
        (2): Linear(in_features=128, out_features=128, bias=True)
      )
      (m2): Sequential(
        (0): Linear(in_features=128, out_features=128, bias=True)
        (1): LeakyReLU(negative_slope=0.01)
        (2): Linear(in_features=128, out_features=128, bias=True)
      )
      (m4): Sequential(
        (0): Linear(in_features=256, out_features=128, bias=True)
      )
    )
    (4): PowerfulLayer(
      (m1): Sequential(
        (0): Linear(in_features=128, out_features=128, bias=True)
        (1): LeakyReLU(negative_slope=0.01)
        (2): Linear(in_features=128, out_features=128, bias=True)
      )
      (m2): Sequential(
        (0): Linear(in_features=128, out_features=128, bias=True)
        (1): LeakyReLU(negative_slope=0.01)
        (2): Linear(in_features=128, out_features=128, bias=True)
      )
      (m4): Sequential(
        (0): Linear(in_features=256, out_features=128, bias=True)
      )
    )
    (5): PowerfulLayer(
      (m1): Sequential(
        (0): Linear(in_features=128, out_features=128, bias=True)
        (1): LeakyReLU(negative_slope=0.01)
        (2): Linear(in_features=128, out_features=128, bias=True)
      )
      (m2): Sequential(
        (0): Linear(in_features=128, out_features=128, bias=True)
        (1): LeakyReLU(negative_slope=0.01)
        (2): Linear(in_features=128, out_features=128, bias=True)
      )
      (m4): Sequential(
        (0): Linear(in_features=256, out_features=128, bias=True)
      )
    )
    (6): PowerfulLayer(
      (m1): Sequential(
        (0): Linear(in_features=128, out_features=128, bias=True)
        (1): LeakyReLU(negative_slope=0.01)
        (2): Linear(in_features=128, out_features=128, bias=True)
      )
      (m2): Sequential(
        (0): Linear(in_features=128, out_features=128, bias=True)
        (1): LeakyReLU(negative_slope=0.01)
        (2): Linear(in_features=128, out_features=128, bias=True)
      )
      (m4): Sequential(
        (0): Linear(in_features=256, out_features=128, bias=True)
      )
    )
    (7): PowerfulLayer(
      (m1): Sequential(
        (0): Linear(in_features=128, out_features=128, bias=True)
        (1): LeakyReLU(negative_slope=0.01)
        (2): Linear(in_features=128, out_features=128, bias=True)
      )
      (m2): Sequential(
        (0): Linear(in_features=128, out_features=128, bias=True)
        (1): LeakyReLU(negative_slope=0.01)
        (2): Linear(in_features=128, out_features=128, bias=True)
      )
      (m4): Sequential(
        (0): Linear(in_features=256, out_features=128, bias=True)
      )
    )
  )
  (bns): ModuleList(
    (0): None
    (1): None
    (2): None
    (3): None
    (4): None
    (5): None
    (6): None
    (7): None
  )
  (feature_extractors): ModuleList(
    (0): FeatureExtractor(
      (lin1): Sequential(
        (0): Linear(in_features=128, out_features=128, bias=True)
      )
      (lin2): Sequential(
        (0): Linear(in_features=128, out_features=128, bias=False)
      )
      (lin3): Sequential(
        (0): Linear(in_features=128, out_features=128, bias=False)
      )
      (activation): LeakyReLU(negative_slope=0.01)
    )
    (1): FeatureExtractor(
      (lin1): Sequential(
        (0): Linear(in_features=128, out_features=128, bias=True)
      )
      (lin2): Sequential(
        (0): Linear(in_features=128, out_features=128, bias=False)
      )
      (lin3): Sequential(
        (0): Linear(in_features=128, out_features=128, bias=False)
      )
      (activation): LeakyReLU(negative_slope=0.01)
    )
    (2): FeatureExtractor(
      (lin1): Sequential(
        (0): Linear(in_features=128, out_features=128, bias=True)
      )
      (lin2): Sequential(
        (0): Linear(in_features=128, out_features=128, bias=False)
      )
      (lin3): Sequential(
        (0): Linear(in_features=128, out_features=128, bias=False)
      )
      (activation): LeakyReLU(negative_slope=0.01)
    )
    (3): FeatureExtractor(
      (lin1): Sequential(
        (0): Linear(in_features=128, out_features=128, bias=True)
      )
      (lin2): Sequential(
        (0): Linear(in_features=128, out_features=128, bias=False)
      )
      (lin3): Sequential(
        (0): Linear(in_features=128, out_features=128, bias=False)
      )
      (activation): LeakyReLU(negative_slope=0.01)
    )
    (4): FeatureExtractor(
      (lin1): Sequential(
        (0): Linear(in_features=128, out_features=128, bias=True)
      )
      (lin2): Sequential(
        (0): Linear(in_features=128, out_features=128, bias=False)
      )
      (lin3): Sequential(
        (0): Linear(in_features=128, out_features=128, bias=False)
      )
      (activation): LeakyReLU(negative_slope=0.01)
    )
    (5): FeatureExtractor(
      (lin1): Sequential(
        (0): Linear(in_features=128, out_features=128, bias=True)
      )
      (lin2): Sequential(
        (0): Linear(in_features=128, out_features=128, bias=False)
      )
      (lin3): Sequential(
        (0): Linear(in_features=128, out_features=128, bias=False)
      )
      (activation): LeakyReLU(negative_slope=0.01)
    )
    (6): FeatureExtractor(
      (lin1): Sequential(
        (0): Linear(in_features=128, out_features=128, bias=True)
      )
      (lin2): Sequential(
        (0): Linear(in_features=128, out_features=128, bias=False)
      )
      (lin3): Sequential(
        (0): Linear(in_features=128, out_features=128, bias=False)
      )
      (activation): LeakyReLU(negative_slope=0.01)
    )
    (7): FeatureExtractor(
      (lin1): Sequential(
        (0): Linear(in_features=128, out_features=128, bias=True)
      )
      (lin2): Sequential(
        (0): Linear(in_features=128, out_features=128, bias=False)
      )
      (lin3): Sequential(
        (0): Linear(in_features=128, out_features=128, bias=False)
      )
      (activation): LeakyReLU(negative_slope=0.01)
    )
  )
  (after_conv): Sequential(
    (0): Linear(in_features=128, out_features=128, bias=True)
  )
  (final_lin): Sequential(
    (0): Linear(in_features=128, out_features=1, bias=True)
  )
)
| 07-01 18:24:03 epoch: 006| time: 4.5s| train loss: +2.393e-02 | test loss: +3.172e-02 | 
| 07-01 18:24:03 epoch: 006| train loss i: nan test loss i: nan | 
| 07-01 18:24:03 epoch: 006| time: 4.7s| train loss: +2.393e-02 | test loss: +3.172e-02 | 
| 07-01 18:24:03 epoch: 006| train loss i: nan test loss i: nan | 
| 07-01 18:24:03 model: Powerful(
  (activation): LeakyReLU(negative_slope=0.01)
  (time_mlp): Sequential(
    (0): Linear(in_features=1, out_features=4, bias=True)
    (1): GELU()
    (2): Linear(in_features=4, out_features=1, bias=True)
  )
  (in_lin): Sequential(
    (0): Linear(in_features=2, out_features=128, bias=True)
  )
  (layer_cat_lin): Sequential(
    (0): Linear(in_features=1026, out_features=128, bias=True)
  )
  (convs): ModuleList(
    (0): PowerfulLayer(
      (m1): Sequential(
        (0): Linear(in_features=128, out_features=128, bias=True)
        (1): LeakyReLU(negative_slope=0.01)
        (2): Linear(in_features=128, out_features=128, bias=True)
      )
      (m2): Sequential(
        (0): Linear(in_features=128, out_features=128, bias=True)
        (1): LeakyReLU(negative_slope=0.01)
        (2): Linear(in_features=128, out_features=128, bias=True)
      )
      (m4): Sequential(
        (0): Linear(in_features=256, out_features=128, bias=True)
      )
    )
    (1): PowerfulLayer(
      (m1): Sequential(
        (0): Linear(in_features=128, out_features=128, bias=True)
        (1): LeakyReLU(negative_slope=0.01)
        (2): Linear(in_features=128, out_features=128, bias=True)
      )
      (m2): Sequential(
        (0): Linear(in_features=128, out_features=128, bias=True)
        (1): LeakyReLU(negative_slope=0.01)
        (2): Linear(in_features=128, out_features=128, bias=True)
      )
      (m4): Sequential(
        (0): Linear(in_features=256, out_features=128, bias=True)
      )
    )
    (2): PowerfulLayer(
      (m1): Sequential(
        (0): Linear(in_features=128, out_features=128, bias=True)
        (1): LeakyReLU(negative_slope=0.01)
        (2): Linear(in_features=128, out_features=128, bias=True)
      )
      (m2): Sequential(
        (0): Linear(in_features=128, out_features=128, bias=True)
        (1): LeakyReLU(negative_slope=0.01)
        (2): Linear(in_features=128, out_features=128, bias=True)
      )
      (m4): Sequential(
        (0): Linear(in_features=256, out_features=128, bias=True)
      )
    )
    (3): PowerfulLayer(
      (m1): Sequential(
        (0): Linear(in_features=128, out_features=128, bias=True)
        (1): LeakyReLU(negative_slope=0.01)
        (2): Linear(in_features=128, out_features=128, bias=True)
      )
      (m2): Sequential(
        (0): Linear(in_features=128, out_features=128, bias=True)
        (1): LeakyReLU(negative_slope=0.01)
        (2): Linear(in_features=128, out_features=128, bias=True)
      )
      (m4): Sequential(
        (0): Linear(in_features=256, out_features=128, bias=True)
      )
    )
    (4): PowerfulLayer(
      (m1): Sequential(
        (0): Linear(in_features=128, out_features=128, bias=True)
        (1): LeakyReLU(negative_slope=0.01)
        (2): Linear(in_features=128, out_features=128, bias=True)
      )
      (m2): Sequential(
        (0): Linear(in_features=128, out_features=128, bias=True)
        (1): LeakyReLU(negative_slope=0.01)
        (2): Linear(in_features=128, out_features=128, bias=True)
      )
      (m4): Sequential(
        (0): Linear(in_features=256, out_features=128, bias=True)
      )
    )
    (5): PowerfulLayer(
      (m1): Sequential(
        (0): Linear(in_features=128, out_features=128, bias=True)
        (1): LeakyReLU(negative_slope=0.01)
        (2): Linear(in_features=128, out_features=128, bias=True)
      )
      (m2): Sequential(
        (0): Linear(in_features=128, out_features=128, bias=True)
        (1): LeakyReLU(negative_slope=0.01)
        (2): Linear(in_features=128, out_features=128, bias=True)
      )
      (m4): Sequential(
        (0): Linear(in_features=256, out_features=128, bias=True)
      )
    )
    (6): PowerfulLayer(
      (m1): Sequential(
        (0): Linear(in_features=128, out_features=128, bias=True)
        (1): LeakyReLU(negative_slope=0.01)
        (2): Linear(in_features=128, out_features=128, bias=True)
      )
      (m2): Sequential(
        (0): Linear(in_features=128, out_features=128, bias=True)
        (1): LeakyReLU(negative_slope=0.01)
        (2): Linear(in_features=128, out_features=128, bias=True)
      )
      (m4): Sequential(
        (0): Linear(in_features=256, out_features=128, bias=True)
      )
    )
    (7): PowerfulLayer(
      (m1): Sequential(
        (0): Linear(in_features=128, out_features=128, bias=True)
        (1): LeakyReLU(negative_slope=0.01)
        (2): Linear(in_features=128, out_features=128, bias=True)
      )
      (m2): Sequential(
        (0): Linear(in_features=128, out_features=128, bias=True)
        (1): LeakyReLU(negative_slope=0.01)
        (2): Linear(in_features=128, out_features=128, bias=True)
      )
      (m4): Sequential(
        (0): Linear(in_features=256, out_features=128, bias=True)
      )
    )
  )
  (bns): ModuleList(
    (0): None
    (1): None
    (2): None
    (3): None
    (4): None
    (5): None
    (6): None
    (7): None
  )
  (feature_extractors): ModuleList(
    (0): FeatureExtractor(
      (lin1): Sequential(
        (0): Linear(in_features=128, out_features=128, bias=True)
      )
      (lin2): Sequential(
        (0): Linear(in_features=128, out_features=128, bias=False)
      )
      (lin3): Sequential(
        (0): Linear(in_features=128, out_features=128, bias=False)
      )
      (activation): LeakyReLU(negative_slope=0.01)
    )
    (1): FeatureExtractor(
      (lin1): Sequential(
        (0): Linear(in_features=128, out_features=128, bias=True)
      )
      (lin2): Sequential(
        (0): Linear(in_features=128, out_features=128, bias=False)
      )
      (lin3): Sequential(
        (0): Linear(in_features=128, out_features=128, bias=False)
      )
      (activation): LeakyReLU(negative_slope=0.01)
    )
    (2): FeatureExtractor(
      (lin1): Sequential(
        (0): Linear(in_features=128, out_features=128, bias=True)
      )
      (lin2): Sequential(
        (0): Linear(in_features=128, out_features=128, bias=False)
      )
      (lin3): Sequential(
        (0): Linear(in_features=128, out_features=128, bias=False)
      )
      (activation): LeakyReLU(negative_slope=0.01)
    )
    (3): FeatureExtractor(
      (lin1): Sequential(
        (0): Linear(in_features=128, out_features=128, bias=True)
      )
      (lin2): Sequential(
        (0): Linear(in_features=128, out_features=128, bias=False)
      )
      (lin3): Sequential(
        (0): Linear(in_features=128, out_features=128, bias=False)
      )
      (activation): LeakyReLU(negative_slope=0.01)
    )
    (4): FeatureExtractor(
      (lin1): Sequential(
        (0): Linear(in_features=128, out_features=128, bias=True)
      )
      (lin2): Sequential(
        (0): Linear(in_features=128, out_features=128, bias=False)
      )
      (lin3): Sequential(
        (0): Linear(in_features=128, out_features=128, bias=False)
      )
      (activation): LeakyReLU(negative_slope=0.01)
    )
    (5): FeatureExtractor(
      (lin1): Sequential(
        (0): Linear(in_features=128, out_features=128, bias=True)
      )
      (lin2): Sequential(
        (0): Linear(in_features=128, out_features=128, bias=False)
      )
      (lin3): Sequential(
        (0): Linear(in_features=128, out_features=128, bias=False)
      )
      (activation): LeakyReLU(negative_slope=0.01)
    )
    (6): FeatureExtractor(
      (lin1): Sequential(
        (0): Linear(in_features=128, out_features=128, bias=True)
      )
      (lin2): Sequential(
        (0): Linear(in_features=128, out_features=128, bias=False)
      )
      (lin3): Sequential(
        (0): Linear(in_features=128, out_features=128, bias=False)
      )
      (activation): LeakyReLU(negative_slope=0.01)
    )
    (7): FeatureExtractor(
      (lin1): Sequential(
        (0): Linear(in_features=128, out_features=128, bias=True)
      )
      (lin2): Sequential(
        (0): Linear(in_features=128, out_features=128, bias=False)
      )
      (lin3): Sequential(
        (0): Linear(in_features=128, out_features=128, bias=False)
      )
      (activation): LeakyReLU(negative_slope=0.01)
    )
  )
  (after_conv): Sequential(
    (0): Linear(in_features=128, out_features=128, bias=True)
  )
  (final_lin): Sequential(
    (0): Linear(in_features=128, out_features=1, bias=True)
  )
)
| 07-01 18:31:08 load dataset: ego_small
200
| 07-01 18:31:08 model: Powerful(
  (activation): LeakyReLU(negative_slope=0.01)
  (time_mlp): Sequential(
    (0): Linear(in_features=1, out_features=4, bias=True)
    (1): GELU()
    (2): Linear(in_features=4, out_features=1, bias=True)
  )
  (in_lin): Sequential(
    (0): Linear(in_features=2, out_features=128, bias=True)
  )
  (layer_cat_lin): Sequential(
    (0): Linear(in_features=1026, out_features=128, bias=True)
  )
  (convs): ModuleList(
    (0): PowerfulLayer(
      (m1): Sequential(
        (0): Linear(in_features=128, out_features=128, bias=True)
        (1): LeakyReLU(negative_slope=0.01)
        (2): Linear(in_features=128, out_features=128, bias=True)
      )
      (m2): Sequential(
        (0): Linear(in_features=128, out_features=128, bias=True)
        (1): LeakyReLU(negative_slope=0.01)
        (2): Linear(in_features=128, out_features=128, bias=True)
      )
      (m4): Sequential(
        (0): Linear(in_features=256, out_features=128, bias=True)
      )
    )
    (1): PowerfulLayer(
      (m1): Sequential(
        (0): Linear(in_features=128, out_features=128, bias=True)
        (1): LeakyReLU(negative_slope=0.01)
        (2): Linear(in_features=128, out_features=128, bias=True)
      )
      (m2): Sequential(
        (0): Linear(in_features=128, out_features=128, bias=True)
        (1): LeakyReLU(negative_slope=0.01)
        (2): Linear(in_features=128, out_features=128, bias=True)
      )
      (m4): Sequential(
        (0): Linear(in_features=256, out_features=128, bias=True)
      )
    )
    (2): PowerfulLayer(
      (m1): Sequential(
        (0): Linear(in_features=128, out_features=128, bias=True)
        (1): LeakyReLU(negative_slope=0.01)
        (2): Linear(in_features=128, out_features=128, bias=True)
      )
      (m2): Sequential(
        (0): Linear(in_features=128, out_features=128, bias=True)
        (1): LeakyReLU(negative_slope=0.01)
        (2): Linear(in_features=128, out_features=128, bias=True)
      )
      (m4): Sequential(
        (0): Linear(in_features=256, out_features=128, bias=True)
      )
    )
    (3): PowerfulLayer(
      (m1): Sequential(
        (0): Linear(in_features=128, out_features=128, bias=True)
        (1): LeakyReLU(negative_slope=0.01)
        (2): Linear(in_features=128, out_features=128, bias=True)
      )
      (m2): Sequential(
        (0): Linear(in_features=128, out_features=128, bias=True)
        (1): LeakyReLU(negative_slope=0.01)
        (2): Linear(in_features=128, out_features=128, bias=True)
      )
      (m4): Sequential(
        (0): Linear(in_features=256, out_features=128, bias=True)
      )
    )
    (4): PowerfulLayer(
      (m1): Sequential(
        (0): Linear(in_features=128, out_features=128, bias=True)
        (1): LeakyReLU(negative_slope=0.01)
        (2): Linear(in_features=128, out_features=128, bias=True)
      )
      (m2): Sequential(
        (0): Linear(in_features=128, out_features=128, bias=True)
        (1): LeakyReLU(negative_slope=0.01)
        (2): Linear(in_features=128, out_features=128, bias=True)
      )
      (m4): Sequential(
        (0): Linear(in_features=256, out_features=128, bias=True)
      )
    )
    (5): PowerfulLayer(
      (m1): Sequential(
        (0): Linear(in_features=128, out_features=128, bias=True)
        (1): LeakyReLU(negative_slope=0.01)
        (2): Linear(in_features=128, out_features=128, bias=True)
      )
      (m2): Sequential(
        (0): Linear(in_features=128, out_features=128, bias=True)
        (1): LeakyReLU(negative_slope=0.01)
        (2): Linear(in_features=128, out_features=128, bias=True)
      )
      (m4): Sequential(
        (0): Linear(in_features=256, out_features=128, bias=True)
      )
    )
    (6): PowerfulLayer(
      (m1): Sequential(
        (0): Linear(in_features=128, out_features=128, bias=True)
        (1): LeakyReLU(negative_slope=0.01)
        (2): Linear(in_features=128, out_features=128, bias=True)
      )
      (m2): Sequential(
        (0): Linear(in_features=128, out_features=128, bias=True)
        (1): LeakyReLU(negative_slope=0.01)
        (2): Linear(in_features=128, out_features=128, bias=True)
      )
      (m4): Sequential(
        (0): Linear(in_features=256, out_features=128, bias=True)
      )
    )
    (7): PowerfulLayer(
      (m1): Sequential(
        (0): Linear(in_features=128, out_features=128, bias=True)
        (1): LeakyReLU(negative_slope=0.01)
        (2): Linear(in_features=128, out_features=128, bias=True)
      )
      (m2): Sequential(
        (0): Linear(in_features=128, out_features=128, bias=True)
        (1): LeakyReLU(negative_slope=0.01)
        (2): Linear(in_features=128, out_features=128, bias=True)
      )
      (m4): Sequential(
        (0): Linear(in_features=256, out_features=128, bias=True)
      )
    )
  )
  (bns): ModuleList(
    (0): None
    (1): None
    (2): None
    (3): None
    (4): None
    (5): None
    (6): None
    (7): None
  )
  (feature_extractors): ModuleList(
    (0): FeatureExtractor(
      (lin1): Sequential(
        (0): Linear(in_features=128, out_features=128, bias=True)
      )
      (lin2): Sequential(
        (0): Linear(in_features=128, out_features=128, bias=False)
      )
      (lin3): Sequential(
        (0): Linear(in_features=128, out_features=128, bias=False)
      )
      (activation): LeakyReLU(negative_slope=0.01)
    )
    (1): FeatureExtractor(
      (lin1): Sequential(
        (0): Linear(in_features=128, out_features=128, bias=True)
      )
      (lin2): Sequential(
        (0): Linear(in_features=128, out_features=128, bias=False)
      )
      (lin3): Sequential(
        (0): Linear(in_features=128, out_features=128, bias=False)
      )
      (activation): LeakyReLU(negative_slope=0.01)
    )
    (2): FeatureExtractor(
      (lin1): Sequential(
        (0): Linear(in_features=128, out_features=128, bias=True)
      )
      (lin2): Sequential(
        (0): Linear(in_features=128, out_features=128, bias=False)
      )
      (lin3): Sequential(
        (0): Linear(in_features=128, out_features=128, bias=False)
      )
      (activation): LeakyReLU(negative_slope=0.01)
    )
    (3): FeatureExtractor(
      (lin1): Sequential(
        (0): Linear(in_features=128, out_features=128, bias=True)
      )
      (lin2): Sequential(
        (0): Linear(in_features=128, out_features=128, bias=False)
      )
      (lin3): Sequential(
        (0): Linear(in_features=128, out_features=128, bias=False)
      )
      (activation): LeakyReLU(negative_slope=0.01)
    )
    (4): FeatureExtractor(
      (lin1): Sequential(
        (0): Linear(in_features=128, out_features=128, bias=True)
      )
      (lin2): Sequential(
        (0): Linear(in_features=128, out_features=128, bias=False)
      )
      (lin3): Sequential(
        (0): Linear(in_features=128, out_features=128, bias=False)
      )
      (activation): LeakyReLU(negative_slope=0.01)
    )
    (5): FeatureExtractor(
      (lin1): Sequential(
        (0): Linear(in_features=128, out_features=128, bias=True)
      )
      (lin2): Sequential(
        (0): Linear(in_features=128, out_features=128, bias=False)
      )
      (lin3): Sequential(
        (0): Linear(in_features=128, out_features=128, bias=False)
      )
      (activation): LeakyReLU(negative_slope=0.01)
    )
    (6): FeatureExtractor(
      (lin1): Sequential(
        (0): Linear(in_features=128, out_features=128, bias=True)
      )
      (lin2): Sequential(
        (0): Linear(in_features=128, out_features=128, bias=False)
      )
      (lin3): Sequential(
        (0): Linear(in_features=128, out_features=128, bias=False)
      )
      (activation): LeakyReLU(negative_slope=0.01)
    )
    (7): FeatureExtractor(
      (lin1): Sequential(
        (0): Linear(in_features=128, out_features=128, bias=True)
      )
      (lin2): Sequential(
        (0): Linear(in_features=128, out_features=128, bias=False)
      )
      (lin3): Sequential(
        (0): Linear(in_features=128, out_features=128, bias=False)
      )
      (activation): LeakyReLU(negative_slope=0.01)
    )
  )
  (after_conv): Sequential(
    (0): Linear(in_features=128, out_features=128, bias=True)
  )
  (final_lin): Sequential(
    (0): Linear(in_features=128, out_features=1, bias=True)
  )
)
| 07-01 18:33:18 load dataset: ego_small
200
| 07-01 18:33:18 model: Powerful(
  (activation): LeakyReLU(negative_slope=0.01)
  (time_mlp): Sequential(
    (0): Linear(in_features=1, out_features=4, bias=True)
    (1): GELU()
    (2): Linear(in_features=4, out_features=1, bias=True)
  )
  (in_lin): Sequential(
    (0): Linear(in_features=2, out_features=128, bias=True)
  )
  (layer_cat_lin): Sequential(
    (0): Linear(in_features=1026, out_features=128, bias=True)
  )
  (convs): ModuleList(
    (0): PowerfulLayer(
      (m1): Sequential(
        (0): Linear(in_features=128, out_features=128, bias=True)
        (1): LeakyReLU(negative_slope=0.01)
        (2): Linear(in_features=128, out_features=128, bias=True)
      )
      (m2): Sequential(
        (0): Linear(in_features=128, out_features=128, bias=True)
        (1): LeakyReLU(negative_slope=0.01)
        (2): Linear(in_features=128, out_features=128, bias=True)
      )
      (m4): Sequential(
        (0): Linear(in_features=256, out_features=128, bias=True)
      )
    )
    (1): PowerfulLayer(
      (m1): Sequential(
        (0): Linear(in_features=128, out_features=128, bias=True)
        (1): LeakyReLU(negative_slope=0.01)
        (2): Linear(in_features=128, out_features=128, bias=True)
      )
      (m2): Sequential(
        (0): Linear(in_features=128, out_features=128, bias=True)
        (1): LeakyReLU(negative_slope=0.01)
        (2): Linear(in_features=128, out_features=128, bias=True)
      )
      (m4): Sequential(
        (0): Linear(in_features=256, out_features=128, bias=True)
      )
    )
    (2): PowerfulLayer(
      (m1): Sequential(
        (0): Linear(in_features=128, out_features=128, bias=True)
        (1): LeakyReLU(negative_slope=0.01)
        (2): Linear(in_features=128, out_features=128, bias=True)
      )
      (m2): Sequential(
        (0): Linear(in_features=128, out_features=128, bias=True)
        (1): LeakyReLU(negative_slope=0.01)
        (2): Linear(in_features=128, out_features=128, bias=True)
      )
      (m4): Sequential(
        (0): Linear(in_features=256, out_features=128, bias=True)
      )
    )
    (3): PowerfulLayer(
      (m1): Sequential(
        (0): Linear(in_features=128, out_features=128, bias=True)
        (1): LeakyReLU(negative_slope=0.01)
        (2): Linear(in_features=128, out_features=128, bias=True)
      )
      (m2): Sequential(
        (0): Linear(in_features=128, out_features=128, bias=True)
        (1): LeakyReLU(negative_slope=0.01)
        (2): Linear(in_features=128, out_features=128, bias=True)
      )
      (m4): Sequential(
        (0): Linear(in_features=256, out_features=128, bias=True)
      )
    )
    (4): PowerfulLayer(
      (m1): Sequential(
        (0): Linear(in_features=128, out_features=128, bias=True)
        (1): LeakyReLU(negative_slope=0.01)
        (2): Linear(in_features=128, out_features=128, bias=True)
      )
      (m2): Sequential(
        (0): Linear(in_features=128, out_features=128, bias=True)
        (1): LeakyReLU(negative_slope=0.01)
        (2): Linear(in_features=128, out_features=128, bias=True)
      )
      (m4): Sequential(
        (0): Linear(in_features=256, out_features=128, bias=True)
      )
    )
    (5): PowerfulLayer(
      (m1): Sequential(
        (0): Linear(in_features=128, out_features=128, bias=True)
        (1): LeakyReLU(negative_slope=0.01)
        (2): Linear(in_features=128, out_features=128, bias=True)
      )
      (m2): Sequential(
        (0): Linear(in_features=128, out_features=128, bias=True)
        (1): LeakyReLU(negative_slope=0.01)
        (2): Linear(in_features=128, out_features=128, bias=True)
      )
      (m4): Sequential(
        (0): Linear(in_features=256, out_features=128, bias=True)
      )
    )
    (6): PowerfulLayer(
      (m1): Sequential(
        (0): Linear(in_features=128, out_features=128, bias=True)
        (1): LeakyReLU(negative_slope=0.01)
        (2): Linear(in_features=128, out_features=128, bias=True)
      )
      (m2): Sequential(
        (0): Linear(in_features=128, out_features=128, bias=True)
        (1): LeakyReLU(negative_slope=0.01)
        (2): Linear(in_features=128, out_features=128, bias=True)
      )
      (m4): Sequential(
        (0): Linear(in_features=256, out_features=128, bias=True)
      )
    )
    (7): PowerfulLayer(
      (m1): Sequential(
        (0): Linear(in_features=128, out_features=128, bias=True)
        (1): LeakyReLU(negative_slope=0.01)
        (2): Linear(in_features=128, out_features=128, bias=True)
      )
      (m2): Sequential(
        (0): Linear(in_features=128, out_features=128, bias=True)
        (1): LeakyReLU(negative_slope=0.01)
        (2): Linear(in_features=128, out_features=128, bias=True)
      )
      (m4): Sequential(
        (0): Linear(in_features=256, out_features=128, bias=True)
      )
    )
  )
  (bns): ModuleList(
    (0): None
    (1): None
    (2): None
    (3): None
    (4): None
    (5): None
    (6): None
    (7): None
  )
  (feature_extractors): ModuleList(
    (0): FeatureExtractor(
      (lin1): Sequential(
        (0): Linear(in_features=128, out_features=128, bias=True)
      )
      (lin2): Sequential(
        (0): Linear(in_features=128, out_features=128, bias=False)
      )
      (lin3): Sequential(
        (0): Linear(in_features=128, out_features=128, bias=False)
      )
      (activation): LeakyReLU(negative_slope=0.01)
    )
    (1): FeatureExtractor(
      (lin1): Sequential(
        (0): Linear(in_features=128, out_features=128, bias=True)
      )
      (lin2): Sequential(
        (0): Linear(in_features=128, out_features=128, bias=False)
      )
      (lin3): Sequential(
        (0): Linear(in_features=128, out_features=128, bias=False)
      )
      (activation): LeakyReLU(negative_slope=0.01)
    )
    (2): FeatureExtractor(
      (lin1): Sequential(
        (0): Linear(in_features=128, out_features=128, bias=True)
      )
      (lin2): Sequential(
        (0): Linear(in_features=128, out_features=128, bias=False)
      )
      (lin3): Sequential(
        (0): Linear(in_features=128, out_features=128, bias=False)
      )
      (activation): LeakyReLU(negative_slope=0.01)
    )
    (3): FeatureExtractor(
      (lin1): Sequential(
        (0): Linear(in_features=128, out_features=128, bias=True)
      )
      (lin2): Sequential(
        (0): Linear(in_features=128, out_features=128, bias=False)
      )
      (lin3): Sequential(
        (0): Linear(in_features=128, out_features=128, bias=False)
      )
      (activation): LeakyReLU(negative_slope=0.01)
    )
    (4): FeatureExtractor(
      (lin1): Sequential(
        (0): Linear(in_features=128, out_features=128, bias=True)
      )
      (lin2): Sequential(
        (0): Linear(in_features=128, out_features=128, bias=False)
      )
      (lin3): Sequential(
        (0): Linear(in_features=128, out_features=128, bias=False)
      )
      (activation): LeakyReLU(negative_slope=0.01)
    )
    (5): FeatureExtractor(
      (lin1): Sequential(
        (0): Linear(in_features=128, out_features=128, bias=True)
      )
      (lin2): Sequential(
        (0): Linear(in_features=128, out_features=128, bias=False)
      )
      (lin3): Sequential(
        (0): Linear(in_features=128, out_features=128, bias=False)
      )
      (activation): LeakyReLU(negative_slope=0.01)
    )
    (6): FeatureExtractor(
      (lin1): Sequential(
        (0): Linear(in_features=128, out_features=128, bias=True)
      )
      (lin2): Sequential(
        (0): Linear(in_features=128, out_features=128, bias=False)
      )
      (lin3): Sequential(
        (0): Linear(in_features=128, out_features=128, bias=False)
      )
      (activation): LeakyReLU(negative_slope=0.01)
    )
    (7): FeatureExtractor(
      (lin1): Sequential(
        (0): Linear(in_features=128, out_features=128, bias=True)
      )
      (lin2): Sequential(
        (0): Linear(in_features=128, out_features=128, bias=False)
      )
      (lin3): Sequential(
        (0): Linear(in_features=128, out_features=128, bias=False)
      )
      (activation): LeakyReLU(negative_slope=0.01)
    )
  )
  (after_conv): Sequential(
    (0): Linear(in_features=128, out_features=128, bias=True)
  )
  (final_lin): Sequential(
    (0): Linear(in_features=128, out_features=1, bias=True)
  )
)
| 07-01 18:35:31 load dataset: ego_small
200
| 07-01 18:35:31 model: Powerful(
  (activation): LeakyReLU(negative_slope=0.01)
  (time_mlp): Sequential(
    (0): Linear(in_features=1, out_features=4, bias=True)
    (1): GELU()
    (2): Linear(in_features=4, out_features=1, bias=True)
  )
  (in_lin): Sequential(
    (0): Linear(in_features=2, out_features=128, bias=True)
  )
  (layer_cat_lin): Sequential(
    (0): Linear(in_features=1026, out_features=128, bias=True)
  )
  (convs): ModuleList(
    (0): PowerfulLayer(
      (m1): Sequential(
        (0): Linear(in_features=128, out_features=128, bias=True)
        (1): LeakyReLU(negative_slope=0.01)
        (2): Linear(in_features=128, out_features=128, bias=True)
      )
      (m2): Sequential(
        (0): Linear(in_features=128, out_features=128, bias=True)
        (1): LeakyReLU(negative_slope=0.01)
        (2): Linear(in_features=128, out_features=128, bias=True)
      )
      (m4): Sequential(
        (0): Linear(in_features=256, out_features=128, bias=True)
      )
    )
    (1): PowerfulLayer(
      (m1): Sequential(
        (0): Linear(in_features=128, out_features=128, bias=True)
        (1): LeakyReLU(negative_slope=0.01)
        (2): Linear(in_features=128, out_features=128, bias=True)
      )
      (m2): Sequential(
        (0): Linear(in_features=128, out_features=128, bias=True)
        (1): LeakyReLU(negative_slope=0.01)
        (2): Linear(in_features=128, out_features=128, bias=True)
      )
      (m4): Sequential(
        (0): Linear(in_features=256, out_features=128, bias=True)
      )
    )
    (2): PowerfulLayer(
      (m1): Sequential(
        (0): Linear(in_features=128, out_features=128, bias=True)
        (1): LeakyReLU(negative_slope=0.01)
        (2): Linear(in_features=128, out_features=128, bias=True)
      )
      (m2): Sequential(
        (0): Linear(in_features=128, out_features=128, bias=True)
        (1): LeakyReLU(negative_slope=0.01)
        (2): Linear(in_features=128, out_features=128, bias=True)
      )
      (m4): Sequential(
        (0): Linear(in_features=256, out_features=128, bias=True)
      )
    )
    (3): PowerfulLayer(
      (m1): Sequential(
        (0): Linear(in_features=128, out_features=128, bias=True)
        (1): LeakyReLU(negative_slope=0.01)
        (2): Linear(in_features=128, out_features=128, bias=True)
      )
      (m2): Sequential(
        (0): Linear(in_features=128, out_features=128, bias=True)
        (1): LeakyReLU(negative_slope=0.01)
        (2): Linear(in_features=128, out_features=128, bias=True)
      )
      (m4): Sequential(
        (0): Linear(in_features=256, out_features=128, bias=True)
      )
    )
    (4): PowerfulLayer(
      (m1): Sequential(
        (0): Linear(in_features=128, out_features=128, bias=True)
        (1): LeakyReLU(negative_slope=0.01)
        (2): Linear(in_features=128, out_features=128, bias=True)
      )
      (m2): Sequential(
        (0): Linear(in_features=128, out_features=128, bias=True)
        (1): LeakyReLU(negative_slope=0.01)
        (2): Linear(in_features=128, out_features=128, bias=True)
      )
      (m4): Sequential(
        (0): Linear(in_features=256, out_features=128, bias=True)
      )
    )
    (5): PowerfulLayer(
      (m1): Sequential(
        (0): Linear(in_features=128, out_features=128, bias=True)
        (1): LeakyReLU(negative_slope=0.01)
        (2): Linear(in_features=128, out_features=128, bias=True)
      )
      (m2): Sequential(
        (0): Linear(in_features=128, out_features=128, bias=True)
        (1): LeakyReLU(negative_slope=0.01)
        (2): Linear(in_features=128, out_features=128, bias=True)
      )
      (m4): Sequential(
        (0): Linear(in_features=256, out_features=128, bias=True)
      )
    )
    (6): PowerfulLayer(
      (m1): Sequential(
        (0): Linear(in_features=128, out_features=128, bias=True)
        (1): LeakyReLU(negative_slope=0.01)
        (2): Linear(in_features=128, out_features=128, bias=True)
      )
      (m2): Sequential(
        (0): Linear(in_features=128, out_features=128, bias=True)
        (1): LeakyReLU(negative_slope=0.01)
        (2): Linear(in_features=128, out_features=128, bias=True)
      )
      (m4): Sequential(
        (0): Linear(in_features=256, out_features=128, bias=True)
      )
    )
    (7): PowerfulLayer(
      (m1): Sequential(
        (0): Linear(in_features=128, out_features=128, bias=True)
        (1): LeakyReLU(negative_slope=0.01)
        (2): Linear(in_features=128, out_features=128, bias=True)
      )
      (m2): Sequential(
        (0): Linear(in_features=128, out_features=128, bias=True)
        (1): LeakyReLU(negative_slope=0.01)
        (2): Linear(in_features=128, out_features=128, bias=True)
      )
      (m4): Sequential(
        (0): Linear(in_features=256, out_features=128, bias=True)
      )
    )
  )
  (bns): ModuleList(
    (0): None
    (1): None
    (2): None
    (3): None
    (4): None
    (5): None
    (6): None
    (7): None
  )
  (feature_extractors): ModuleList(
    (0): FeatureExtractor(
      (lin1): Sequential(
        (0): Linear(in_features=128, out_features=128, bias=True)
      )
      (lin2): Sequential(
        (0): Linear(in_features=128, out_features=128, bias=False)
      )
      (lin3): Sequential(
        (0): Linear(in_features=128, out_features=128, bias=False)
      )
      (activation): LeakyReLU(negative_slope=0.01)
    )
    (1): FeatureExtractor(
      (lin1): Sequential(
        (0): Linear(in_features=128, out_features=128, bias=True)
      )
      (lin2): Sequential(
        (0): Linear(in_features=128, out_features=128, bias=False)
      )
      (lin3): Sequential(
        (0): Linear(in_features=128, out_features=128, bias=False)
      )
      (activation): LeakyReLU(negative_slope=0.01)
    )
    (2): FeatureExtractor(
      (lin1): Sequential(
        (0): Linear(in_features=128, out_features=128, bias=True)
      )
      (lin2): Sequential(
        (0): Linear(in_features=128, out_features=128, bias=False)
      )
      (lin3): Sequential(
        (0): Linear(in_features=128, out_features=128, bias=False)
      )
      (activation): LeakyReLU(negative_slope=0.01)
    )
    (3): FeatureExtractor(
      (lin1): Sequential(
        (0): Linear(in_features=128, out_features=128, bias=True)
      )
      (lin2): Sequential(
        (0): Linear(in_features=128, out_features=128, bias=False)
      )
      (lin3): Sequential(
        (0): Linear(in_features=128, out_features=128, bias=False)
      )
      (activation): LeakyReLU(negative_slope=0.01)
    )
    (4): FeatureExtractor(
      (lin1): Sequential(
        (0): Linear(in_features=128, out_features=128, bias=True)
      )
      (lin2): Sequential(
        (0): Linear(in_features=128, out_features=128, bias=False)
      )
      (lin3): Sequential(
        (0): Linear(in_features=128, out_features=128, bias=False)
      )
      (activation): LeakyReLU(negative_slope=0.01)
    )
    (5): FeatureExtractor(
      (lin1): Sequential(
        (0): Linear(in_features=128, out_features=128, bias=True)
      )
      (lin2): Sequential(
        (0): Linear(in_features=128, out_features=128, bias=False)
      )
      (lin3): Sequential(
        (0): Linear(in_features=128, out_features=128, bias=False)
      )
      (activation): LeakyReLU(negative_slope=0.01)
    )
    (6): FeatureExtractor(
      (lin1): Sequential(
        (0): Linear(in_features=128, out_features=128, bias=True)
      )
      (lin2): Sequential(
        (0): Linear(in_features=128, out_features=128, bias=False)
      )
      (lin3): Sequential(
        (0): Linear(in_features=128, out_features=128, bias=False)
      )
      (activation): LeakyReLU(negative_slope=0.01)
    )
    (7): FeatureExtractor(
      (lin1): Sequential(
        (0): Linear(in_features=128, out_features=128, bias=True)
      )
      (lin2): Sequential(
        (0): Linear(in_features=128, out_features=128, bias=False)
      )
      (lin3): Sequential(
        (0): Linear(in_features=128, out_features=128, bias=False)
      )
      (activation): LeakyReLU(negative_slope=0.01)
    )
  )
  (after_conv): Sequential(
    (0): Linear(in_features=128, out_features=128, bias=True)
  )
  (final_lin): Sequential(
    (0): Linear(in_features=128, out_features=1, bias=True)
  )
)
| 07-01 18:37:48 epoch: 007| time: 4.3s| train loss: +2.438e-02 | test loss: +2.917e-02 | 
| 07-01 18:37:48 epoch: 007| train loss i: nan test loss i: nan | 
| 07-01 18:37:48 epoch: 007| time: 4.4s| train loss: +2.438e-02 | test loss: +2.917e-02 | 
| 07-01 18:37:48 epoch: 007| train loss i: nan test loss i: nan | 
| 07-01 18:37:48 model: Powerful(
  (activation): LeakyReLU(negative_slope=0.01)
  (time_mlp): Sequential(
    (0): Linear(in_features=1, out_features=4, bias=True)
    (1): GELU()
    (2): Linear(in_features=4, out_features=1, bias=True)
  )
  (in_lin): Sequential(
    (0): Linear(in_features=2, out_features=128, bias=True)
  )
  (layer_cat_lin): Sequential(
    (0): Linear(in_features=1026, out_features=128, bias=True)
  )
  (convs): ModuleList(
    (0): PowerfulLayer(
      (m1): Sequential(
        (0): Linear(in_features=128, out_features=128, bias=True)
        (1): LeakyReLU(negative_slope=0.01)
        (2): Linear(in_features=128, out_features=128, bias=True)
      )
      (m2): Sequential(
        (0): Linear(in_features=128, out_features=128, bias=True)
        (1): LeakyReLU(negative_slope=0.01)
        (2): Linear(in_features=128, out_features=128, bias=True)
      )
      (m4): Sequential(
        (0): Linear(in_features=256, out_features=128, bias=True)
      )
    )
    (1): PowerfulLayer(
      (m1): Sequential(
        (0): Linear(in_features=128, out_features=128, bias=True)
        (1): LeakyReLU(negative_slope=0.01)
        (2): Linear(in_features=128, out_features=128, bias=True)
      )
      (m2): Sequential(
        (0): Linear(in_features=128, out_features=128, bias=True)
        (1): LeakyReLU(negative_slope=0.01)
        (2): Linear(in_features=128, out_features=128, bias=True)
      )
      (m4): Sequential(
        (0): Linear(in_features=256, out_features=128, bias=True)
      )
    )
    (2): PowerfulLayer(
      (m1): Sequential(
        (0): Linear(in_features=128, out_features=128, bias=True)
        (1): LeakyReLU(negative_slope=0.01)
        (2): Linear(in_features=128, out_features=128, bias=True)
      )
      (m2): Sequential(
        (0): Linear(in_features=128, out_features=128, bias=True)
        (1): LeakyReLU(negative_slope=0.01)
        (2): Linear(in_features=128, out_features=128, bias=True)
      )
      (m4): Sequential(
        (0): Linear(in_features=256, out_features=128, bias=True)
      )
    )
    (3): PowerfulLayer(
      (m1): Sequential(
        (0): Linear(in_features=128, out_features=128, bias=True)
        (1): LeakyReLU(negative_slope=0.01)
        (2): Linear(in_features=128, out_features=128, bias=True)
      )
      (m2): Sequential(
        (0): Linear(in_features=128, out_features=128, bias=True)
        (1): LeakyReLU(negative_slope=0.01)
        (2): Linear(in_features=128, out_features=128, bias=True)
      )
      (m4): Sequential(
        (0): Linear(in_features=256, out_features=128, bias=True)
      )
    )
    (4): PowerfulLayer(
      (m1): Sequential(
        (0): Linear(in_features=128, out_features=128, bias=True)
        (1): LeakyReLU(negative_slope=0.01)
        (2): Linear(in_features=128, out_features=128, bias=True)
      )
      (m2): Sequential(
        (0): Linear(in_features=128, out_features=128, bias=True)
        (1): LeakyReLU(negative_slope=0.01)
        (2): Linear(in_features=128, out_features=128, bias=True)
      )
      (m4): Sequential(
        (0): Linear(in_features=256, out_features=128, bias=True)
      )
    )
    (5): PowerfulLayer(
      (m1): Sequential(
        (0): Linear(in_features=128, out_features=128, bias=True)
        (1): LeakyReLU(negative_slope=0.01)
        (2): Linear(in_features=128, out_features=128, bias=True)
      )
      (m2): Sequential(
        (0): Linear(in_features=128, out_features=128, bias=True)
        (1): LeakyReLU(negative_slope=0.01)
        (2): Linear(in_features=128, out_features=128, bias=True)
      )
      (m4): Sequential(
        (0): Linear(in_features=256, out_features=128, bias=True)
      )
    )
    (6): PowerfulLayer(
      (m1): Sequential(
        (0): Linear(in_features=128, out_features=128, bias=True)
        (1): LeakyReLU(negative_slope=0.01)
        (2): Linear(in_features=128, out_features=128, bias=True)
      )
      (m2): Sequential(
        (0): Linear(in_features=128, out_features=128, bias=True)
        (1): LeakyReLU(negative_slope=0.01)
        (2): Linear(in_features=128, out_features=128, bias=True)
      )
      (m4): Sequential(
        (0): Linear(in_features=256, out_features=128, bias=True)
      )
    )
    (7): PowerfulLayer(
      (m1): Sequential(
        (0): Linear(in_features=128, out_features=128, bias=True)
        (1): LeakyReLU(negative_slope=0.01)
        (2): Linear(in_features=128, out_features=128, bias=True)
      )
      (m2): Sequential(
        (0): Linear(in_features=128, out_features=128, bias=True)
        (1): LeakyReLU(negative_slope=0.01)
        (2): Linear(in_features=128, out_features=128, bias=True)
      )
      (m4): Sequential(
        (0): Linear(in_features=256, out_features=128, bias=True)
      )
    )
  )
  (bns): ModuleList(
    (0): None
    (1): None
    (2): None
    (3): None
    (4): None
    (5): None
    (6): None
    (7): None
  )
  (feature_extractors): ModuleList(
    (0): FeatureExtractor(
      (lin1): Sequential(
        (0): Linear(in_features=128, out_features=128, bias=True)
      )
      (lin2): Sequential(
        (0): Linear(in_features=128, out_features=128, bias=False)
      )
      (lin3): Sequential(
        (0): Linear(in_features=128, out_features=128, bias=False)
      )
      (activation): LeakyReLU(negative_slope=0.01)
    )
    (1): FeatureExtractor(
      (lin1): Sequential(
        (0): Linear(in_features=128, out_features=128, bias=True)
      )
      (lin2): Sequential(
        (0): Linear(in_features=128, out_features=128, bias=False)
      )
      (lin3): Sequential(
        (0): Linear(in_features=128, out_features=128, bias=False)
      )
      (activation): LeakyReLU(negative_slope=0.01)
    )
    (2): FeatureExtractor(
      (lin1): Sequential(
        (0): Linear(in_features=128, out_features=128, bias=True)
      )
      (lin2): Sequential(
        (0): Linear(in_features=128, out_features=128, bias=False)
      )
      (lin3): Sequential(
        (0): Linear(in_features=128, out_features=128, bias=False)
      )
      (activation): LeakyReLU(negative_slope=0.01)
    )
    (3): FeatureExtractor(
      (lin1): Sequential(
        (0): Linear(in_features=128, out_features=128, bias=True)
      )
      (lin2): Sequential(
        (0): Linear(in_features=128, out_features=128, bias=False)
      )
      (lin3): Sequential(
        (0): Linear(in_features=128, out_features=128, bias=False)
      )
      (activation): LeakyReLU(negative_slope=0.01)
    )
    (4): FeatureExtractor(
      (lin1): Sequential(
…
  )
  (layer_cat_lin): Sequential(
    (0): Linear(in_features=1026, out_features=128, bias=True)
  )
  (convs): ModuleList(
    (0): PowerfulLayer(
      (m1): Sequential(
        (0): Linear(in_features=128, out_features=128, bias=True)
        (1): LeakyReLU(negative_slope=0.01)
        (2): Linear(in_features=128, out_features=128, bias=True)
      )
      (m2): Sequential(
        (0): Linear(in_features=128, out_features=128, bias=True)
        (1): LeakyReLU(negative_slope=0.01)
        (2): Linear(in_features=128, out_features=128, bias=True)
      )
      (m4): Sequential(
        (0): Linear(in_features=256, out_features=128, bias=True)
      )
    )
    (1): PowerfulLayer(
      (m1): Sequential(
        (0): Linear(in_features=128, out_features=128, bias=True)
        (1): LeakyReLU(negative_slope=0.01)
        (2): Linear(in_features=128, out_features=128, bias=True)
      )
      (m2): Sequential(
        (0): Linear(in_features=128, out_features=128, bias=True)
        (1): LeakyReLU(negative_slope=0.01)
        (2): Linear(in_features=128, out_features=128, bias=True)
      )
      (m4): Sequential(
        (0): Linear(in_features=256, out_features=128, bias=True)
      )
    )
    (2): PowerfulLayer(
      (m1): Sequential(
        (0): Linear(in_features=128, out_features=128, bias=True)
        (1): LeakyReLU(negative_slope=0.01)
        (2): Linear(in_features=128, out_features=128, bias=True)
      )
      (m2): Sequential(
        (0): Linear(in_features=128, out_features=128, bias=True)
        (1): LeakyReLU(negative_slope=0.01)
        (2): Linear(in_features=128, out_features=128, bias=True)
      )
      (m4): Sequential(
        (0): Linear(in_features=256, out_features=128, bias=True)
      )
    )
    (3): PowerfulLayer(
      (m1): Sequential(
        (0): Linear(in_features=128, out_features=128, bias=True)
        (1): LeakyReLU(negative_slope=0.01)
        (2): Linear(in_features=128, out_features=128, bias=True)
      )
      (m2): Sequential(
        (0): Linear(in_features=128, out_features=128, bias=True)
        (1): LeakyReLU(negative_slope=0.01)
        (2): Linear(in_features=128, out_features=128, bias=True)
      )
      (m4): Sequential(
        (0): Linear(in_features=256, out_features=128, bias=True)
      )
    )
    (4): PowerfulLayer(
      (m1): Sequential(
        (0): Linear(in_features=128, out_features=128, bias=True)
        (1): LeakyReLU(negative_slope=0.01)
        (2): Linear(in_features=128, out_features=128, bias=True)
      )
      (m2): Sequential(
        (0): Linear(in_features=128, out_features=128, bias=True)
        (1): LeakyReLU(negative_slope=0.01)
        (2): Linear(in_features=128, out_features=128, bias=True)
      )
      (m4): Sequential(
        (0): Linear(in_features=256, out_features=128, bias=True)
      )
    )
    (5): PowerfulLayer(
      (m1): Sequential(
        (0): Linear(in_features=128, out_features=128, bias=True)
        (1): LeakyReLU(negative_slope=0.01)
        (2): Linear(in_features=128, out_features=128, bias=True)
      )
      (m2): Sequential(
        (0): Linear(in_features=128, out_features=128, bias=True)
        (1): LeakyReLU(negative_slope=0.01)
        (2): Linear(in_features=128, out_features=128, bias=True)
      )
      (m4): Sequential(
        (0): Linear(in_features=256, out_features=128, bias=True)
      )
    )
    (6): PowerfulLayer(
      (m1): Sequential(
        (0): Linear(in_features=128, out_features=128, bias=True)
        (1): LeakyReLU(negative_slope=0.01)
        (2): Linear(in_features=128, out_features=128, bias=True)
      )
      (m2): Sequential(
        (0): Linear(in_features=128, out_features=128, bias=True)
        (1): LeakyReLU(negative_slope=0.01)
        (2): Linear(in_features=128, out_features=128, bias=True)
      )
      (m4): Sequential(
        (0): Linear(in_features=256, out_features=128, bias=True)
      )
    )
    (7): PowerfulLayer(
      (m1): Sequential(
        (0): Linear(in_features=128, out_features=128, bias=True)
        (1): LeakyReLU(negative_slope=0.01)
        (2): Linear(in_features=128, out_features=128, bias=True)
      )
      (m2): Sequential(
        (0): Linear(in_features=128, out_features=128, bias=True)
        (1): LeakyReLU(negative_slope=0.01)
        (2): Linear(in_features=128, out_features=128, bias=True)
      )
      (m4): Sequential(
        (0): Linear(in_features=256, out_features=128, bias=True)
      )
    )
  )
  (bns): ModuleList(
    (0): None
    (1): None
    (2): None
    (3): None
    (4): None
    (5): None
    (6): None
    (7): None
  )
  (feature_extractors): ModuleList(
    (0): FeatureExtractor(
      (lin1): Sequential(
        (0): Linear(in_features=128, out_features=128, bias=True)
      )
      (lin2): Sequential(
        (0): Linear(in_features=128, out_features=128, bias=False)
      )
      (lin3): Sequential(
        (0): Linear(in_features=128, out_features=128, bias=False)
      )
      (activation): LeakyReLU(negative_slope=0.01)
    )
    (1): FeatureExtractor(
      (lin1): Sequential(
        (0): Linear(in_features=128, out_features=128, bias=True)
      )
      (lin2): Sequential(
        (0): Linear(in_features=128, out_features=128, bias=False)
      )
      (lin3): Sequential(
        (0): Linear(in_features=128, out_features=128, bias=False)
      )
      (activation): LeakyReLU(negative_slope=0.01)
    )
    (2): FeatureExtractor(
      (lin1): Sequential(
        (0): Linear(in_features=128, out_features=128, bias=True)
      )
      (lin2): Sequential(
        (0): Linear(in_features=128, out_features=128, bias=False)
      )
      (lin3): Sequential(
        (0): Linear(in_features=128, out_features=128, bias=False)
      )
      (activation): LeakyReLU(negative_slope=0.01)
    )
    (3): FeatureExtractor(
      (lin1): Sequential(
        (0): Linear(in_features=128, out_features=128, bias=True)
      )
      (lin2): Sequential(
        (0): Linear(in_features=128, out_features=128, bias=False)
      )
      (lin3): Sequential(
        (0): Linear(in_features=128, out_features=128, bias=False)
      )
      (activation): LeakyReLU(negative_slope=0.01)
    )
    (4): FeatureExtractor(
      (lin1): Sequential(
        (0): Linear(in_features=128, out_features=128, bias=True)
      )
      (lin2): Sequential(
        (0): Linear(in_features=128, out_features=128, bias=False)
      )
      (lin3): Sequential(
        (0): Linear(in_features=128, out_features=128, bias=False)
      )
      (activation): LeakyReLU(negative_slope=0.01)
    )
    (5): FeatureExtractor(
      (lin1): Sequential(
        (0): Linear(in_features=128, out_features=128, bias=True)
      )
      (lin2): Sequential(
        (0): Linear(in_features=128, out_features=128, bias=False)
      )
      (lin3): Sequential(
        (0): Linear(in_features=128, out_features=128, bias=False)
      )
      (activation): LeakyReLU(negative_slope=0.01)
    )
    (6): FeatureExtractor(
      (lin1): Sequential(
        (0): Linear(in_features=128, out_features=128, bias=True)
      )
      (lin2): Sequential(
        (0): Linear(in_features=128, out_features=128, bias=False)
      )
      (lin3): Sequential(
        (0): Linear(in_features=128, out_features=128, bias=False)
      )
      (activation): LeakyReLU(negative_slope=0.01)
    )
    (7): FeatureExtractor(
      (lin1): Sequential(
        (0): Linear(in_features=128, out_features=128, bias=True)
      )
      (lin2): Sequential(
        (0): Linear(in_features=128, out_features=128, bias=False)
      )
      (lin3): Sequential(
        (0): Linear(in_features=128, out_features=128, bias=False)
      )
      (activation): LeakyReLU(negative_slope=0.01)
    )
  )
  (after_conv): Sequential(
    (0): Linear(in_features=128, out_features=128, bias=True)
  )
  (final_lin): Sequential(
    (0): Linear(in_features=128, out_features=1, bias=True)
  )
)
| 07-02 14:45:35 epoch: 096| time: 4.3s| train loss: +2.014e-02 | test loss: +2.525e-02 | 
| 07-02 14:45:35 epoch: 096| train loss i: nan test loss i: nan | 
| 07-02 14:45:35 epoch: 096| time: 4.4s| train loss: +2.014e-02 | test loss: +2.525e-02 | 
| 07-02 14:45:35 epoch: 096| train loss i: nan test loss i: nan | 
| 07-02 14:45:35 model: Powerful(
  (activation): LeakyReLU(negative_slope=0.01)
  (time_mlp): Sequential(
    (0): Linear(in_features=1, out_features=4, bias=True)
    (1): GELU()
    (2): Linear(in_features=4, out_features=1, bias=True)
  )
  (in_lin): Sequential(
    (0): Linear(in_features=2, out_features=128, bias=True)
  )
  (layer_cat_lin): Sequential(
    (0): Linear(in_features=1026, out_features=128, bias=True)
  )
  (convs): ModuleList(
    (0): PowerfulLayer(
      (m1): Sequential(
        (0): Linear(in_features=128, out_features=128, bias=True)
        (1): LeakyReLU(negative_slope=0.01)
        (2): Linear(in_features=128, out_features=128, bias=True)
      )
      (m2): Sequential(
        (0): Linear(in_features=128, out_features=128, bias=True)
        (1): LeakyReLU(negative_slope=0.01)
        (2): Linear(in_features=128, out_features=128, bias=True)
      )
      (m4): Sequential(
        (0): Linear(in_features=256, out_features=128, bias=True)
      )
    )
    (1): PowerfulLayer(
      (m1): Sequential(
        (0): Linear(in_features=128, out_features=128, bias=True)
        (1): LeakyReLU(negative_slope=0.01)
        (2): Linear(in_features=128, out_features=128, bias=True)
      )
      (m2): Sequential(
        (0): Linear(in_features=128, out_features=128, bias=True)
        (1): LeakyReLU(negative_slope=0.01)
        (2): Linear(in_features=128, out_features=128, bias=True)
      )
      (m4): Sequential(
        (0): Linear(in_features=256, out_features=128, bias=True)
      )
    )
    (2): PowerfulLayer(
      (m1): Sequential(
        (0): Linear(in_features=128, out_features=128, bias=True)
        (1): LeakyReLU(negative_slope=0.01)
        (2): Linear(in_features=128, out_features=128, bias=True)
      )
      (m2): Sequential(
        (0): Linear(in_features=128, out_features=128, bias=True)
        (1): LeakyReLU(negative_slope=0.01)
        (2): Linear(in_features=128, out_features=128, bias=True)
      )
      (m4): Sequential(
        (0): Linear(in_features=256, out_features=128, bias=True)
      )
    )
    (3): PowerfulLayer(
      (m1): Sequential(
        (0): Linear(in_features=128, out_features=128, bias=True)
        (1): LeakyReLU(negative_slope=0.01)
        (2): Linear(in_features=128, out_features=128, bias=True)
      )
      (m2): Sequential(
        (0): Linear(in_features=128, out_features=128, bias=True)
        (1): LeakyReLU(negative_slope=0.01)
        (2): Linear(in_features=128, out_features=128, bias=True)
      )
      (m4): Sequential(
        (0): Linear(in_features=256, out_features=128, bias=True)
      )
    )
    (4): PowerfulLayer(
      (m1): Sequential(
        (0): Linear(in_features=128, out_features=128, bias=True)
        (1): LeakyReLU(negative_slope=0.01)
        (2): Linear(in_features=128, out_features=128, bias=True)
      )
      (m2): Sequential(
        (0): Linear(in_features=128, out_features=128, bias=True)
        (1): LeakyReLU(negative_slope=0.01)
        (2): Linear(in_features=128, out_features=128, bias=True)
      )
      (m4): Sequential(
        (0): Linear(in_features=256, out_features=128, bias=True)
      )
    )
    (5): PowerfulLayer(
      (m1): Sequential(
        (0): Linear(in_features=128, out_features=128, bias=True)
        (1): LeakyReLU(negative_slope=0.01)
        (2): Linear(in_features=128, out_features=128, bias=True)
      )
      (m2): Sequential(
        (0): Linear(in_features=128, out_features=128, bias=True)
        (1): LeakyReLU(negative_slope=0.01)
        (2): Linear(in_features=128, out_features=128, bias=True)
      )
      (m4): Sequential(
        (0): Linear(in_features=256, out_features=128, bias=True)
      )
    )
    (6): PowerfulLayer(
      (m1): Sequential(
        (0): Linear(in_features=128, out_features=128, bias=True)
        (1): LeakyReLU(negative_slope=0.01)
        (2): Linear(in_features=128, out_features=128, bias=True)
      )
      (m2): Sequential(
        (0): Linear(in_features=128, out_features=128, bias=True)
        (1): LeakyReLU(negative_slope=0.01)
        (2): Linear(in_features=128, out_features=128, bias=True)
      )
      (m4): Sequential(
        (0): Linear(in_features=256, out_features=128, bias=True)
      )
    )
    (7): PowerfulLayer(
      (m1): Sequential(
        (0): Linear(in_features=128, out_features=128, bias=True)
        (1): LeakyReLU(negative_slope=0.01)
        (2): Linear(in_features=128, out_features=128, bias=True)
      )
      (m2): Sequential(
        (0): Linear(in_features=128, out_features=128, bias=True)
        (1): LeakyReLU(negative_slope=0.01)
        (2): Linear(in_features=128, out_features=128, bias=True)
      )
      (m4): Sequential(
        (0): Linear(in_features=256, out_features=128, bias=True)
      )
    )
  )
  (bns): ModuleList(
    (0): None
    (1): None
    (2): None
    (3): None
    (4): None
    (5): None
    (6): None
    (7): None
  )
  (feature_extractors): ModuleList(
    (0): FeatureExtractor(
      (lin1): Sequential(
        (0): Linear(in_features=128, out_features=128, bias=True)
      )
      (lin2): Sequential(
        (0): Linear(in_features=128, out_features=128, bias=False)
      )
      (lin3): Sequential(
        (0): Linear(in_features=128, out_features=128, bias=False)
      )
      (activation): LeakyReLU(negative_slope=0.01)
    )
    (1): FeatureExtractor(
      (lin1): Sequential(
        (0): Linear(in_features=128, out_features=128, bias=True)
      )
      (lin2): Sequential(
        (0): Linear(in_features=128, out_features=128, bias=False)
      )
      (lin3): Sequential(
        (0): Linear(in_features=128, out_features=128, bias=False)
      )
      (activation): LeakyReLU(negative_slope=0.01)
    )
    (2): FeatureExtractor(
      (lin1): Sequential(
        (0): Linear(in_features=128, out_features=128, bias=True)
      )
      (lin2): Sequential(
        (0): Linear(in_features=128, out_features=128, bias=False)
      )
      (lin3): Sequential(
        (0): Linear(in_features=128, out_features=128, bias=False)
      )
      (activation): LeakyReLU(negative_slope=0.01)
    )
    (3): FeatureExtractor(
      (lin1): Sequential(
        (0): Linear(in_features=128, out_features=128, bias=True)
      )
      (lin2): Sequential(
        (0): Linear(in_features=128, out_features=128, bias=False)
      )
      (lin3): Sequential(
        (0): Linear(in_features=128, out_features=128, bias=False)
      )
      (activation): LeakyReLU(negative_slope=0.01)
    )
    (4): FeatureExtractor(
      (lin1): Sequential(
        (0): Linear(in_features=128, out_features=128, bias=True)
      )
      (lin2): Sequential(
        (0): Linear(in_features=128, out_features=128, bias=False)
      )
      (lin3): Sequential(
        (0): Linear(in_features=128, out_features=128, bias=False)
      )
      (activation): LeakyReLU(negative_slope=0.01)
    )
    (5): FeatureExtractor(
      (lin1): Sequential(
        (0): Linear(in_features=128, out_features=128, bias=True)
      )
      (lin2): Sequential(
        (0): Linear(in_features=128, out_features=128, bias=False)
      )
      (lin3): Sequential(
        (0): Linear(in_features=128, out_features=128, bias=False)
      )
      (activation): LeakyReLU(negative_slope=0.01)
    )
    (6): FeatureExtractor(
      (lin1): Sequential(
        (0): Linear(in_features=128, out_features=128, bias=True)
      )
      (lin2): Sequential(
        (0): Linear(in_features=128, out_features=128, bias=False)
      )
      (lin3): Sequential(
        (0): Linear(in_features=128, out_features=128, bias=False)
      )
      (activation): LeakyReLU(negative_slope=0.01)
    )
    (7): FeatureExtractor(
      (lin1): Sequential(
        (0): Linear(in_features=128, out_features=128, bias=True)
      )
      (lin2): Sequential(
        (0): Linear(in_features=128, out_features=128, bias=False)
      )
      (lin3): Sequential(
        (0): Linear(in_features=128, out_features=128, bias=False)
      )
      (activation): LeakyReLU(negative_slope=0.01)
    )
  )
  (after_conv): Sequential(
    (0): Linear(in_features=128, out_features=128, bias=True)
  )
  (final_lin): Sequential(
    (0): Linear(in_features=128, out_features=1, bias=True)
  )
)
| 07-02 14:52:29 load dataset: ego_small
200
| 07-02 14:52:29 model: Powerful(
  (activation): LeakyReLU(negative_slope=0.01)
  (time_mlp): Sequential(
    (0): Linear(in_features=1, out_features=4, bias=True)
    (1): GELU()
    (2): Linear(in_features=4, out_features=1, bias=True)
  )
  (in_lin): Sequential(
    (0): Linear(in_features=2, out_features=128, bias=True)
  )
  (layer_cat_lin): Sequential(
    (0): Linear(in_features=1026, out_features=128, bias=True)
  )
  (convs): ModuleList(
    (0): PowerfulLayer(
      (m1): Sequential(
        (0): Linear(in_features=128, out_features=128, bias=True)
        (1): LeakyReLU(negative_slope=0.01)
        (2): Linear(in_features=128, out_features=128, bias=True)
      )
      (m2): Sequential(
        (0): Linear(in_features=128, out_features=128, bias=True)
        (1): LeakyReLU(negative_slope=0.01)
        (2): Linear(in_features=128, out_features=128, bias=True)
      )
      (m4): Sequential(
        (0): Linear(in_features=256, out_features=128, bias=True)
      )
    )
    (1): PowerfulLayer(
      (m1): Sequential(
        (0): Linear(in_features=128, out_features=128, bias=True)
        (1): LeakyReLU(negative_slope=0.01)
        (2): Linear(in_features=128, out_features=128, bias=True)
      )
      (m2): Sequential(
        (0): Linear(in_features=128, out_features=128, bias=True)
        (1): LeakyReLU(negative_slope=0.01)
        (2): Linear(in_features=128, out_features=128, bias=True)
      )
      (m4): Sequential(
        (0): Linear(in_features=256, out_features=128, bias=True)
      )
    )
    (2): PowerfulLayer(
      (m1): Sequential(
        (0): Linear(in_features=128, out_features=128, bias=True)
        (1): LeakyReLU(negative_slope=0.01)
        (2): Linear(in_features=128, out_features=128, bias=True)
      )
      (m2): Sequential(
        (0): Linear(in_features=128, out_features=128, bias=True)
        (1): LeakyReLU(negative_slope=0.01)
        (2): Linear(in_features=128, out_features=128, bias=True)
      )
      (m4): Sequential(
        (0): Linear(in_features=256, out_features=128, bias=True)
      )
    )
    (3): PowerfulLayer(
      (m1): Sequential(
        (0): Linear(in_features=128, out_features=128, bias=True)
        (1): LeakyReLU(negative_slope=0.01)
        (2): Linear(in_features=128, out_features=128, bias=True)
      )
      (m2): Sequential(
        (0): Linear(in_features=128, out_features=128, bias=True)
        (1): LeakyReLU(negative_slope=0.01)
        (2): Linear(in_features=128, out_features=128, bias=True)
      )
      (m4): Sequential(
        (0): Linear(in_features=256, out_features=128, bias=True)
      )
    )
    (4): PowerfulLayer(
      (m1): Sequential(
        (0): Linear(in_features=128, out_features=128, bias=True)
        (1): LeakyReLU(negative_slope=0.01)
        (2): Linear(in_features=128, out_features=128, bias=True)
      )
      (m2): Sequential(
        (0): Linear(in_features=128, out_features=128, bias=True)
        (1): LeakyReLU(negative_slope=0.01)
        (2): Linear(in_features=128, out_features=128, bias=True)
      )
      (m4): Sequential(
        (0): Linear(in_features=256, out_features=128, bias=True)
      )
    )
    (5): PowerfulLayer(
      (m1): Sequential(
        (0): Linear(in_features=128, out_features=128, bias=True)
        (1): LeakyReLU(negative_slope=0.01)
        (2): Linear(in_features=128, out_features=128, bias=True)
      )
      (m2): Sequential(
        (0): Linear(in_features=128, out_features=128, bias=True)
        (1): LeakyReLU(negative_slope=0.01)
        (2): Linear(in_features=128, out_features=128, bias=True)
      )
      (m4): Sequential(
        (0): Linear(in_features=256, out_features=128, bias=True)
      )
    )
    (6): PowerfulLayer(
      (m1): Sequential(
        (0): Linear(in_features=128, out_features=128, bias=True)
        (1): LeakyReLU(negative_slope=0.01)
        (2): Linear(in_features=128, out_features=128, bias=True)
      )
      (m2): Sequential(
        (0): Linear(in_features=128, out_features=128, bias=True)
        (1): LeakyReLU(negative_slope=0.01)
        (2): Linear(in_features=128, out_features=128, bias=True)
      )
      (m4): Sequential(
        (0): Linear(in_features=256, out_features=128, bias=True)
      )
    )
    (7): PowerfulLayer(
      (m1): Sequential(
        (0): Linear(in_features=128, out_features=128, bias=True)
        (1): LeakyReLU(negative_slope=0.01)
        (2): Linear(in_features=128, out_features=128, bias=True)
      )
      (m2): Sequential(
        (0): Linear(in_features=128, out_features=128, bias=True)
        (1): LeakyReLU(negative_slope=0.01)
        (2): Linear(in_features=128, out_features=128, bias=True)
      )
      (m4): Sequential(
        (0): Linear(in_features=256, out_features=128, bias=True)
      )
    )
  )
  (bns): ModuleList(
    (0): None
    (1): None
    (2): None
    (3): None
    (4): None
    (5): None
    (6): None
    (7): None
  )
  (feature_extractors): ModuleList(
    (0): FeatureExtractor(
      (lin1): Sequential(
        (0): Linear(in_features=128, out_features=128, bias=True)
      )
      (lin2): Sequential(
        (0): Linear(in_features=128, out_features=128, bias=False)
      )
      (lin3): Sequential(
        (0): Linear(in_features=128, out_features=128, bias=False)
      )
      (activation): LeakyReLU(negative_slope=0.01)
    )
    (1): FeatureExtractor(
      (lin1): Sequential(
        (0): Linear(in_features=128, out_features=128, bias=True)
      )
      (lin2): Sequential(
        (0): Linear(in_features=128, out_features=128, bias=False)
      )
      (lin3): Sequential(
        (0): Linear(in_features=128, out_features=128, bias=False)
      )
      (activation): LeakyReLU(negative_slope=0.01)
    )
    (2): FeatureExtractor(
      (lin1): Sequential(
        (0): Linear(in_features=128, out_features=128, bias=True)
      )
      (lin2): Sequential(
        (0): Linear(in_features=128, out_features=128, bias=False)
      )
      (lin3): Sequential(
        (0): Linear(in_features=128, out_features=128, bias=False)
      )
      (activation): LeakyReLU(negative_slope=0.01)
    )
    (3): FeatureExtractor(
      (lin1): Sequential(
        (0): Linear(in_features=128, out_features=128, bias=True)
      )
      (lin2): Sequential(
        (0): Linear(in_features=128, out_features=128, bias=False)
      )
      (lin3): Sequential(
        (0): Linear(in_features=128, out_features=128, bias=False)
      )
      (activation): LeakyReLU(negative_slope=0.01)
    )
    (4): FeatureExtractor(
      (lin1): Sequential(
        (0): Linear(in_features=128, out_features=128, bias=True)
      )
      (lin2): Sequential(
        (0): Linear(in_features=128, out_features=128, bias=False)
      )
      (lin3): Sequential(
        (0): Linear(in_features=128, out_features=128, bias=False)
      )
      (activation): LeakyReLU(negative_slope=0.01)
    )
    (5): FeatureExtractor(
      (lin1): Sequential(
        (0): Linear(in_features=128, out_features=128, bias=True)
      )
      (lin2): Sequential(
        (0): Linear(in_features=128, out_features=128, bias=False)
      )
      (lin3): Sequential(
        (0): Linear(in_features=128, out_features=128, bias=False)
      )
      (activation): LeakyReLU(negative_slope=0.01)
    )
    (6): FeatureExtractor(
      (lin1): Sequential(
        (0): Linear(in_features=128, out_features=128, bias=True)
      )
      (lin2): Sequential(
        (0): Linear(in_features=128, out_features=128, bias=False)
      )
      (lin3): Sequential(
        (0): Linear(in_features=128, out_features=128, bias=False)
      )
      (activation): LeakyReLU(negative_slope=0.01)
    )
    (7): FeatureExtractor(
      (lin1): Sequential(
        (0): Linear(in_features=128, out_features=128, bias=True)
      )
      (lin2): Sequential(
        (0): Linear(in_features=128, out_features=128, bias=False)
      )
      (lin3): Sequential(
        (0): Linear(in_features=128, out_features=128, bias=False)
      )
      (activation): LeakyReLU(negative_slope=0.01)
    )
  )
  (after_conv): Sequential(
    (0): Linear(in_features=128, out_features=128, bias=True)
  )
  (final_lin): Sequential(
    (0): Linear(in_features=128, out_features=1, bias=True)
  )
)
| 07-02 14:54:38 load dataset: ego_small
200
| 07-02 14:54:38 model: Powerful(
  (activation): LeakyReLU(negative_slope=0.01)
  (time_mlp): Sequential(
    (0): Linear(in_features=1, out_features=4, bias=True)
    (1): GELU()
    (2): Linear(in_features=4, out_features=1, bias=True)
  )
  (in_lin): Sequential(
    (0): Linear(in_features=2, out_features=128, bias=True)
  )
  (layer_cat_lin): Sequential(
    (0): Linear(in_features=1026, out_features=128, bias=True)
  )
  (convs): ModuleList(
    (0): PowerfulLayer(
      (m1): Sequential(
        (0): Linear(in_features=128, out_features=128, bias=True)
        (1): LeakyReLU(negative_slope=0.01)
        (2): Linear(in_features=128, out_features=128, bias=True)
      )
      (m2): Sequential(
        (0): Linear(in_features=128, out_features=128, bias=True)
        (1): LeakyReLU(negative_slope=0.01)
        (2): Linear(in_features=128, out_features=128, bias=True)
      )
      (m4): Sequential(
        (0): Linear(in_features=256, out_features=128, bias=True)
      )
    )
    (1): PowerfulLayer(
      (m1): Sequential(
        (0): Linear(in_features=128, out_features=128, bias=True)
        (1): LeakyReLU(negative_slope=0.01)
        (2): Linear(in_features=128, out_features=128, bias=True)
      )
      (m2): Sequential(
        (0): Linear(in_features=128, out_features=128, bias=True)
        (1): LeakyReLU(negative_slope=0.01)
        (2): Linear(in_features=128, out_features=128, bias=True)
      )
      (m4): Sequential(
        (0): Linear(in_features=256, out_features=128, bias=True)
      )
    )
    (2): PowerfulLayer(
      (m1): Sequential(
        (0): Linear(in_features=128, out_features=128, bias=True)
        (1): LeakyReLU(negative_slope=0.01)
        (2): Linear(in_features=128, out_features=128, bias=True)
      )
      (m2): Sequential(
        (0): Linear(in_features=128, out_features=128, bias=True)
        (1): LeakyReLU(negative_slope=0.01)
        (2): Linear(in_features=128, out_features=128, bias=True)
      )
      (m4): Sequential(
        (0): Linear(in_features=256, out_features=128, bias=True)
      )
    )
    (3): PowerfulLayer(
      (m1): Sequential(
        (0): Linear(in_features=128, out_features=128, bias=True)
        (1): LeakyReLU(negative_slope=0.01)
        (2): Linear(in_features=128, out_features=128, bias=True)
      )
      (m2): Sequential(
        (0): Linear(in_features=128, out_features=128, bias=True)
        (1): LeakyReLU(negative_slope=0.01)
        (2): Linear(in_features=128, out_features=128, bias=True)
      )
      (m4): Sequential(
        (0): Linear(in_features=256, out_features=128, bias=True)
      )
    )
    (4): PowerfulLayer(
      (m1): Sequential(
        (0): Linear(in_features=128, out_features=128, bias=True)
        (1): LeakyReLU(negative_slope=0.01)
        (2): Linear(in_features=128, out_features=128, bias=True)
      )
      (m2): Sequential(
        (0): Linear(in_features=128, out_features=128, bias=True)
        (1): LeakyReLU(negative_slope=0.01)
        (2): Linear(in_features=128, out_features=128, bias=True)
      )
      (m4): Sequential(
        (0): Linear(in_features=256, out_features=128, bias=True)
      )
    )
    (5): PowerfulLayer(
      (m1): Sequential(
        (0): Linear(in_features=128, out_features=128, bias=True)
        (1): LeakyReLU(negative_slope=0.01)
        (2): Linear(in_features=128, out_features=128, bias=True)
      )
      (m2): Sequential(
        (0): Linear(in_features=128, out_features=128, bias=True)
        (1): LeakyReLU(negative_slope=0.01)
        (2): Linear(in_features=128, out_features=128, bias=True)
      )
      (m4): Sequential(
        (0): Linear(in_features=256, out_features=128, bias=True)
      )
    )
    (6): PowerfulLayer(
      (m1): Sequential(
        (0): Linear(in_features=128, out_features=128, bias=True)
        (1): LeakyReLU(negative_slope=0.01)
        (2): Linear(in_features=128, out_features=128, bias=True)
      )
      (m2): Sequential(
        (0): Linear(in_features=128, out_features=128, bias=True)
        (1): LeakyReLU(negative_slope=0.01)
        (2): Linear(in_features=128, out_features=128, bias=True)
      )
      (m4): Sequential(
        (0): Linear(in_features=256, out_features=128, bias=True)
      )
    )
    (7): PowerfulLayer(
      (m1): Sequential(
        (0): Linear(in_features=128, out_features=128, bias=True)
        (1): LeakyReLU(negative_slope=0.01)
        (2): Linear(in_features=128, out_features=128, bias=True)
      )
      (m2): Sequential(
        (0): Linear(in_features=128, out_features=128, bias=True)
        (1): LeakyReLU(negative_slope=0.01)
        (2): Linear(in_features=128, out_features=128, bias=True)
      )
      (m4): Sequential(
        (0): Linear(in_features=256, out_features=128, bias=True)
      )
    )
  )
  (bns): ModuleList(
    (0): None
    (1): None
    (2): None
    (3): None
    (4): None
    (5): None
    (6): None
    (7): None
  )
  (feature_extractors): ModuleList(
    (0): FeatureExtractor(
      (lin1): Sequential(
        (0): Linear(in_features=128, out_features=128, bias=True)
      )
      (lin2): Sequential(
        (0): Linear(in_features=128, out_features=128, bias=False)
      )
      (lin3): Sequential(
        (0): Linear(in_features=128, out_features=128, bias=False)
      )
      (activation): LeakyReLU(negative_slope=0.01)
    )
    (1): FeatureExtractor(
      (lin1): Sequential(
        (0): Linear(in_features=128, out_features=128, bias=True)
      )
      (lin2): Sequential(
        (0): Linear(in_features=128, out_features=128, bias=False)
      )
      (lin3): Sequential(
        (0): Linear(in_features=128, out_features=128, bias=False)
      )
      (activation): LeakyReLU(negative_slope=0.01)
    )
    (2): FeatureExtractor(
      (lin1): Sequential(
        (0): Linear(in_features=128, out_features=128, bias=True)
      )
      (lin2): Sequential(
        (0): Linear(in_features=128, out_features=128, bias=False)
      )
      (lin3): Sequential(
        (0): Linear(in_features=128, out_features=128, bias=False)
      )
      (activation): LeakyReLU(negative_slope=0.01)
    )
    (3): FeatureExtractor(
      (lin1): Sequential(
        (0): Linear(in_features=128, out_features=128, bias=True)
      )
      (lin2): Sequential(
        (0): Linear(in_features=128, out_features=128, bias=False)
      )
      (lin3): Sequential(
        (0): Linear(in_features=128, out_features=128, bias=False)
      )
      (activation): LeakyReLU(negative_slope=0.01)
    )
    (4): FeatureExtractor(
      (lin1): Sequential(
        (0): Linear(in_features=128, out_features=128, bias=True)
      )
      (lin2): Sequential(
        (0): Linear(in_features=128, out_features=128, bias=False)
      )
      (lin3): Sequential(
        (0): Linear(in_features=128, out_features=128, bias=False)
      )
      (activation): LeakyReLU(negative_slope=0.01)
    )
    (5): FeatureExtractor(
      (lin1): Sequential(
        (0): Linear(in_features=128, out_features=128, bias=True)
      )
      (lin2): Sequential(
        (0): Linear(in_features=128, out_features=128, bias=False)
      )
      (lin3): Sequential(
        (0): Linear(in_features=128, out_features=128, bias=False)
      )
      (activation): LeakyReLU(negative_slope=0.01)
    )
    (6): FeatureExtractor(
      (lin1): Sequential(
        (0): Linear(in_features=128, out_features=128, bias=True)
      )
      (lin2): Sequential(
        (0): Linear(in_features=128, out_features=128, bias=False)
      )
      (lin3): Sequential(
        (0): Linear(in_features=128, out_features=128, bias=False)
      )
      (activation): LeakyReLU(negative_slope=0.01)
    )
    (7): FeatureExtractor(
      (lin1): Sequential(
        (0): Linear(in_features=128, out_features=128, bias=True)
      )
      (lin2): Sequential(
        (0): Linear(in_features=128, out_features=128, bias=False)
      )
      (lin3): Sequential(
        (0): Linear(in_features=128, out_features=128, bias=False)
      )
      (activation): LeakyReLU(negative_slope=0.01)
    )
  )
  (after_conv): Sequential(
    (0): Linear(in_features=128, out_features=128, bias=True)
  )
  (final_lin): Sequential(
    (0): Linear(in_features=128, out_features=1, bias=True)
  )
)
| 07-02 14:56:47 load dataset: ego_small
200
| 07-02 14:56:47 model: Powerful(
  (activation): LeakyReLU(negative_slope=0.01)
  (time_mlp): Sequential(
    (0): Linear(in_features=1, out_features=4, bias=True)
    (1): GELU()
    (2): Linear(in_features=4, out_features=1, bias=True)
  )
  (in_lin): Sequential(
    (0): Linear(in_features=2, out_features=128, bias=True)
  )
  (layer_cat_lin): Sequential(
    (0): Linear(in_features=1026, out_features=128, bias=True)
  )
  (convs): ModuleList(
    (0): PowerfulLayer(
      (m1): Sequential(
        (0): Linear(in_features=128, out_features=128, bias=True)
        (1): LeakyReLU(negative_slope=0.01)
        (2): Linear(in_features=128, out_features=128, bias=True)
      )
      (m2): Sequential(
        (0): Linear(in_features=128, out_features=128, bias=True)
        (1): LeakyReLU(negative_slope=0.01)
        (2): Linear(in_features=128, out_features=128, bias=True)
      )
      (m4): Sequential(
        (0): Linear(in_features=256, out_features=128, bias=True)
      )
    )
    (1): PowerfulLayer(
      (m1): Sequential(
        (0): Linear(in_features=128, out_features=128, bias=True)
        (1): LeakyReLU(negative_slope=0.01)
        (2): Linear(in_features=128, out_features=128, bias=True)
      )
      (m2): Sequential(
        (0): Linear(in_features=128, out_features=128, bias=True)
        (1): LeakyReLU(negative_slope=0.01)
        (2): Linear(in_features=128, out_features=128, bias=True)
      )
      (m4): Sequential(
        (0): Linear(in_features=256, out_features=128, bias=True)
      )
    )
    (2): PowerfulLayer(
      (m1): Sequential(
        (0): Linear(in_features=128, out_features=128, bias=True)
        (1): LeakyReLU(negative_slope=0.01)
        (2): Linear(in_features=128, out_features=128, bias=True)
      )
      (m2): Sequential(
        (0): Linear(in_features=128, out_features=128, bias=True)
        (1): LeakyReLU(negative_slope=0.01)
        (2): Linear(in_features=128, out_features=128, bias=True)
      )
      (m4): Sequential(
        (0): Linear(in_features=256, out_features=128, bias=True)
      )
    )
    (3): PowerfulLayer(
      (m1): Sequential(
        (0): Linear(in_features=128, out_features=128, bias=True)
        (1): LeakyReLU(negative_slope=0.01)
        (2): Linear(in_features=128, out_features=128, bias=True)
      )
      (m2): Sequential(
        (0): Linear(in_features=128, out_features=128, bias=True)
        (1): LeakyReLU(negative_slope=0.01)
        (2): Linear(in_features=128, out_features=128, bias=True)
      )
      (m4): Sequential(
        (0): Linear(in_features=256, out_features=128, bias=True)
      )
    )
    (4): PowerfulLayer(
      (m1): Sequential(
        (0): Linear(in_features=128, out_features=128, bias=True)
        (1): LeakyReLU(negative_slope=0.01)
        (2): Linear(in_features=128, out_features=128, bias=True)
      )
      (m2): Sequential(
        (0): Linear(in_features=128, out_features=128, bias=True)
        (1): LeakyReLU(negative_slope=0.01)
        (2): Linear(in_features=128, out_features=128, bias=True)
      )
      (m4): Sequential(
        (0): Linear(in_features=256, out_features=128, bias=True)
      )
    )
    (5): PowerfulLayer(
      (m1): Sequential(
        (0): Linear(in_features=128, out_features=128, bias=True)
        (1): LeakyReLU(negative_slope=0.01)
        (2): Linear(in_features=128, out_features=128, bias=True)
      )
      (m2): Sequential(
        (0): Linear(in_features=128, out_features=128, bias=True)
        (1): LeakyReLU(negative_slope=0.01)
        (2): Linear(in_features=128, out_features=128, bias=True)
      )
      (m4): Sequential(
        (0): Linear(in_features=256, out_features=128, bias=True)
      )
    )
    (6): PowerfulLayer(
      (m1): Sequential(
        (0): Linear(in_features=128, out_features=128, bias=True)
        (1): LeakyReLU(negative_slope=0.01)
        (2): Linear(in_features=128, out_features=128, bias=True)
      )
      (m2): Sequential(
        (0): Linear(in_features=128, out_features=128, bias=True)
        (1): LeakyReLU(negative_slope=0.01)
        (2): Linear(in_features=128, out_features=128, bias=True)
      )
      (m4): Sequential(
        (0): Linear(in_features=256, out_features=128, bias=True)
      )
    )
    (7): PowerfulLayer(
      (m1): Sequential(
        (0): Linear(in_features=128, out_features=128, bias=True)
        (1): LeakyReLU(negative_slope=0.01)
        (2): Linear(in_features=128, out_features=128, bias=True)
      )
      (m2): Sequential(
        (0): Linear(in_features=128, out_features=128, bias=True)
        (1): LeakyReLU(negative_slope=0.01)
        (2): Linear(in_features=128, out_features=128, bias=True)
      )
      (m4): Sequential(
        (0): Linear(in_features=256, out_features=128, bias=True)
      )
    )
  )
  (bns): ModuleList(
    (0): None
    (1): None
    (2): None
    (3): None
    (4): None
    (5): None
    (6): None
    (7): None
  )
  (feature_extractors): ModuleList(
    (0): FeatureExtractor(
      (lin1): Sequential(
        (0): Linear(in_features=128, out_features=128, bias=True)
      )
      (lin2): Sequential(
        (0): Linear(in_features=128, out_features=128, bias=False)
      )
      (lin3): Sequential(
        (0): Linear(in_features=128, out_features=128, bias=False)
      )
      (activation): LeakyReLU(negative_slope=0.01)
    )
    (1): FeatureExtractor(
      (lin1): Sequential(
        (0): Linear(in_features=128, out_features=128, bias=True)
      )
      (lin2): Sequential(
        (0): Linear(in_features=128, out_features=128, bias=False)
      )
      (lin3): Sequential(
        (0): Linear(in_features=128, out_features=128, bias=False)
      )
      (activation): LeakyReLU(negative_slope=0.01)
    )
    (2): FeatureExtractor(
      (lin1): Sequential(
        (0): Linear(in_features=128, out_features=128, bias=True)
      )
      (lin2): Sequential(
        (0): Linear(in_features=128, out_features=128, bias=False)
      )
      (lin3): Sequential(
        (0): Linear(in_features=128, out_features=128, bias=False)
      )
      (activation): LeakyReLU(negative_slope=0.01)
    )
    (3): FeatureExtractor(
      (lin1): Sequential(
        (0): Linear(in_features=128, out_features=128, bias=True)
      )
      (lin2): Sequential(
        (0): Linear(in_features=128, out_features=128, bias=False)
      )
      (lin3): Sequential(
        (0): Linear(in_features=128, out_features=128, bias=False)
      )
      (activation): LeakyReLU(negative_slope=0.01)
    )
    (4): FeatureExtractor(
      (lin1): Sequential(
        (0): Linear(in_features=128, out_features=128, bias=True)
      )
      (lin2): Sequential(
        (0): Linear(in_features=128, out_features=128, bias=False)
      )
      (lin3): Sequential(
        (0): Linear(in_features=128, out_features=128, bias=False)
      )
      (activation): LeakyReLU(negative_slope=0.01)
    )
    (5): FeatureExtractor(
      (lin1): Sequential(
        (0): Linear(in_features=128, out_features=128, bias=True)
      )
      (lin2): Sequential(
        (0): Linear(in_features=128, out_features=128, bias=False)
      )
      (lin3): Sequential(
        (0): Linear(in_features=128, out_features=128, bias=False)
      )
      (activation): LeakyReLU(negative_slope=0.01)
    )
    (6): FeatureExtractor(
      (lin1): Sequential(
        (0): Linear(in_features=128, out_features=128, bias=True)
      )
      (lin2): Sequential(
        (0): Linear(in_features=128, out_features=128, bias=False)
      )
      (lin3): Sequential(
        (0): Linear(in_features=128, out_features=128, bias=False)
      )
      (activation): LeakyReLU(negative_slope=0.01)
    )
    (7): FeatureExtractor(
      (lin1): Sequential(
        (0): Linear(in_features=128, out_features=128, bias=True)
      )
      (lin2): Sequential(
        (0): Linear(in_features=128, out_features=128, bias=False)
      )
      (lin3): Sequential(
        (0): Linear(in_features=128, out_features=128, bias=False)
      )
      (activation): LeakyReLU(negative_slope=0.01)
    )
  )
  (after_conv): Sequential(
    (0): Linear(in_features=128, out_features=128, bias=True)
  )
  (final_lin): Sequential(
    (0): Linear(in_features=128, out_features=1, bias=True)
  )
)
| 07-02 14:58:59 epoch: 097| time: 4.3s| train loss: +1.890e-02 | test loss: +2.610e-02 | 
| 07-02 14:58:59 epoch: 097| train loss i: nan test loss i: nan | 
| 07-02 14:58:59 epoch: 097| time: 4.5s| train loss: +1.890e-02 | test loss: +2.610e-02 | 
| 07-02 14:58:59 epoch: 097| train loss i: nan test loss i: nan | 
| 07-02 14:58:59 model: Powerful(
  (activation): LeakyReLU(negative_slope=0.01)
  (time_mlp): Sequential(
    (0): Linear(in_features=1, out_features=4, bias=True)
    (1): GELU()
    (2): Linear(in_features=4, out_features=1, bias=True)
  )
  (in_lin): Sequential(
    (0): Linear(in_features=2, out_features=128, bias=True)
  )
  (layer_cat_lin): Sequential(
    (0): Linear(in_features=1026, out_features=128, bias=True)
  )
  (convs): ModuleList(
    (0): PowerfulLayer(
      (m1): Sequential(
        (0): Linear(in_features=128, out_features=128, bias=True)
        (1): LeakyReLU(negative_slope=0.01)
        (2): Linear(in_features=128, out_features=128, bias=True)
      )
      (m2): Sequential(
        (0): Linear(in_features=128, out_features=128, bias=True)
        (1): LeakyReLU(negative_slope=0.01)
        (2): Linear(in_features=128, out_features=128, bias=True)
      )
      (m4): Sequential(
        (0): Linear(in_features=256, out_features=128, bias=True)
      )
    )
    (1): PowerfulLayer(
      (m1): Sequential(
        (0): Linear(in_features=128, out_features=128, bias=True)
        (1): LeakyReLU(negative_slope=0.01)
        (2): Linear(in_features=128, out_features=128, bias=True)
      )
      (m2): Sequential(
        (0): Linear(in_features=128, out_features=128, bias=True)
        (1): LeakyReLU(negative_slope=0.01)
        (2): Linear(in_features=128, out_features=128, bias=True)
      )
      (m4): Sequential(
        (0): Linear(in_features=256, out_features=128, bias=True)
      )
    )
    (2): PowerfulLayer(
      (m1): Sequential(
        (0): Linear(in_features=128, out_features=128, bias=True)
        (1): LeakyReLU(negative_slope=0.01)
        (2): Linear(in_features=128, out_features=128, bias=True)
      )
      (m2): Sequential(
        (0): Linear(in_features=128, out_features=128, bias=True)
        (1): LeakyReLU(negative_slope=0.01)
        (2): Linear(in_features=128, out_features=128, bias=True)
      )
      (m4): Sequential(
        (0): Linear(in_features=256, out_features=128, bias=True)
      )
    )
    (3): PowerfulLayer(
      (m1): Sequential(
        (0): Linear(in_features=128, out_features=128, bias=True)
        (1): LeakyReLU(negative_slope=0.01)
        (2): Linear(in_features=128, out_features=128, bias=True)
      )
      (m2): Sequential(
        (0): Linear(in_features=128, out_features=128, bias=True)
        (1): LeakyReLU(negative_slope=0.01)
        (2): Linear(in_features=128, out_features=128, bias=True)
      )
      (m4): Sequential(
        (0): Linear(in_features=256, out_features=128, bias=True)
      )
    )
    (4): PowerfulLayer(
      (m1): Sequential(
        (0): Linear(in_features=128, out_features=128, bias=True)
        (1): LeakyReLU(negative_slope=0.01)
        (2): Linear(in_features=128, out_features=128, bias=True)
      )
      (m2): Sequential(
        (0): Linear(in_features=128, out_features=128, bias=True)
        (1): LeakyReLU(negative_slope=0.01)
        (2): Linear(in_features=128, out_features=128, bias=True)
      )
      (m4): Sequential(
        (0): Linear(in_features=256, out_features=128, bias=True)
      )
    )
    (5): PowerfulLayer(
      (m1): Sequential(
        (0): Linear(in_features=128, out_features=128, bias=True)
        (1): LeakyReLU(negative_slope=0.01)
        (2): Linear(in_features=128, out_features=128, bias=True)
      )
      (m2): Sequential(
        (0): Linear(in_features=128, out_features=128, bias=True)
        (1): LeakyReLU(negative_slope=0.01)
        (2): Linear(in_features=128, out_features=128, bias=True)
      )
      (m4): Sequential(
        (0): Linear(in_features=256, out_features=128, bias=True)
      )
    )
    (6): PowerfulLayer(
      (m1): Sequential(
        (0): Linear(in_features=128, out_features=128, bias=True)
        (1): LeakyReLU(negative_slope=0.01)
        (2): Linear(in_features=128, out_features=128, bias=True)
      )
      (m2): Sequential(
        (0): Linear(in_features=128, out_features=128, bias=True)
        (1): LeakyReLU(negative_slope=0.01)
        (2): Linear(in_features=128, out_features=128, bias=True)
      )
      (m4): Sequential(
        (0): Linear(in_features=256, out_features=128, bias=True)
      )
    )
    (7): PowerfulLayer(
      (m1): Sequential(
        (0): Linear(in_features=128, out_features=128, bias=True)
        (1): LeakyReLU(negative_slope=0.01)
        (2): Linear(in_features=128, out_features=128, bias=True)
      )
      (m2): Sequential(
        (0): Linear(in_features=128, out_features=128, bias=True)
        (1): LeakyReLU(negative_slope=0.01)
        (2): Linear(in_features=128, out_features=128, bias=True)
      )
      (m4): Sequential(
        (0): Linear(in_features=256, out_features=128, bias=True)
      )
    )
  )
  (bns): ModuleList(
    (0): None
    (1): None
    (2): None
    (3): None
    (4): None
    (5): None
    (6): None
    (7): None
  )
  (feature_extractors): ModuleList(
    (0): FeatureExtractor(
      (lin1): Sequential(
        (0): Linear(in_features=128, out_features=128, bias=True)
      )
      (lin2): Sequential(
        (0): Linear(in_features=128, out_features=128, bias=False)
      )
      (lin3): Sequential(
        (0): Linear(in_features=128, out_features=128, bias=False)
      )
      (activation): LeakyReLU(negative_slope=0.01)
    )
    (1): FeatureExtractor(
      (lin1): Sequential(
        (0): Linear(in_features=128, out_features=128, bias=True)
      )
      (lin2): Sequential(
        (0): Linear(in_features=128, out_features=128, bias=False)
      )
      (lin3): Sequential(
        (0): Linear(in_features=128, out_features=128, bias=False)
      )
      (activation): LeakyReLU(negative_slope=0.01)
    )
    (2): FeatureExtractor(
      (lin1): Sequential(
        (0): Linear(in_features=128, out_features=128, bias=True)
      )
      (lin2): Sequential(
        (0): Linear(in_features=128, out_features=128, bias=False)
      )
      (lin3): Sequential(
        (0): Linear(in_features=128, out_features=128, bias=False)
      )
      (activation): LeakyReLU(negative_slope=0.01)
    )
    (3): FeatureExtractor(
      (lin1): Sequential(
        (0): Linear(in_features=128, out_features=128, bias=True)
      )
      (lin2): Sequential(
        (0): Linear(in_features=128, out_features=128, bias=False)
      )
      (lin3): Sequential(
        (0): Linear(in_features=128, out_features=128, bias=False)
      )
      (activation): LeakyReLU(negative_slope=0.01)
    )
    (4): FeatureExtractor(
      (lin1): Sequential(
        (0): Linear(in_features=128, out_features=128, bias=True)
      )
      (lin2): Sequential(
        (0): Linear(in_features=128, out_features=128, bias=False)
      )
      (lin3): Sequential(
        (0): Linear(in_features=128, out_features=128, bias=False)
      )
      (activation): LeakyReLU(negative_slope=0.01)
    )
    (5): FeatureExtractor(
      (lin1): Sequential(
        (0): Linear(in_features=128, out_features=128, bias=True)
      )
      (lin2): Sequential(
        (0): Linear(in_features=128, out_features=128, bias=False)
      )
      (lin3): Sequential(
        (0): Linear(in_features=128, out_features=128, bias=False)
      )
      (activation): LeakyReLU(negative_slope=0.01)
    )
    (6): FeatureExtractor(
      (lin1): Sequential(
        (0): Linear(in_features=128, out_features=128, bias=True)
      )
      (lin2): Sequential(
        (0): Linear(in_features=128, out_features=128, bias=False)
      )
      (lin3): Sequential(
        (0): Linear(in_features=128, out_features=128, bias=False)
      )
      (activation): LeakyReLU(negative_slope=0.01)
    )
    (7): FeatureExtractor(
      (lin1): Sequential(
        (0): Linear(in_features=128, out_features=128, bias=True)
      )
      (lin2): Sequential(
        (0): Linear(in_features=128, out_features=128, bias=False)
      )
      (lin3): Sequential(
        (0): Linear(in_features=128, out_features=128, bias=False)
      )
      (activation): LeakyReLU(negative_slope=0.01)
    )
  )
  (after_conv): Sequential(
    (0): Linear(in_features=128, out_features=128, bias=True)
  )
  (final_lin): Sequential(
    (0): Linear(in_features=128, out_features=1, bias=True)
  )
)
