…
| 10-16 14:53:15 load dataset: {"graph_type": "community", "possible_params_dict": {"num_communities": [2], "max_nodes": [12, 13, 14, 15, 16, 17, 18, 19, 20]}, "corrupt_func": null, "length": 100, "save_dir": "data", "file_name": "community_small", "max_node": null, "min_node": null}max node number: 20
3
[Errno 21] Is a directory: 'exp/community/edp-gnn_community_20_small__Oct-16-14-52-20_11953/models/bestloss'
22
3
[Errno 21] Is a directory: 'exp/community/edp-gnn_community_20_small__Oct-16-14-52-20_11953/models/best'
22
3
2
| 10-16 14:53:15 model: Powerful(
  (activation): LeakyReLU(negative_slope=0.01)
  (time_mlp): Sequential(
    (0): Linear(in_features=1, out_features=4, bias=True)
    (1): GELU()
    (2): Linear(in_features=4, out_features=1, bias=True)
  )
  (in_lin): Sequential(
    (0): Linear(in_features=2, out_features=32, bias=True)
  )
  (layer_cat_lin): Sequential(
    (0): Linear(in_features=194, out_features=32, bias=True)
  )
  (convs): ModuleList(
    (0): PowerfulLayer(
      (m1): Sequential(
        (0): Linear(in_features=32, out_features=32, bias=True)
        (1): LeakyReLU(negative_slope=0.01)
        (2): Linear(in_features=32, out_features=32, bias=True)
      )
      (m2): Sequential(
        (0): Linear(in_features=32, out_features=32, bias=True)
        (1): LeakyReLU(negative_slope=0.01)
        (2): Linear(in_features=32, out_features=32, bias=True)
      )
      (m4): Sequential(
        (0): Linear(in_features=64, out_features=32, bias=True)
      )
    )
    (1): PowerfulLayer(
      (m1): Sequential(
        (0): Linear(in_features=32, out_features=32, bias=True)
        (1): LeakyReLU(negative_slope=0.01)
        (2): Linear(in_features=32, out_features=32, bias=True)
      )
      (m2): Sequential(
        (0): Linear(in_features=32, out_features=32, bias=True)
        (1): LeakyReLU(negative_slope=0.01)
        (2): Linear(in_features=32, out_features=32, bias=True)
      )
      (m4): Sequential(
        (0): Linear(in_features=64, out_features=32, bias=True)
      )
    )
    (2): PowerfulLayer(
      (m1): Sequential(
        (0): Linear(in_features=32, out_features=32, bias=True)
        (1): LeakyReLU(negative_slope=0.01)
        (2): Linear(in_features=32, out_features=32, bias=True)
      )
      (m2): Sequential(
        (0): Linear(in_features=32, out_features=32, bias=True)
        (1): LeakyReLU(negative_slope=0.01)
        (2): Linear(in_features=32, out_features=32, bias=True)
      )
      (m4): Sequential(
        (0): Linear(in_features=64, out_features=32, bias=True)
      )
    )
    (3): PowerfulLayer(
      (m1): Sequential(
        (0): Linear(in_features=32, out_features=32, bias=True)
        (1): LeakyReLU(negative_slope=0.01)
        (2): Linear(in_features=32, out_features=32, bias=True)
      )
      (m2): Sequential(
        (0): Linear(in_features=32, out_features=32, bias=True)
        (1): LeakyReLU(negative_slope=0.01)
        (2): Linear(in_features=32, out_features=32, bias=True)
      )
      (m4): Sequential(
        (0): Linear(in_features=64, out_features=32, bias=True)
      )
    )
    (4): PowerfulLayer(
      (m1): Sequential(
        (0): Linear(in_features=32, out_features=32, bias=True)
        (1): LeakyReLU(negative_slope=0.01)
        (2): Linear(in_features=32, out_features=32, bias=True)
      )
      (m2): Sequential(
        (0): Linear(in_features=32, out_features=32, bias=True)
        (1): LeakyReLU(negative_slope=0.01)
        (2): Linear(in_features=32, out_features=32, bias=True)
      )
      (m4): Sequential(
        (0): Linear(in_features=64, out_features=32, bias=True)
      )
    )
    (5): PowerfulLayer(
      (m1): Sequential(
        (0): Linear(in_features=32, out_features=32, bias=True)
        (1): LeakyReLU(negative_slope=0.01)
        (2): Linear(in_features=32, out_features=32, bias=True)
      )
      (m2): Sequential(
        (0): Linear(in_features=32, out_features=32, bias=True)
        (1): LeakyReLU(negative_slope=0.01)
        (2): Linear(in_features=32, out_features=32, bias=True)
      )
      (m4): Sequential(
        (0): Linear(in_features=64, out_features=32, bias=True)
      )
    )
  )
  (bns): ModuleList(
    (0): None
    (1): None
    (2): None
    (3): None
    (4): None
    (5): None
  )
  (feature_extractors): ModuleList(
    (0): FeatureExtractor(
      (lin1): Sequential(
        (0): Linear(in_features=32, out_features=32, bias=True)
      )
      (lin2): Sequential(
        (0): Linear(in_features=32, out_features=32, bias=False)
      )
      (lin3): Sequential(
        (0): Linear(in_features=32, out_features=32, bias=False)
      )
      (activation): LeakyReLU(negative_slope=0.01)
    )
    (1): FeatureExtractor(
      (lin1): Sequential(
        (0): Linear(in_features=32, out_features=32, bias=True)
      )
      (lin2): Sequential(
        (0): Linear(in_features=32, out_features=32, bias=False)
      )
      (lin3): Sequential(
        (0): Linear(in_features=32, out_features=32, bias=False)
      )
      (activation): LeakyReLU(negative_slope=0.01)
    )
    (2): FeatureExtractor(
      (lin1): Sequential(
        (0): Linear(in_features=32, out_features=32, bias=True)
      )
      (lin2): Sequential(
        (0): Linear(in_features=32, out_features=32, bias=False)
      )
      (lin3): Sequential(
        (0): Linear(in_features=32, out_features=32, bias=False)
      )
      (activation): LeakyReLU(negative_slope=0.01)
    )
    (3): FeatureExtractor(
      (lin1): Sequential(
        (0): Linear(in_features=32, out_features=32, bias=True)
      )
      (lin2): Sequential(
        (0): Linear(in_features=32, out_features=32, bias=False)
      )
      (lin3): Sequential(
        (0): Linear(in_features=32, out_features=32, bias=False)
      )
      (activation): LeakyReLU(negative_slope=0.01)
    )
    (4): FeatureExtractor(
      (lin1): Sequential(
        (0): Linear(in_features=32, out_features=32, bias=True)
      )
      (lin2): Sequential(
        (0): Linear(in_features=32, out_features=32, bias=False)
      )
      (lin3): Sequential(
        (0): Linear(in_features=32, out_features=32, bias=False)
      )
      (activation): LeakyReLU(negative_slope=0.01)
    )
    (5): FeatureExtractor(
      (lin1): Sequential(
        (0): Linear(in_features=32, out_features=32, bias=True)
      )
      (lin2): Sequential(
        (0): Linear(in_features=32, out_features=32, bias=False)
      )
      (lin3): Sequential(
        (0): Linear(in_features=32, out_features=32, bias=False)
      )
      (activation): LeakyReLU(negative_slope=0.01)
    )
  )
  (after_conv): Sequential(
    (0): Linear(in_features=32, out_features=32, bias=True)
  )
  (final_lin): Sequential(
    (0): Linear(in_features=32, out_features=1, bias=True)
  )
