| 07-01 16:37:00 EXPERIMENT BEGIN: 
| 07-01 16:37:00 logging into exp/gridsearch/ppgn_ego_18_small__Jul-01-16-37-00_13473/info.log
| 07-01 16:37:00 load dataset: ego_small
200
| 07-01 16:37:09 model: Powerful(
  (activation): LeakyReLU(negative_slope=0.01)
  (time_mlp): Sequential(
    (0): Linear(in_features=1, out_features=4, bias=True)
    (1): GELU()
    (2): Linear(in_features=4, out_features=1, bias=True)
  )
  (in_lin): Sequential(
    (0): Linear(in_features=2, out_features=128, bias=True)
  )
  (layer_cat_lin): Sequential(
    (0): Linear(in_features=1026, out_features=128, bias=True)
  )
  (convs): ModuleList(
    (0): PowerfulLayer(
      (m1): Sequential(
        (0): Linear(in_features=128, out_features=128, bias=True)
        (1): LeakyReLU(negative_slope=0.01)
        (2): Linear(in_features=128, out_features=128, bias=True)
      )
      (m2): Sequential(
        (0): Linear(in_features=128, out_features=128, bias=True)
        (1): LeakyReLU(negative_slope=0.01)
        (2): Linear(in_features=128, out_features=128, bias=True)
      )
      (m4): Sequential(
        (0): Linear(in_features=256, out_features=128, bias=True)
      )
    )
    (1): PowerfulLayer(
      (m1): Sequential(
        (0): Linear(in_features=128, out_features=128, bias=True)
        (1): LeakyReLU(negative_slope=0.01)
        (2): Linear(in_features=128, out_features=128, bias=True)
      )
      (m2): Sequential(
        (0): Linear(in_features=128, out_features=128, bias=True)
        (1): LeakyReLU(negative_slope=0.01)
        (2): Linear(in_features=128, out_features=128, bias=True)
      )
      (m4): Sequential(
        (0): Linear(in_features=256, out_features=128, bias=True)
      )
    )
    (2): PowerfulLayer(
      (m1): Sequential(
        (0): Linear(in_features=128, out_features=128, bias=True)
        (1): LeakyReLU(negative_slope=0.01)
        (2): Linear(in_features=128, out_features=128, bias=True)
      )
      (m2): Sequential(
        (0): Linear(in_features=128, out_features=128, bias=True)
        (1): LeakyReLU(negative_slope=0.01)
        (2): Linear(in_features=128, out_features=128, bias=True)
      )
      (m4): Sequential(
        (0): Linear(in_features=256, out_features=128, bias=True)
      )
    )
    (3): PowerfulLayer(
      (m1): Sequential(
        (0): Linear(in_features=128, out_features=128, bias=True)
        (1): LeakyReLU(negative_slope=0.01)
        (2): Linear(in_features=128, out_features=128, bias=True)
      )
      (m2): Sequential(
        (0): Linear(in_features=128, out_features=128, bias=True)
        (1): LeakyReLU(negative_slope=0.01)
        (2): Linear(in_features=128, out_features=128, bias=True)
      )
      (m4): Sequential(
        (0): Linear(in_features=256, out_features=128, bias=True)
      )
    )
    (4): PowerfulLayer(
      (m1): Sequential(
        (0): Linear(in_features=128, out_features=128, bias=True)
        (1): LeakyReLU(negative_slope=0.01)
        (2): Linear(in_features=128, out_features=128, bias=True)
      )
      (m2): Sequential(
        (0): Linear(in_features=128, out_features=128, bias=True)
        (1): LeakyReLU(negative_slope=0.01)
        (2): Linear(in_features=128, out_features=128, bias=True)
      )
      (m4): Sequential(
        (0): Linear(in_features=256, out_features=128, bias=True)
      )
    )
    (5): PowerfulLayer(
      (m1): Sequential(
        (0): Linear(in_features=128, out_features=128, bias=True)
        (1): LeakyReLU(negative_slope=0.01)
        (2): Linear(in_features=128, out_features=128, bias=True)
      )
      (m2): Sequential(
        (0): Linear(in_features=128, out_features=128, bias=True)
        (1): LeakyReLU(negative_slope=0.01)
        (2): Linear(in_features=128, out_features=128, bias=True)
      )
      (m4): Sequential(
        (0): Linear(in_features=256, out_features=128, bias=True)
      )
    )
    (6): PowerfulLayer(
      (m1): Sequential(
        (0): Linear(in_features=128, out_features=128, bias=True)
        (1): LeakyReLU(negative_slope=0.01)
        (2): Linear(in_features=128, out_features=128, bias=True)
      )
      (m2): Sequential(
        (0): Linear(in_features=128, out_features=128, bias=True)
        (1): LeakyReLU(negative_slope=0.01)
        (2): Linear(in_features=128, out_features=128, bias=True)
      )
      (m4): Sequential(
        (0): Linear(in_features=256, out_features=128, bias=True)
      )
    )
    (7): PowerfulLayer(
      (m1): Sequential(
        (0): Linear(in_features=128, out_features=128, bias=True)
        (1): LeakyReLU(negative_slope=0.01)
        (2): Linear(in_features=128, out_features=128, bias=True)
      )
      (m2): Sequential(
        (0): Linear(in_features=128, out_features=128, bias=True)
        (1): LeakyReLU(negative_slope=0.01)
        (2): Linear(in_features=128, out_features=128, bias=True)
      )
      (m4): Sequential(
        (0): Linear(in_features=256, out_features=128, bias=True)
      )
    )
  )
  (bns): ModuleList(
    (0): None
    (1): None
    (2): None
    (3): None
    (4): None
    (5): None
    (6): None
    (7): None
  )
  (feature_extractors): ModuleList(
    (0): FeatureExtractor(
      (lin1): Sequential(
        (0): Linear(in_features=128, out_features=128, bias=True)
      )
      (lin2): Sequential(
        (0): Linear(in_features=128, out_features=128, bias=False)
      )
      (lin3): Sequential(
        (0): Linear(in_features=128, out_features=128, bias=False)
      )
      (activation): LeakyReLU(negative_slope=0.01)
    )
    (1): FeatureExtractor(
      (lin1): Sequential(
        (0): Linear(in_features=128, out_features=128, bias=True)
      )
      (lin2): Sequential(
        (0): Linear(in_features=128, out_features=128, bias=False)
      )
      (lin3): Sequential(
        (0): Linear(in_features=128, out_features=128, bias=False)
      )
      (activation): LeakyReLU(negative_slope=0.01)
    )
    (2): FeatureExtractor(
      (lin1): Sequential(
        (0): Linear(in_features=128, out_features=128, bias=True)
      )
      (lin2): Sequential(
        (0): Linear(in_features=128, out_features=128, bias=False)
      )
      (lin3): Sequential(
        (0): Linear(in_features=128, out_features=128, bias=False)
      )
      (activation): LeakyReLU(negative_slope=0.01)
    )
    (3): FeatureExtractor(
      (lin1): Sequential(
        (0): Linear(in_features=128, out_features=128, bias=True)
      )
      (lin2): Sequential(
        (0): Linear(in_features=128, out_features=128, bias=False)
      )
      (lin3): Sequential(
        (0): Linear(in_features=128, out_features=128, bias=False)
      )
      (activation): LeakyReLU(negative_slope=0.01)
    )
    (4): FeatureExtractor(
      (lin1): Sequential(
        (0): Linear(in_features=128, out_features=128, bias=True)
      )
      (lin2): Sequential(
        (0): Linear(in_features=128, out_features=128, bias=False)
      )
      (lin3): Sequential(
        (0): Linear(in_features=128, out_features=128, bias=False)
      )
      (activation): LeakyReLU(negative_slope=0.01)
    )
    (5): FeatureExtractor(
      (lin1): Sequential(
        (0): Linear(in_features=128, out_features=128, bias=True)
      )
      (lin2): Sequential(
        (0): Linear(in_features=128, out_features=128, bias=False)
      )
      (lin3): Sequential(
        (0): Linear(in_features=128, out_features=128, bias=False)
      )
      (activation): LeakyReLU(negative_slope=0.01)
    )
    (6): FeatureExtractor(
      (lin1): Sequential(
        (0): Linear(in_features=128, out_features=128, bias=True)
      )
      (lin2): Sequential(
        (0): Linear(in_features=128, out_features=128, bias=False)
      )
      (lin3): Sequential(
        (0): Linear(in_features=128, out_features=128, bias=False)
      )
      (activation): LeakyReLU(negative_slope=0.01)
    )
    (7): FeatureExtractor(
      (lin1): Sequential(
        (0): Linear(in_features=128, out_features=128, bias=True)
      )
      (lin2): Sequential(
        (0): Linear(in_features=128, out_features=128, bias=False)
      )
      (lin3): Sequential(
        (0): Linear(in_features=128, out_features=128, bias=False)
      )
      (activation): LeakyReLU(negative_slope=0.01)
    )
  )
  (after_conv): Sequential(
    (0): Linear(in_features=128, out_features=128, bias=True)
  )
  (final_lin): Sequential(
    (0): Linear(in_features=128, out_features=1, bias=True)
  )
)
| 07-01 16:37:09 Parameters: 
time_mlp.0.weight ........................................................................................... torch.Size([4, 1])
time_mlp.0.bias ................................................................................................ torch.Size([4])
time_mlp.2.weight ........................................................................................... torch.Size([1, 4])
…
| 07-01 16:37:36 epoch: 002| train loss i: nan test loss i: nan | 
| 07-01 16:37:37 epoch: 002| time: 6.1s| train loss: +2.884e-02 | test loss: +3.597e-02 | 
| 07-01 16:37:37 epoch: 002| train loss i: nan test loss i: nan | 
| 07-01 16:37:42 epoch: 003| time: 5.7s| train loss: +2.754e-02 | test loss: +3.308e-02 | 
| 07-01 16:37:42 epoch: 003| train loss i: nan test loss i: nan | 
| 07-01 16:37:43 epoch: 003| time: 6.0s| train loss: +2.754e-02 | test loss: +3.308e-02 | 
| 07-01 16:37:43 epoch: 003| train loss i: nan test loss i: nan | 
| 07-01 16:37:43 model: Powerful(
  (activation): LeakyReLU(negative_slope=0.01)
  (time_mlp): Sequential(
    (0): Linear(in_features=1, out_features=4, bias=True)
    (1): GELU()
    (2): Linear(in_features=4, out_features=1, bias=True)
  )
  (in_lin): Sequential(
    (0): Linear(in_features=2, out_features=128, bias=True)
  )
  (layer_cat_lin): Sequential(
    (0): Linear(in_features=1026, out_features=128, bias=True)
  )
  (convs): ModuleList(
    (0): PowerfulLayer(
      (m1): Sequential(
        (0): Linear(in_features=128, out_features=128, bias=True)
        (1): LeakyReLU(negative_slope=0.01)
        (2): Linear(in_features=128, out_features=128, bias=True)
      )
      (m2): Sequential(
        (0): Linear(in_features=128, out_features=128, bias=True)
        (1): LeakyReLU(negative_slope=0.01)
        (2): Linear(in_features=128, out_features=128, bias=True)
      )
      (m4): Sequential(
        (0): Linear(in_features=256, out_features=128, bias=True)
      )
    )
    (1): PowerfulLayer(
      (m1): Sequential(
        (0): Linear(in_features=128, out_features=128, bias=True)
        (1): LeakyReLU(negative_slope=0.01)
        (2): Linear(in_features=128, out_features=128, bias=True)
      )
      (m2): Sequential(
        (0): Linear(in_features=128, out_features=128, bias=True)
        (1): LeakyReLU(negative_slope=0.01)
        (2): Linear(in_features=128, out_features=128, bias=True)
      )
      (m4): Sequential(
        (0): Linear(in_features=256, out_features=128, bias=True)
      )
    )
    (2): PowerfulLayer(
      (m1): Sequential(
        (0): Linear(in_features=128, out_features=128, bias=True)
        (1): LeakyReLU(negative_slope=0.01)
        (2): Linear(in_features=128, out_features=128, bias=True)
      )
      (m2): Sequential(
        (0): Linear(in_features=128, out_features=128, bias=True)
        (1): LeakyReLU(negative_slope=0.01)
        (2): Linear(in_features=128, out_features=128, bias=True)
      )
      (m4): Sequential(
        (0): Linear(in_features=256, out_features=128, bias=True)
      )
    )
    (3): PowerfulLayer(
      (m1): Sequential(
        (0): Linear(in_features=128, out_features=128, bias=True)
        (1): LeakyReLU(negative_slope=0.01)
        (2): Linear(in_features=128, out_features=128, bias=True)
      )
      (m2): Sequential(
        (0): Linear(in_features=128, out_features=128, bias=True)
        (1): LeakyReLU(negative_slope=0.01)
        (2): Linear(in_features=128, out_features=128, bias=True)
      )
      (m4): Sequential(
        (0): Linear(in_features=256, out_features=128, bias=True)
      )
    )
    (4): PowerfulLayer(
      (m1): Sequential(
        (0): Linear(in_features=128, out_features=128, bias=True)
        (1): LeakyReLU(negative_slope=0.01)
        (2): Linear(in_features=128, out_features=128, bias=True)
      )
      (m2): Sequential(
        (0): Linear(in_features=128, out_features=128, bias=True)
        (1): LeakyReLU(negative_slope=0.01)
        (2): Linear(in_features=128, out_features=128, bias=True)
      )
      (m4): Sequential(
        (0): Linear(in_features=256, out_features=128, bias=True)
      )
    )
    (5): PowerfulLayer(
      (m1): Sequential(
        (0): Linear(in_features=128, out_features=128, bias=True)
        (1): LeakyReLU(negative_slope=0.01)
        (2): Linear(in_features=128, out_features=128, bias=True)
      )
      (m2): Sequential(
        (0): Linear(in_features=128, out_features=128, bias=True)
        (1): LeakyReLU(negative_slope=0.01)
        (2): Linear(in_features=128, out_features=128, bias=True)
      )
      (m4): Sequential(
        (0): Linear(in_features=256, out_features=128, bias=True)
      )
    )
    (6): PowerfulLayer(
      (m1): Sequential(
        (0): Linear(in_features=128, out_features=128, bias=True)
        (1): LeakyReLU(negative_slope=0.01)
        (2): Linear(in_features=128, out_features=128, bias=True)
      )
      (m2): Sequential(
        (0): Linear(in_features=128, out_features=128, bias=True)
        (1): LeakyReLU(negative_slope=0.01)
        (2): Linear(in_features=128, out_features=128, bias=True)
      )
      (m4): Sequential(
        (0): Linear(in_features=256, out_features=128, bias=True)
      )
    )
    (7): PowerfulLayer(
      (m1): Sequential(
        (0): Linear(in_features=128, out_features=128, bias=True)
        (1): LeakyReLU(negative_slope=0.01)
        (2): Linear(in_features=128, out_features=128, bias=True)
      )
      (m2): Sequential(
        (0): Linear(in_features=128, out_features=128, bias=True)
        (1): LeakyReLU(negative_slope=0.01)
        (2): Linear(in_features=128, out_features=128, bias=True)
      )
      (m4): Sequential(
        (0): Linear(in_features=256, out_features=128, bias=True)
      )
    )
  )
  (bns): ModuleList(
    (0): None
    (1): None
    (2): None
    (3): None
    (4): None
    (5): None
    (6): None
    (7): None
  )
  (feature_extractors): ModuleList(
    (0): FeatureExtractor(
      (lin1): Sequential(
        (0): Linear(in_features=128, out_features=128, bias=True)
      )
      (lin2): Sequential(
        (0): Linear(in_features=128, out_features=128, bias=False)
      )
      (lin3): Sequential(
        (0): Linear(in_features=128, out_features=128, bias=False)
      )
      (activation): LeakyReLU(negative_slope=0.01)
    )
    (1): FeatureExtractor(
      (lin1): Sequential(
        (0): Linear(in_features=128, out_features=128, bias=True)
      )
      (lin2): Sequential(
        (0): Linear(in_features=128, out_features=128, bias=False)
      )
      (lin3): Sequential(
        (0): Linear(in_features=128, out_features=128, bias=False)
      )
      (activation): LeakyReLU(negative_slope=0.01)
    )
    (2): FeatureExtractor(
      (lin1): Sequential(
        (0): Linear(in_features=128, out_features=128, bias=True)
      )
      (lin2): Sequential(
        (0): Linear(in_features=128, out_features=128, bias=False)
      )
      (lin3): Sequential(
        (0): Linear(in_features=128, out_features=128, bias=False)
      )
      (activation): LeakyReLU(negative_slope=0.01)
    )
    (3): FeatureExtractor(
      (lin1): Sequential(
        (0): Linear(in_features=128, out_features=128, bias=True)
      )
      (lin2): Sequential(
        (0): Linear(in_features=128, out_features=128, bias=False)
      )
      (lin3): Sequential(
        (0): Linear(in_features=128, out_features=128, bias=False)
      )
      (activation): LeakyReLU(negative_slope=0.01)
    )
    (4): FeatureExtractor(
      (lin1): Sequential(
        (0): Linear(in_features=128, out_features=128, bias=True)
      )
      (lin2): Sequential(
        (0): Linear(in_features=128, out_features=128, bias=False)
      )
      (lin3): Sequential(
        (0): Linear(in_features=128, out_features=128, bias=False)
      )
      (activation): LeakyReLU(negative_slope=0.01)
    )
    (5): FeatureExtractor(
      (lin1): Sequential(
        (0): Linear(in_features=128, out_features=128, bias=True)
      )
      (lin2): Sequential(
        (0): Linear(in_features=128, out_features=128, bias=False)
      )
      (lin3): Sequential(
        (0): Linear(in_features=128, out_features=128, bias=False)
      )
      (activation): LeakyReLU(negative_slope=0.01)
    )
    (6): FeatureExtractor(
      (lin1): Sequential(
        (0): Linear(in_features=128, out_features=128, bias=True)
      )
      (lin2): Sequential(
        (0): Linear(in_features=128, out_features=128, bias=False)
      )
      (lin3): Sequential(
        (0): Linear(in_features=128, out_features=128, bias=False)
      )
      (activation): LeakyReLU(negative_slope=0.01)
    )
    (7): FeatureExtractor(
      (lin1): Sequential(
        (0): Linear(in_features=128, out_features=128, bias=True)
      )
      (lin2): Sequential(
        (0): Linear(in_features=128, out_features=128, bias=False)
      )
      (lin3): Sequential(
        (0): Linear(in_features=128, out_features=128, bias=False)
      )
      (activation): LeakyReLU(negative_slope=0.01)
    )
  )
  (after_conv): Sequential(
    (0): Linear(in_features=128, out_features=128, bias=True)
  )
  (final_lin): Sequential(
    (0): Linear(in_features=128, out_features=1, bias=True)
  )
)
| 07-01 16:46:41 load dataset: ego_small
200
| 07-01 16:46:41 model: Powerful(
  (activation): LeakyReLU(negative_slope=0.01)
  (time_mlp): Sequential(
    (0): Linear(in_features=1, out_features=4, bias=True)
    (1): GELU()
    (2): Linear(in_features=4, out_features=1, bias=True)
  )
  (in_lin): Sequential(
    (0): Linear(in_features=2, out_features=128, bias=True)
  )
  (layer_cat_lin): Sequential(
    (0): Linear(in_features=1026, out_features=128, bias=True)
  )
  (convs): ModuleList(
    (0): PowerfulLayer(
      (m1): Sequential(
        (0): Linear(in_features=128, out_features=128, bias=True)
        (1): LeakyReLU(negative_slope=0.01)
        (2): Linear(in_features=128, out_features=128, bias=True)
      )
      (m2): Sequential(
        (0): Linear(in_features=128, out_features=128, bias=True)
        (1): LeakyReLU(negative_slope=0.01)
        (2): Linear(in_features=128, out_features=128, bias=True)
      )
      (m4): Sequential(
        (0): Linear(in_features=256, out_features=128, bias=True)
      )
    )
    (1): PowerfulLayer(
      (m1): Sequential(
        (0): Linear(in_features=128, out_features=128, bias=True)
        (1): LeakyReLU(negative_slope=0.01)
        (2): Linear(in_features=128, out_features=128, bias=True)
      )
      (m2): Sequential(
        (0): Linear(in_features=128, out_features=128, bias=True)
        (1): LeakyReLU(negative_slope=0.01)
        (2): Linear(in_features=128, out_features=128, bias=True)
      )
      (m4): Sequential(
        (0): Linear(in_features=256, out_features=128, bias=True)
      )
    )
    (2): PowerfulLayer(
      (m1): Sequential(
        (0): Linear(in_features=128, out_features=128, bias=True)
        (1): LeakyReLU(negative_slope=0.01)
        (2): Linear(in_features=128, out_features=128, bias=True)
      )
      (m2): Sequential(
        (0): Linear(in_features=128, out_features=128, bias=True)
        (1): LeakyReLU(negative_slope=0.01)
        (2): Linear(in_features=128, out_features=128, bias=True)
      )
      (m4): Sequential(
        (0): Linear(in_features=256, out_features=128, bias=True)
      )
    )
    (3): PowerfulLayer(
      (m1): Sequential(
        (0): Linear(in_features=128, out_features=128, bias=True)
        (1): LeakyReLU(negative_slope=0.01)
        (2): Linear(in_features=128, out_features=128, bias=True)
      )
      (m2): Sequential(
        (0): Linear(in_features=128, out_features=128, bias=True)
        (1): LeakyReLU(negative_slope=0.01)
        (2): Linear(in_features=128, out_features=128, bias=True)
      )
      (m4): Sequential(
        (0): Linear(in_features=256, out_features=128, bias=True)
      )
    )
    (4): PowerfulLayer(
      (m1): Sequential(
        (0): Linear(in_features=128, out_features=128, bias=True)
        (1): LeakyReLU(negative_slope=0.01)
        (2): Linear(in_features=128, out_features=128, bias=True)
      )
      (m2): Sequential(
        (0): Linear(in_features=128, out_features=128, bias=True)
        (1): LeakyReLU(negative_slope=0.01)
        (2): Linear(in_features=128, out_features=128, bias=True)
      )
      (m4): Sequential(
        (0): Linear(in_features=256, out_features=128, bias=True)
      )
    )
    (5): PowerfulLayer(
      (m1): Sequential(
        (0): Linear(in_features=128, out_features=128, bias=True)
        (1): LeakyReLU(negative_slope=0.01)
        (2): Linear(in_features=128, out_features=128, bias=True)
      )
      (m2): Sequential(
        (0): Linear(in_features=128, out_features=128, bias=True)
        (1): LeakyReLU(negative_slope=0.01)
        (2): Linear(in_features=128, out_features=128, bias=True)
      )
      (m4): Sequential(
        (0): Linear(in_features=256, out_features=128, bias=True)
      )
    )
    (6): PowerfulLayer(
      (m1): Sequential(
        (0): Linear(in_features=128, out_features=128, bias=True)
        (1): LeakyReLU(negative_slope=0.01)
        (2): Linear(in_features=128, out_features=128, bias=True)
      )
      (m2): Sequential(
        (0): Linear(in_features=128, out_features=128, bias=True)
        (1): LeakyReLU(negative_slope=0.01)
        (2): Linear(in_features=128, out_features=128, bias=True)
      )
      (m4): Sequential(
        (0): Linear(in_features=256, out_features=128, bias=True)
      )
    )
    (7): PowerfulLayer(
      (m1): Sequential(
        (0): Linear(in_features=128, out_features=128, bias=True)
        (1): LeakyReLU(negative_slope=0.01)
        (2): Linear(in_features=128, out_features=128, bias=True)
      )
      (m2): Sequential(
        (0): Linear(in_features=128, out_features=128, bias=True)
        (1): LeakyReLU(negative_slope=0.01)
        (2): Linear(in_features=128, out_features=128, bias=True)
      )
      (m4): Sequential(
        (0): Linear(in_features=256, out_features=128, bias=True)
      )
    )
  )
  (bns): ModuleList(
    (0): None
    (1): None
    (2): None
    (3): None
    (4): None
    (5): None
    (6): None
    (7): None
  )
  (feature_extractors): ModuleList(
    (0): FeatureExtractor(
      (lin1): Sequential(
        (0): Linear(in_features=128, out_features=128, bias=True)
      )
      (lin2): Sequential(
        (0): Linear(in_features=128, out_features=128, bias=False)
      )
      (lin3): Sequential(
        (0): Linear(in_features=128, out_features=128, bias=False)
      )
      (activation): LeakyReLU(negative_slope=0.01)
    )
    (1): FeatureExtractor(
      (lin1): Sequential(
        (0): Linear(in_features=128, out_features=128, bias=True)
      )
      (lin2): Sequential(
        (0): Linear(in_features=128, out_features=128, bias=False)
      )
      (lin3): Sequential(
        (0): Linear(in_features=128, out_features=128, bias=False)
      )
      (activation): LeakyReLU(negative_slope=0.01)
    )
    (2): FeatureExtractor(
      (lin1): Sequential(
        (0): Linear(in_features=128, out_features=128, bias=True)
      )
      (lin2): Sequential(
        (0): Linear(in_features=128, out_features=128, bias=False)
      )
      (lin3): Sequential(
        (0): Linear(in_features=128, out_features=128, bias=False)
      )
      (activation): LeakyReLU(negative_slope=0.01)
    )
    (3): FeatureExtractor(
      (lin1): Sequential(
        (0): Linear(in_features=128, out_features=128, bias=True)
      )
      (lin2): Sequential(
        (0): Linear(in_features=128, out_features=128, bias=False)
      )
      (lin3): Sequential(
        (0): Linear(in_features=128, out_features=128, bias=False)
      )
      (activation): LeakyReLU(negative_slope=0.01)
    )
    (4): FeatureExtractor(
      (lin1): Sequential(
        (0): Linear(in_features=128, out_features=128, bias=True)
      )
      (lin2): Sequential(
        (0): Linear(in_features=128, out_features=128, bias=False)
      )
      (lin3): Sequential(
        (0): Linear(in_features=128, out_features=128, bias=False)
      )
      (activation): LeakyReLU(negative_slope=0.01)
    )
    (5): FeatureExtractor(
      (lin1): Sequential(
        (0): Linear(in_features=128, out_features=128, bias=True)
      )
      (lin2): Sequential(
        (0): Linear(in_features=128, out_features=128, bias=False)
      )
      (lin3): Sequential(
        (0): Linear(in_features=128, out_features=128, bias=False)
      )
      (activation): LeakyReLU(negative_slope=0.01)
    )
    (6): FeatureExtractor(
      (lin1): Sequential(
        (0): Linear(in_features=128, out_features=128, bias=True)
      )
      (lin2): Sequential(
        (0): Linear(in_features=128, out_features=128, bias=False)
      )
      (lin3): Sequential(
        (0): Linear(in_features=128, out_features=128, bias=False)
      )
      (activation): LeakyReLU(negative_slope=0.01)
    )
    (7): FeatureExtractor(
      (lin1): Sequential(
        (0): Linear(in_features=128, out_features=128, bias=True)
      )
      (lin2): Sequential(
        (0): Linear(in_features=128, out_features=128, bias=False)
      )
      (lin3): Sequential(
        (0): Linear(in_features=128, out_features=128, bias=False)
      )
      (activation): LeakyReLU(negative_slope=0.01)
    )
  )
  (after_conv): Sequential(
    (0): Linear(in_features=128, out_features=128, bias=True)
  )
  (final_lin): Sequential(
    (0): Linear(in_features=128, out_features=1, bias=True)
  )
)
| 07-01 16:49:40 load dataset: ego_small
200
| 07-01 16:49:40 model: Powerful(
  (activation): LeakyReLU(negative_slope=0.01)
  (time_mlp): Sequential(
    (0): Linear(in_features=1, out_features=4, bias=True)
    (1): GELU()
    (2): Linear(in_features=4, out_features=1, bias=True)
  )
  (in_lin): Sequential(
    (0): Linear(in_features=2, out_features=128, bias=True)
  )
  (layer_cat_lin): Sequential(
    (0): Linear(in_features=1026, out_features=128, bias=True)
  )
  (convs): ModuleList(
    (0): PowerfulLayer(
      (m1): Sequential(
        (0): Linear(in_features=128, out_features=128, bias=True)
        (1): LeakyReLU(negative_slope=0.01)
        (2): Linear(in_features=128, out_features=128, bias=True)
      )
      (m2): Sequential(
        (0): Linear(in_features=128, out_features=128, bias=True)
        (1): LeakyReLU(negative_slope=0.01)
        (2): Linear(in_features=128, out_features=128, bias=True)
      )
      (m4): Sequential(
        (0): Linear(in_features=256, out_features=128, bias=True)
      )
    )
    (1): PowerfulLayer(
      (m1): Sequential(
        (0): Linear(in_features=128, out_features=128, bias=True)
        (1): LeakyReLU(negative_slope=0.01)
        (2): Linear(in_features=128, out_features=128, bias=True)
      )
      (m2): Sequential(
        (0): Linear(in_features=128, out_features=128, bias=True)
        (1): LeakyReLU(negative_slope=0.01)
        (2): Linear(in_features=128, out_features=128, bias=True)
      )
      (m4): Sequential(
        (0): Linear(in_features=256, out_features=128, bias=True)
      )
    )
    (2): PowerfulLayer(
      (m1): Sequential(
        (0): Linear(in_features=128, out_features=128, bias=True)
        (1): LeakyReLU(negative_slope=0.01)
        (2): Linear(in_features=128, out_features=128, bias=True)
      )
      (m2): Sequential(
        (0): Linear(in_features=128, out_features=128, bias=True)
        (1): LeakyReLU(negative_slope=0.01)
        (2): Linear(in_features=128, out_features=128, bias=True)
      )
      (m4): Sequential(
        (0): Linear(in_features=256, out_features=128, bias=True)
      )
    )
    (3): PowerfulLayer(
      (m1): Sequential(
        (0): Linear(in_features=128, out_features=128, bias=True)
        (1): LeakyReLU(negative_slope=0.01)
        (2): Linear(in_features=128, out_features=128, bias=True)
      )
      (m2): Sequential(
        (0): Linear(in_features=128, out_features=128, bias=True)
        (1): LeakyReLU(negative_slope=0.01)
        (2): Linear(in_features=128, out_features=128, bias=True)
      )
      (m4): Sequential(
        (0): Linear(in_features=256, out_features=128, bias=True)
      )
    )
    (4): PowerfulLayer(
      (m1): Sequential(
        (0): Linear(in_features=128, out_features=128, bias=True)
        (1): LeakyReLU(negative_slope=0.01)
        (2): Linear(in_features=128, out_features=128, bias=True)
      )
      (m2): Sequential(
        (0): Linear(in_features=128, out_features=128, bias=True)
        (1): LeakyReLU(negative_slope=0.01)
        (2): Linear(in_features=128, out_features=128, bias=True)
      )
      (m4): Sequential(
        (0): Linear(in_features=256, out_features=128, bias=True)
      )
    )
    (5): PowerfulLayer(
      (m1): Sequential(
        (0): Linear(in_features=128, out_features=128, bias=True)
        (1): LeakyReLU(negative_slope=0.01)
        (2): Linear(in_features=128, out_features=128, bias=True)
      )
      (m2): Sequential(
        (0): Linear(in_features=128, out_features=128, bias=True)
        (1): LeakyReLU(negative_slope=0.01)
        (2): Linear(in_features=128, out_features=128, bias=True)
      )
      (m4): Sequential(
        (0): Linear(in_features=256, out_features=128, bias=True)
      )
    )
    (6): PowerfulLayer(
      (m1): Sequential(
        (0): Linear(in_features=128, out_features=128, bias=True)
        (1): LeakyReLU(negative_slope=0.01)
        (2): Linear(in_features=128, out_features=128, bias=True)
      )
      (m2): Sequential(
        (0): Linear(in_features=128, out_features=128, bias=True)
        (1): LeakyReLU(negative_slope=0.01)
        (2): Linear(in_features=128, out_features=128, bias=True)
      )
      (m4): Sequential(
        (0): Linear(in_features=256, out_features=128, bias=True)
      )
    )
    (7): PowerfulLayer(
      (m1): Sequential(
        (0): Linear(in_features=128, out_features=128, bias=True)
        (1): LeakyReLU(negative_slope=0.01)
        (2): Linear(in_features=128, out_features=128, bias=True)
      )
      (m2): Sequential(
        (0): Linear(in_features=128, out_features=128, bias=True)
        (1): LeakyReLU(negative_slope=0.01)
        (2): Linear(in_features=128, out_features=128, bias=True)
      )
      (m4): Sequential(
        (0): Linear(in_features=256, out_features=128, bias=True)
      )
    )
  )
  (bns): ModuleList(
    (0): None
    (1): None
    (2): None
    (3): None
    (4): None
    (5): None
    (6): None
    (7): None
  )
  (feature_extractors): ModuleList(
    (0): FeatureExtractor(
      (lin1): Sequential(
        (0): Linear(in_features=128, out_features=128, bias=True)
      )
      (lin2): Sequential(
        (0): Linear(in_features=128, out_features=128, bias=False)
      )
      (lin3): Sequential(
        (0): Linear(in_features=128, out_features=128, bias=False)
      )
      (activation): LeakyReLU(negative_slope=0.01)
    )
    (1): FeatureExtractor(
      (lin1): Sequential(
        (0): Linear(in_features=128, out_features=128, bias=True)
      )
      (lin2): Sequential(
        (0): Linear(in_features=128, out_features=128, bias=False)
      )
      (lin3): Sequential(
        (0): Linear(in_features=128, out_features=128, bias=False)
      )
      (activation): LeakyReLU(negative_slope=0.01)
    )
    (2): FeatureExtractor(
      (lin1): Sequential(
        (0): Linear(in_features=128, out_features=128, bias=True)
      )
      (lin2): Sequential(
        (0): Linear(in_features=128, out_features=128, bias=False)
      )
      (lin3): Sequential(
        (0): Linear(in_features=128, out_features=128, bias=False)
      )
      (activation): LeakyReLU(negative_slope=0.01)
    )
    (3): FeatureExtractor(
      (lin1): Sequential(
        (0): Linear(in_features=128, out_features=128, bias=True)
      )
      (lin2): Sequential(
        (0): Linear(in_features=128, out_features=128, bias=False)
      )
      (lin3): Sequential(
        (0): Linear(in_features=128, out_features=128, bias=False)
      )
      (activation): LeakyReLU(negative_slope=0.01)
    )
    (4): FeatureExtractor(
      (lin1): Sequential(
        (0): Linear(in_features=128, out_features=128, bias=True)
      )
      (lin2): Sequential(
        (0): Linear(in_features=128, out_features=128, bias=False)
      )
      (lin3): Sequential(
        (0): Linear(in_features=128, out_features=128, bias=False)
      )
      (activation): LeakyReLU(negative_slope=0.01)
    )
    (5): FeatureExtractor(
      (lin1): Sequential(
        (0): Linear(in_features=128, out_features=128, bias=True)
      )
      (lin2): Sequential(
        (0): Linear(in_features=128, out_features=128, bias=False)
      )
      (lin3): Sequential(
        (0): Linear(in_features=128, out_features=128, bias=False)
      )
      (activation): LeakyReLU(negative_slope=0.01)
    )
    (6): FeatureExtractor(
      (lin1): Sequential(
        (0): Linear(in_features=128, out_features=128, bias=True)
      )
      (lin2): Sequential(
        (0): Linear(in_features=128, out_features=128, bias=False)
      )
      (lin3): Sequential(
        (0): Linear(in_features=128, out_features=128, bias=False)
      )
      (activation): LeakyReLU(negative_slope=0.01)
    )
    (7): FeatureExtractor(
      (lin1): Sequential(
        (0): Linear(in_features=128, out_features=128, bias=True)
      )
      (lin2): Sequential(
        (0): Linear(in_features=128, out_features=128, bias=False)
      )
      (lin3): Sequential(
        (0): Linear(in_features=128, out_features=128, bias=False)
      )
      (activation): LeakyReLU(negative_slope=0.01)
    )
  )
  (after_conv): Sequential(
    (0): Linear(in_features=128, out_features=128, bias=True)
  )
  (final_lin): Sequential(
    (0): Linear(in_features=128, out_features=1, bias=True)
  )
)
| 07-01 16:52:32 load dataset: ego_small
200
| 07-01 16:52:32 model: Powerful(
  (activation): LeakyReLU(negative_slope=0.01)
  (time_mlp): Sequential(
    (0): Linear(in_features=1, out_features=4, bias=True)
    (1): GELU()
    (2): Linear(in_features=4, out_features=1, bias=True)
  )
  (in_lin): Sequential(
    (0): Linear(in_features=2, out_features=128, bias=True)
  )
  (layer_cat_lin): Sequential(
    (0): Linear(in_features=1026, out_features=128, bias=True)
  )
  (convs): ModuleList(
    (0): PowerfulLayer(
      (m1): Sequential(
        (0): Linear(in_features=128, out_features=128, bias=True)
        (1): LeakyReLU(negative_slope=0.01)
        (2): Linear(in_features=128, out_features=128, bias=True)
      )
      (m2): Sequential(
        (0): Linear(in_features=128, out_features=128, bias=True)
        (1): LeakyReLU(negative_slope=0.01)
        (2): Linear(in_features=128, out_features=128, bias=True)
      )
      (m4): Sequential(
        (0): Linear(in_features=256, out_features=128, bias=True)
      )
    )
    (1): PowerfulLayer(
      (m1): Sequential(
        (0): Linear(in_features=128, out_features=128, bias=True)
        (1): LeakyReLU(negative_slope=0.01)
        (2): Linear(in_features=128, out_features=128, bias=True)
      )
      (m2): Sequential(
        (0): Linear(in_features=128, out_features=128, bias=True)
        (1): LeakyReLU(negative_slope=0.01)
        (2): Linear(in_features=128, out_features=128, bias=True)
      )
      (m4): Sequential(
        (0): Linear(in_features=256, out_features=128, bias=True)
      )
    )
    (2): PowerfulLayer(
      (m1): Sequential(
        (0): Linear(in_features=128, out_features=128, bias=True)
        (1): LeakyReLU(negative_slope=0.01)
        (2): Linear(in_features=128, out_features=128, bias=True)
      )
      (m2): Sequential(
        (0): Linear(in_features=128, out_features=128, bias=True)
        (1): LeakyReLU(negative_slope=0.01)
        (2): Linear(in_features=128, out_features=128, bias=True)
      )
      (m4): Sequential(
        (0): Linear(in_features=256, out_features=128, bias=True)
      )
    )
    (3): PowerfulLayer(
      (m1): Sequential(
        (0): Linear(in_features=128, out_features=128, bias=True)
        (1): LeakyReLU(negative_slope=0.01)
        (2): Linear(in_features=128, out_features=128, bias=True)
      )
      (m2): Sequential(
        (0): Linear(in_features=128, out_features=128, bias=True)
        (1): LeakyReLU(negative_slope=0.01)
        (2): Linear(in_features=128, out_features=128, bias=True)
      )
      (m4): Sequential(
        (0): Linear(in_features=256, out_features=128, bias=True)
      )
    )
    (4): PowerfulLayer(
      (m1): Sequential(
        (0): Linear(in_features=128, out_features=128, bias=True)
        (1): LeakyReLU(negative_slope=0.01)
        (2): Linear(in_features=128, out_features=128, bias=True)
      )
      (m2): Sequential(
        (0): Linear(in_features=128, out_features=128, bias=True)
        (1): LeakyReLU(negative_slope=0.01)
        (2): Linear(in_features=128, out_features=128, bias=True)
      )
      (m4): Sequential(
        (0): Linear(in_features=256, out_features=128, bias=True)
      )
    )
    (5): PowerfulLayer(
      (m1): Sequential(
        (0): Linear(in_features=128, out_features=128, bias=True)
        (1): LeakyReLU(negative_slope=0.01)
        (2): Linear(in_features=128, out_features=128, bias=True)
      )
      (m2): Sequential(
        (0): Linear(in_features=128, out_features=128, bias=True)
        (1): LeakyReLU(negative_slope=0.01)
        (2): Linear(in_features=128, out_features=128, bias=True)
      )
      (m4): Sequential(
        (0): Linear(in_features=256, out_features=128, bias=True)
      )
    )
    (6): PowerfulLayer(
      (m1): Sequential(
        (0): Linear(in_features=128, out_features=128, bias=True)
        (1): LeakyReLU(negative_slope=0.01)
        (2): Linear(in_features=128, out_features=128, bias=True)
      )
      (m2): Sequential(
        (0): Linear(in_features=128, out_features=128, bias=True)
        (1): LeakyReLU(negative_slope=0.01)
        (2): Linear(in_features=128, out_features=128, bias=True)
      )
      (m4): Sequential(
        (0): Linear(in_features=256, out_features=128, bias=True)
      )
    )
    (7): PowerfulLayer(
      (m1): Sequential(
        (0): Linear(in_features=128, out_features=128, bias=True)
        (1): LeakyReLU(negative_slope=0.01)
        (2): Linear(in_features=128, out_features=128, bias=True)
      )
      (m2): Sequential(
        (0): Linear(in_features=128, out_features=128, bias=True)
        (1): LeakyReLU(negative_slope=0.01)
        (2): Linear(in_features=128, out_features=128, bias=True)
      )
      (m4): Sequential(
        (0): Linear(in_features=256, out_features=128, bias=True)
      )
    )
  )
  (bns): ModuleList(
    (0): None
    (1): None
    (2): None
    (3): None
    (4): None
    (5): None
    (6): None
    (7): None
  )
  (feature_extractors): ModuleList(
    (0): FeatureExtractor(
      (lin1): Sequential(
        (0): Linear(in_features=128, out_features=128, bias=True)
      )
      (lin2): Sequential(
        (0): Linear(in_features=128, out_features=128, bias=False)
      )
      (lin3): Sequential(
        (0): Linear(in_features=128, out_features=128, bias=False)
      )
      (activation): LeakyReLU(negative_slope=0.01)
    )
    (1): FeatureExtractor(
      (lin1): Sequential(
        (0): Linear(in_features=128, out_features=128, bias=True)
      )
      (lin2): Sequential(
        (0): Linear(in_features=128, out_features=128, bias=False)
      )
      (lin3): Sequential(
        (0): Linear(in_features=128, out_features=128, bias=False)
      )
      (activation): LeakyReLU(negative_slope=0.01)
    )
    (2): FeatureExtractor(
      (lin1): Sequential(
        (0): Linear(in_features=128, out_features=128, bias=True)
      )
      (lin2): Sequential(
        (0): Linear(in_features=128, out_features=128, bias=False)
      )
      (lin3): Sequential(
        (0): Linear(in_features=128, out_features=128, bias=False)
      )
      (activation): LeakyReLU(negative_slope=0.01)
    )
    (3): FeatureExtractor(
      (lin1): Sequential(
        (0): Linear(in_features=128, out_features=128, bias=True)
      )
      (lin2): Sequential(
        (0): Linear(in_features=128, out_features=128, bias=False)
      )
      (lin3): Sequential(
        (0): Linear(in_features=128, out_features=128, bias=False)
      )
      (activation): LeakyReLU(negative_slope=0.01)
    )
    (4): FeatureExtractor(
      (lin1): Sequential(
        (0): Linear(in_features=128, out_features=128, bias=True)
      )
      (lin2): Sequential(
        (0): Linear(in_features=128, out_features=128, bias=False)
      )
      (lin3): Sequential(
        (0): Linear(in_features=128, out_features=128, bias=False)
      )
      (activation): LeakyReLU(negative_slope=0.01)
    )
    (5): FeatureExtractor(
      (lin1): Sequential(
        (0): Linear(in_features=128, out_features=128, bias=True)
      )
      (lin2): Sequential(
        (0): Linear(in_features=128, out_features=128, bias=False)
      )
      (lin3): Sequential(
        (0): Linear(in_features=128, out_features=128, bias=False)
      )
      (activation): LeakyReLU(negative_slope=0.01)
    )
    (6): FeatureExtractor(
      (lin1): Sequential(
        (0): Linear(in_features=128, out_features=128, bias=True)
      )
      (lin2): Sequential(
        (0): Linear(in_features=128, out_features=128, bias=False)
      )
      (lin3): Sequential(
        (0): Linear(in_features=128, out_features=128, bias=False)
      )
      (activation): LeakyReLU(negative_slope=0.01)
    )
    (7): FeatureExtractor(
      (lin1): Sequential(
        (0): Linear(in_features=128, out_features=128, bias=True)
      )
      (lin2): Sequential(
        (0): Linear(in_features=128, out_features=128, bias=False)
      )
      (lin3): Sequential(
        (0): Linear(in_features=128, out_features=128, bias=False)
      )
      (activation): LeakyReLU(negative_slope=0.01)
    )
  )
  (after_conv): Sequential(
    (0): Linear(in_features=128, out_features=128, bias=True)
  )
  (final_lin): Sequential(
    (0): Linear(in_features=128, out_features=1, bias=True)
  )
)
| 07-01 16:55:32 epoch: 004| time: 5.9s| train loss: +2.427e-02 | test loss: +2.905e-02 | 
| 07-01 16:55:32 epoch: 004| train loss i: nan test loss i: nan | 
| 07-01 16:55:33 epoch: 004| time: 6.2s| train loss: +2.427e-02 | test loss: +2.905e-02 | 
| 07-01 16:55:33 epoch: 004| train loss i: nan test loss i: nan | 
| 07-01 16:55:33 model: Powerful(
  (activation): LeakyReLU(negative_slope=0.01)
  (time_mlp): Sequential(
    (0): Linear(in_features=1, out_features=4, bias=True)
    (1): GELU()
    (2): Linear(in_features=4, out_features=1, bias=True)
  )
  (in_lin): Sequential(
    (0): Linear(in_features=2, out_features=128, bias=True)
  )
  (layer_cat_lin): Sequential(
    (0): Linear(in_features=1026, out_features=128, bias=True)
  )
  (convs): ModuleList(
    (0): PowerfulLayer(
      (m1): Sequential(
        (0): Linear(in_features=128, out_features=128, bias=True)
        (1): LeakyReLU(negative_slope=0.01)
        (2): Linear(in_features=128, out_features=128, bias=True)
      )
      (m2): Sequential(
        (0): Linear(in_features=128, out_features=128, bias=True)
        (1): LeakyReLU(negative_slope=0.01)
        (2): Linear(in_features=128, out_features=128, bias=True)
      )
      (m4): Sequential(
        (0): Linear(in_features=256, out_features=128, bias=True)
      )
    )
    (1): PowerfulLayer(
      (m1): Sequential(
        (0): Linear(in_features=128, out_features=128, bias=True)
        (1): LeakyReLU(negative_slope=0.01)
        (2): Linear(in_features=128, out_features=128, bias=True)
      )
      (m2): Sequential(
        (0): Linear(in_features=128, out_features=128, bias=True)
        (1): LeakyReLU(negative_slope=0.01)
        (2): Linear(in_features=128, out_features=128, bias=True)
      )
      (m4): Sequential(
        (0): Linear(in_features=256, out_features=128, bias=True)
      )
    )
    (2): PowerfulLayer(
      (m1): Sequential(
        (0): Linear(in_features=128, out_features=128, bias=True)
        (1): LeakyReLU(negative_slope=0.01)
        (2): Linear(in_features=128, out_features=128, bias=True)
      )
      (m2): Sequential(
        (0): Linear(in_features=128, out_features=128, bias=True)
        (1): LeakyReLU(negative_slope=0.01)
        (2): Linear(in_features=128, out_features=128, bias=True)
      )
      (m4): Sequential(
        (0): Linear(in_features=256, out_features=128, bias=True)
      )
    )
    (3): PowerfulLayer(
      (m1): Sequential(
        (0): Linear(in_features=128, out_features=128, bias=True)
        (1): LeakyReLU(negative_slope=0.01)
        (2): Linear(in_features=128, out_features=128, bias=True)
      )
      (m2): Sequential(
        (0): Linear(in_features=128, out_features=128, bias=True)
        (1): LeakyReLU(negative_slope=0.01)
        (2): Linear(in_features=128, out_features=128, bias=True)
      )
      (m4): Sequential(
        (0): Linear(in_features=256, out_features=128, bias=True)
      )
    )
    (4): PowerfulLayer(
      (m1): Sequential(
        (0): Linear(in_features=128, out_features=128, bias=True)
        (1): LeakyReLU(negative_slope=0.01)
        (2): Linear(in_features=128, out_features=128, bias=True)
      )
      (m2): Sequential(
        (0): Linear(in_features=128, out_features=128, bias=True)
        (1): LeakyReLU(negative_slope=0.01)
        (2): Linear(in_features=128, out_features=128, bias=True)
      )
      (m4): Sequential(
        (0): Linear(in_features=256, out_features=128, bias=True)
      )
    )
    (5): PowerfulLayer(
      (m1): Sequential(
        (0): Linear(in_features=128, out_features=128, bias=True)
        (1): LeakyReLU(negative_slope=0.01)
        (2): Linear(in_features=128, out_features=128, bias=True)
      )
      (m2): Sequential(
        (0): Linear(in_features=128, out_features=128, bias=True)
        (1): LeakyReLU(negative_slope=0.01)
        (2): Linear(in_features=128, out_features=128, bias=True)
      )
      (m4): Sequential(
        (0): Linear(in_features=256, out_features=128, bias=True)
      )
    )
    (6): PowerfulLayer(
      (m1): Sequential(
        (0): Linear(in_features=128, out_features=128, bias=True)
        (1): LeakyReLU(negative_slope=0.01)
        (2): Linear(in_features=128, out_features=128, bias=True)
      )
      (m2): Sequential(
        (0): Linear(in_features=128, out_features=128, bias=True)
        (1): LeakyReLU(negative_slope=0.01)
        (2): Linear(in_features=128, out_features=128, bias=True)
      )
      (m4): Sequential(
        (0): Linear(in_features=256, out_features=128, bias=True)
      )
    )
    (7): PowerfulLayer(
      (m1): Sequential(
        (0): Linear(in_features=128, out_features=128, bias=True)
        (1): LeakyReLU(negative_slope=0.01)
        (2): Linear(in_features=128, out_features=128, bias=True)
      )
      (m2): Sequential(
        (0): Linear(in_features=128, out_features=128, bias=True)
        (1): LeakyReLU(negative_slope=0.01)
        (2): Linear(in_features=128, out_features=128, bias=True)
      )
      (m4): Sequential(
        (0): Linear(in_features=256, out_features=128, bias=True)
      )
    )
  )
  (bns): ModuleList(
    (0): None
    (1): None
    (2): None
    (3): None
    (4): None
    (5): None
    (6): None
    (7): None
  )
  (feature_extractors): ModuleList(
    (0): FeatureExtractor(
      (lin1): Sequential(
        (0): Linear(in_features=128, out_features=128, bias=True)
      )
      (lin2): Sequential(
        (0): Linear(in_features=128, out_features=128, bias=False)
      )
      (lin3): Sequential(
        (0): Linear(in_features=128, out_features=128, bias=False)
      )
      (activation): LeakyReLU(negative_slope=0.01)
    )
    (1): FeatureExtractor(
      (lin1): Sequential(
        (0): Linear(in_features=128, out_features=128, bias=True)
      )
      (lin2): Sequential(
        (0): Linear(in_features=128, out_features=128, bias=False)
      )
      (lin3): Sequential(
        (0): Linear(in_features=128, out_features=128, bias=False)
      )
      (activation): LeakyReLU(negative_slope=0.01)
    )
    (2): FeatureExtractor(
      (lin1): Sequential(
        (0): Linear(in_features=128, out_features=128, bias=True)
      )
      (lin2): Sequential(
        (0): Linear(in_features=128, out_features=128, bias=False)
      )
      (lin3): Sequential(
        (0): Linear(in_features=128, out_features=128, bias=False)
      )
      (activation): LeakyReLU(negative_slope=0.01)
    )
    (3): FeatureExtractor(
      (lin1): Sequential(
        (0): Linear(in_features=128, out_features=128, bias=True)
      )
      (lin2): Sequential(
        (0): Linear(in_features=128, out_features=128, bias=False)
      )
      (lin3): Sequential(
        (0): Linear(in_features=128, out_features=128, bias=False)
      )
      (activation): LeakyReLU(negative_slope=0.01)
    )
    (4): FeatureExtractor(
      (lin1): Sequential(
        (0): Linear(in_features=128, out_features=128, bias=True)
      )
      (lin2): Sequential(
        (0): Linear(in_features=128, out_features=128, bias=False)
      )
      (lin3): Sequential(
        (0): Linear(in_features=128, out_features=128, bias=False)
      )
      (activation): LeakyReLU(negative_slope=0.01)
    )
    (5): FeatureExtractor(
      (lin1): Sequential(
        (0): Linear(in_features=128, out_features=128, bias=True)
      )
      (lin2): Sequential(
        (0): Linear(in_features=128, out_features=128, bias=False)
      )
      (lin3): Sequential(
        (0): Linear(in_features=128, out_features=128, bias=False)
      )
      (activation): LeakyReLU(negative_slope=0.01)
    )
    (6): FeatureExtractor(
      (lin1): Sequential(
        (0): Linear(in_features=128, out_features=128, bias=True)
      )
      (lin2): Sequential(
        (0): Linear(in_features=128, out_features=128, bias=False)
      )
      (lin3): Sequential(
        (0): Linear(in_features=128, out_features=128, bias=False)
      )
      (activation): LeakyReLU(negative_slope=0.01)
    )
    (7): FeatureExtractor(
      (lin1): Sequential(
        (0): Linear(in_features=128, out_features=128, bias=True)
      )
      (lin2): Sequential(
        (0): Linear(in_features=128, out_features=128, bias=False)
      )
      (lin3): Sequential(
        (0): Linear(in_features=128, out_features=128, bias=False)
      )
      (activation): LeakyReLU(negative_slope=0.01)
    )
  )
  (after_conv): Sequential(
    (0): Linear(in_features=128, out_features=128, bias=True)
  )
  (final_lin): Sequential(
    (0): Linear(in_features=128, out_features=1, bias=True)
  )
)
| 07-01 17:04:30 load dataset: ego_small
200
| 07-01 17:04:30 model: Powerful(
  (activation): LeakyReLU(negative_slope=0.01)
  (time_mlp): Sequential(
    (0): Linear(in_features=1, out_features=4, bias=True)
    (1): GELU()
    (2): Linear(in_features=4, out_features=1, bias=True)
  )
  (in_lin): Sequential(
    (0): Linear(in_features=2, out_features=128, bias=True)
  )
  (layer_cat_lin): Sequential(
    (0): Linear(in_features=1026, out_features=128, bias=True)
  )
  (convs): ModuleList(
    (0): PowerfulLayer(
      (m1): Sequential(
        (0): Linear(in_features=128, out_features=128, bias=True)
        (1): LeakyReLU(negative_slope=0.01)
        (2): Linear(in_features=128, out_features=128, bias=True)
      )
      (m2): Sequential(
        (0): Linear(in_features=128, out_features=128, bias=True)
        (1): LeakyReLU(negative_slope=0.01)
        (2): Linear(in_features=128, out_features=128, bias=True)
      )
      (m4): Sequential(
        (0): Linear(in_features=256, out_features=128, bias=True)
      )
    )
    (1): PowerfulLayer(
      (m1): Sequential(
        (0): Linear(in_features=128, out_features=128, bias=True)
        (1): LeakyReLU(negative_slope=0.01)
        (2): Linear(in_features=128, out_features=128, bias=True)
      )
      (m2): Sequential(
        (0): Linear(in_features=128, out_features=128, bias=True)
        (1): LeakyReLU(negative_slope=0.01)
        (2): Linear(in_features=128, out_features=128, bias=True)
      )
      (m4): Sequential(
        (0): Linear(in_features=256, out_features=128, bias=True)
      )
    )
    (2): PowerfulLayer(
      (m1): Sequential(
        (0): Linear(in_features=128, out_features=128, bias=True)
        (1): LeakyReLU(negative_slope=0.01)
        (2): Linear(in_features=128, out_features=128, bias=True)
      )
      (m2): Sequential(
        (0): Linear(in_features=128, out_features=128, bias=True)
        (1): LeakyReLU(negative_slope=0.01)
        (2): Linear(in_features=128, out_features=128, bias=True)
      )
      (m4): Sequential(
        (0): Linear(in_features=256, out_features=128, bias=True)
      )
    )
    (3): PowerfulLayer(
      (m1): Sequential(
        (0): Linear(in_features=128, out_features=128, bias=True)
        (1): LeakyReLU(negative_slope=0.01)
        (2): Linear(in_features=128, out_features=128, bias=True)
      )
      (m2): Sequential(
        (0): Linear(in_features=128, out_features=128, bias=True)
        (1): LeakyReLU(negative_slope=0.01)
        (2): Linear(in_features=128, out_features=128, bias=True)
      )
      (m4): Sequential(
        (0): Linear(in_features=256, out_features=128, bias=True)
      )
    )
    (4): PowerfulLayer(
      (m1): Sequential(
        (0): Linear(in_features=128, out_features=128, bias=True)
        (1): LeakyReLU(negative_slope=0.01)
        (2): Linear(in_features=128, out_features=128, bias=True)
      )
      (m2): Sequential(
        (0): Linear(in_features=128, out_features=128, bias=True)
        (1): LeakyReLU(negative_slope=0.01)
        (2): Linear(in_features=128, out_features=128, bias=True)
      )
      (m4): Sequential(
        (0): Linear(in_features=256, out_features=128, bias=True)
      )
    )
    (5): PowerfulLayer(
      (m1): Sequential(
        (0): Linear(in_features=128, out_features=128, bias=True)
        (1): LeakyReLU(negative_slope=0.01)
        (2): Linear(in_features=128, out_features=128, bias=True)
      )
      (m2): Sequential(
        (0): Linear(in_features=128, out_features=128, bias=True)
        (1): LeakyReLU(negative_slope=0.01)
        (2): Linear(in_features=128, out_features=128, bias=True)
      )
      (m4): Sequential(
        (0): Linear(in_features=256, out_features=128, bias=True)
      )
    )
    (6): PowerfulLayer(
      (m1): Sequential(
        (0): Linear(in_features=128, out_features=128, bias=True)
        (1): LeakyReLU(negative_slope=0.01)
        (2): Linear(in_features=128, out_features=128, bias=True)
      )
      (m2): Sequential(
        (0): Linear(in_features=128, out_features=128, bias=True)
        (1): LeakyReLU(negative_slope=0.01)
        (2): Linear(in_features=128, out_features=128, bias=True)
      )
      (m4): Sequential(
        (0): Linear(in_features=256, out_features=128, bias=True)
      )
    )
    (7): PowerfulLayer(
      (m1): Sequential(
        (0): Linear(in_features=128, out_features=128, bias=True)
        (1): LeakyReLU(negative_slope=0.01)
        (2): Linear(in_features=128, out_features=128, bias=True)
      )
      (m2): Sequential(
        (0): Linear(in_features=128, out_features=128, bias=True)
        (1): LeakyReLU(negative_slope=0.01)
        (2): Linear(in_features=128, out_features=128, bias=True)
      )
      (m4): Sequential(
        (0): Linear(in_features=256, out_features=128, bias=True)
      )
    )
  )
  (bns): ModuleList(
    (0): None
    (1): None
    (2): None
    (3): None
    (4): None
    (5): None
    (6): None
    (7): None
  )
  (feature_extractors): ModuleList(
    (0): FeatureExtractor(
      (lin1): Sequential(
        (0): Linear(in_features=128, out_features=128, bias=True)
      )
      (lin2): Sequential(
        (0): Linear(in_features=128, out_features=128, bias=False)
      )
      (lin3): Sequential(
        (0): Linear(in_features=128, out_features=128, bias=False)
      )
      (activation): LeakyReLU(negative_slope=0.01)
    )
    (1): FeatureExtractor(
      (lin1): Sequential(
        (0): Linear(in_features=128, out_features=128, bias=True)
      )
      (lin2): Sequential(
        (0): Linear(in_features=128, out_features=128, bias=False)
      )
      (lin3): Sequential(
        (0): Linear(in_features=128, out_features=128, bias=False)
      )
      (activation): LeakyReLU(negative_slope=0.01)
    )
    (2): FeatureExtractor(
      (lin1): Sequential(
        (0): Linear(in_features=128, out_features=128, bias=True)
      )
      (lin2): Sequential(
        (0): Linear(in_features=128, out_features=128, bias=False)
      )
      (lin3): Sequential(
        (0): Linear(in_features=128, out_features=128, bias=False)
      )
      (activation): LeakyReLU(negative_slope=0.01)
    )
    (3): FeatureExtractor(
      (lin1): Sequential(
        (0): Linear(in_features=128, out_features=128, bias=True)
      )
      (lin2): Sequential(
        (0): Linear(in_features=128, out_features=128, bias=False)
      )
      (lin3): Sequential(
        (0): Linear(in_features=128, out_features=128, bias=False)
      )
      (activation): LeakyReLU(negative_slope=0.01)
    )
    (4): FeatureExtractor(
      (lin1): Sequential(
        (0): Linear(in_features=128, out_features=128, bias=True)
      )
      (lin2): Sequential(
        (0): Linear(in_features=128, out_features=128, bias=False)
      )
      (lin3): Sequential(
        (0): Linear(in_features=128, out_features=128, bias=False)
      )
      (activation): LeakyReLU(negative_slope=0.01)
    )
    (5): FeatureExtractor(
      (lin1): Sequential(
        (0): Linear(in_features=128, out_features=128, bias=True)
      )
      (lin2): Sequential(
        (0): Linear(in_features=128, out_features=128, bias=False)
      )
      (lin3): Sequential(
        (0): Linear(in_features=128, out_features=128, bias=False)
      )
      (activation): LeakyReLU(negative_slope=0.01)
    )
    (6): FeatureExtractor(
      (lin1): Sequential(
        (0): Linear(in_features=128, out_features=128, bias=True)
      )
      (lin2): Sequential(
        (0): Linear(in_features=128, out_features=128, bias=False)
      )
      (lin3): Sequential(
        (0): Linear(in_features=128, out_features=128, bias=False)
      )
      (activation): LeakyReLU(negative_slope=0.01)
    )
    (7): FeatureExtractor(
      (lin1): Sequential(
        (0): Linear(in_features=128, out_features=128, bias=True)
      )
      (lin2): Sequential(
        (0): Linear(in_features=128, out_features=128, bias=False)
      )
      (lin3): Sequential(
        (0): Linear(in_features=128, out_features=128, bias=False)
      )
      (activation): LeakyReLU(negative_slope=0.01)
    )
  )
  (after_conv): Sequential(
    (0): Linear(in_features=128, out_features=128, bias=True)
  )
  (final_lin): Sequential(
    (0): Linear(in_features=128, out_features=1, bias=True)
  )
)
| 07-01 17:07:27 load dataset: ego_small
200
| 07-01 17:07:27 model: Powerful(
  (activation): LeakyReLU(negative_slope=0.01)
  (time_mlp): Sequential(
    (0): Linear(in_features=1, out_features=4, bias=True)
    (1): GELU()
    (2): Linear(in_features=4, out_features=1, bias=True)
  )
  (in_lin): Sequential(
    (0): Linear(in_features=2, out_features=128, bias=True)
  )
  (layer_cat_lin): Sequential(
    (0): Linear(in_features=1026, out_features=128, bias=True)
  )
  (convs): ModuleList(
    (0): PowerfulLayer(
      (m1): Sequential(
        (0): Linear(in_features=128, out_features=128, bias=True)
        (1): LeakyReLU(negative_slope=0.01)
        (2): Linear(in_features=128, out_features=128, bias=True)
      )
      (m2): Sequential(
        (0): Linear(in_features=128, out_features=128, bias=True)
        (1): LeakyReLU(negative_slope=0.01)
        (2): Linear(in_features=128, out_features=128, bias=True)
      )
      (m4): Sequential(
        (0): Linear(in_features=256, out_features=128, bias=True)
      )
    )
    (1): PowerfulLayer(
      (m1): Sequential(
        (0): Linear(in_features=128, out_features=128, bias=True)
        (1): LeakyReLU(negative_slope=0.01)
        (2): Linear(in_features=128, out_features=128, bias=True)
      )
      (m2): Sequential(
        (0): Linear(in_features=128, out_features=128, bias=True)
        (1): LeakyReLU(negative_slope=0.01)
        (2): Linear(in_features=128, out_features=128, bias=True)
      )
      (m4): Sequential(
        (0): Linear(in_features=256, out_features=128, bias=True)
      )
    )
    (2): PowerfulLayer(
      (m1): Sequential(
        (0): Linear(in_features=128, out_features=128, bias=True)
        (1): LeakyReLU(negative_slope=0.01)
        (2): Linear(in_features=128, out_features=128, bias=True)
      )
      (m2): Sequential(
        (0): Linear(in_features=128, out_features=128, bias=True)
        (1): LeakyReLU(negative_slope=0.01)
        (2): Linear(in_features=128, out_features=128, bias=True)
      )
      (m4): Sequential(
        (0): Linear(in_features=256, out_features=128, bias=True)
      )
    )
    (3): PowerfulLayer(
      (m1): Sequential(
        (0): Linear(in_features=128, out_features=128, bias=True)
        (1): LeakyReLU(negative_slope=0.01)
        (2): Linear(in_features=128, out_features=128, bias=True)
      )
      (m2): Sequential(
        (0): Linear(in_features=128, out_features=128, bias=True)
        (1): LeakyReLU(negative_slope=0.01)
        (2): Linear(in_features=128, out_features=128, bias=True)
      )
      (m4): Sequential(
        (0): Linear(in_features=256, out_features=128, bias=True)
      )
    )
    (4): PowerfulLayer(
      (m1): Sequential(
        (0): Linear(in_features=128, out_features=128, bias=True)
        (1): LeakyReLU(negative_slope=0.01)
        (2): Linear(in_features=128, out_features=128, bias=True)
      )
      (m2): Sequential(
        (0): Linear(in_features=128, out_features=128, bias=True)
        (1): LeakyReLU(negative_slope=0.01)
        (2): Linear(in_features=128, out_features=128, bias=True)
      )
      (m4): Sequential(
        (0): Linear(in_features=256, out_features=128, bias=True)
      )
    )
    (5): PowerfulLayer(
      (m1): Sequential(
        (0): Linear(in_features=128, out_features=128, bias=True)
        (1): LeakyReLU(negative_slope=0.01)
        (2): Linear(in_features=128, out_features=128, bias=True)
      )
      (m2): Sequential(
        (0): Linear(in_features=128, out_features=128, bias=True)
        (1): LeakyReLU(negative_slope=0.01)
        (2): Linear(in_features=128, out_features=128, bias=True)
      )
      (m4): Sequential(
        (0): Linear(in_features=256, out_features=128, bias=True)
      )
    )
    (6): PowerfulLayer(
      (m1): Sequential(
        (0): Linear(in_features=128, out_features=128, bias=True)
        (1): LeakyReLU(negative_slope=0.01)
        (2): Linear(in_features=128, out_features=128, bias=True)
      )
      (m2): Sequential(
        (0): Linear(in_features=128, out_features=128, bias=True)
        (1): LeakyReLU(negative_slope=0.01)
        (2): Linear(in_features=128, out_features=128, bias=True)
      )
      (m4): Sequential(
        (0): Linear(in_features=256, out_features=128, bias=True)
      )
    )
    (7): PowerfulLayer(
      (m1): Sequential(
        (0): Linear(in_features=128, out_features=128, bias=True)
        (1): LeakyReLU(negative_slope=0.01)
        (2): Linear(in_features=128, out_features=128, bias=True)
      )
      (m2): Sequential(
        (0): Linear(in_features=128, out_features=128, bias=True)
        (1): LeakyReLU(negative_slope=0.01)
        (2): Linear(in_features=128, out_features=128, bias=True)
      )
      (m4): Sequential(
        (0): Linear(in_features=256, out_features=128, bias=True)
      )
    )
  )
  (bns): ModuleList(
    (0): None
    (1): None
    (2): None
    (3): None
    (4): None
    (5): None
    (6): None
    (7): None
  )
  (feature_extractors): ModuleList(
    (0): FeatureExtractor(
      (lin1): Sequential(
        (0): Linear(in_features=128, out_features=128, bias=True)
      )
      (lin2): Sequential(
        (0): Linear(in_features=128, out_features=128, bias=False)
      )
      (lin3): Sequential(
        (0): Linear(in_features=128, out_features=128, bias=False)
      )
      (activation): LeakyReLU(negative_slope=0.01)
    )
    (1): FeatureExtractor(
      (lin1): Sequential(
        (0): Linear(in_features=128, out_features=128, bias=True)
      )
      (lin2): Sequential(
        (0): Linear(in_features=128, out_features=128, bias=False)
      )
      (lin3): Sequential(
        (0): Linear(in_features=128, out_features=128, bias=False)
      )
      (activation): LeakyReLU(negative_slope=0.01)
    )
    (2): FeatureExtractor(
      (lin1): Sequential(
        (0): Linear(in_features=128, out_features=128, bias=True)
      )
      (lin2): Sequential(
        (0): Linear(in_features=128, out_features=128, bias=False)
      )
      (lin3): Sequential(
        (0): Linear(in_features=128, out_features=128, bias=False)
      )
      (activation): LeakyReLU(negative_slope=0.01)
    )
    (3): FeatureExtractor(
      (lin1): Sequential(
        (0): Linear(in_features=128, out_features=128, bias=True)
      )
      (lin2): Sequential(
        (0): Linear(in_features=128, out_features=128, bias=False)
      )
      (lin3): Sequential(
        (0): Linear(in_features=128, out_features=128, bias=False)
      )
      (activation): LeakyReLU(negative_slope=0.01)
    )
    (4): FeatureExtractor(
      (lin1): Sequential(
        (0): Linear(in_features=128, out_features=128, bias=True)
      )
      (lin2): Sequential(
        (0): Linear(in_features=128, out_features=128, bias=False)
      )
      (lin3): Sequential(
        (0): Linear(in_features=128, out_features=128, bias=False)
      )
      (activation): LeakyReLU(negative_slope=0.01)
    )
    (5): FeatureExtractor(
      (lin1): Sequential(
        (0): Linear(in_features=128, out_features=128, bias=True)
      )
      (lin2): Sequential(
        (0): Linear(in_features=128, out_features=128, bias=False)
      )
      (lin3): Sequential(
        (0): Linear(in_features=128, out_features=128, bias=False)
      )
      (activation): LeakyReLU(negative_slope=0.01)
    )
    (6): FeatureExtractor(
      (lin1): Sequential(
        (0): Linear(in_features=128, out_features=128, bias=True)
      )
      (lin2): Sequential(
        (0): Linear(in_features=128, out_features=128, bias=False)
      )
      (lin3): Sequential(
        (0): Linear(in_features=128, out_features=128, bias=False)
      )
      (activation): LeakyReLU(negative_slope=0.01)
    )
    (7): FeatureExtractor(
      (lin1): Sequential(
        (0): Linear(in_features=128, out_features=128, bias=True)
      )
      (lin2): Sequential(
        (0): Linear(in_features=128, out_features=128, bias=False)
      )
      (lin3): Sequential(
        (0): Linear(in_features=128, out_features=128, bias=False)
      )
      (activation): LeakyReLU(negative_slope=0.01)
    )
  )
  (after_conv): Sequential(
    (0): Linear(in_features=128, out_features=128, bias=True)
  )
  (final_lin): Sequential(
    (0): Linear(in_features=128, out_features=1, bias=True)
  )
)
| 07-01 17:10:21 load dataset: ego_small
200
| 07-01 17:10:21 model: Powerful(
  (activation): LeakyReLU(negative_slope=0.01)
  (time_mlp): Sequential(
    (0): Linear(in_features=1, out_features=4, bias=True)
    (1): GELU()
    (2): Linear(in_features=4, out_features=1, bias=True)
  )
  (in_lin): Sequential(
    (0): Linear(in_features=2, out_features=128, bias=True)
  )
  (layer_cat_lin): Sequential(
    (0): Linear(in_features=1026, out_features=128, bias=True)
  )
  (convs): ModuleList(
    (0): PowerfulLayer(
      (m1): Sequential(
        (0): Linear(in_features=128, out_features=128, bias=True)
        (1): LeakyReLU(negative_slope=0.01)
        (2): Linear(in_features=128, out_features=128, bias=True)
      )
      (m2): Sequential(
        (0): Linear(in_features=128, out_features=128, bias=True)
        (1): LeakyReLU(negative_slope=0.01)
        (2): Linear(in_features=128, out_features=128, bias=True)
      )
      (m4): Sequential(
        (0): Linear(in_features=256, out_features=128, bias=True)
      )
    )
    (1): PowerfulLayer(
      (m1): Sequential(
        (0): Linear(in_features=128, out_features=128, bias=True)
        (1): LeakyReLU(negative_slope=0.01)
        (2): Linear(in_features=128, out_features=128, bias=True)
      )
      (m2): Sequential(
        (0): Linear(in_features=128, out_features=128, bias=True)
        (1): LeakyReLU(negative_slope=0.01)
        (2): Linear(in_features=128, out_features=128, bias=True)
      )
      (m4): Sequential(
        (0): Linear(in_features=256, out_features=128, bias=True)
      )
    )
    (2): PowerfulLayer(
      (m1): Sequential(
        (0): Linear(in_features=128, out_features=128, bias=True)
        (1): LeakyReLU(negative_slope=0.01)
        (2): Linear(in_features=128, out_features=128, bias=True)
      )
      (m2): Sequential(
        (0): Linear(in_features=128, out_features=128, bias=True)
        (1): LeakyReLU(negative_slope=0.01)
        (2): Linear(in_features=128, out_features=128, bias=True)
      )
      (m4): Sequential(
        (0): Linear(in_features=256, out_features=128, bias=True)
      )
    )
    (3): PowerfulLayer(
      (m1): Sequential(
        (0): Linear(in_features=128, out_features=128, bias=True)
        (1): LeakyReLU(negative_slope=0.01)
        (2): Linear(in_features=128, out_features=128, bias=True)
      )
      (m2): Sequential(
        (0): Linear(in_features=128, out_features=128, bias=True)
        (1): LeakyReLU(negative_slope=0.01)
        (2): Linear(in_features=128, out_features=128, bias=True)
      )
      (m4): Sequential(
        (0): Linear(in_features=256, out_features=128, bias=True)
      )
    )
    (4): PowerfulLayer(
      (m1): Sequential(
        (0): Linear(in_features=128, out_features=128, bias=True)
        (1): LeakyReLU(negative_slope=0.01)
        (2): Linear(in_features=128, out_features=128, bias=True)
      )
      (m2): Sequential(
        (0): Linear(in_features=128, out_features=128, bias=True)
        (1): LeakyReLU(negative_slope=0.01)
        (2): Linear(in_features=128, out_features=128, bias=True)
      )
      (m4): Sequential(
        (0): Linear(in_features=256, out_features=128, bias=True)
      )
    )
    (5): PowerfulLayer(
      (m1): Sequential(
        (0): Linear(in_features=128, out_features=128, bias=True)
        (1): LeakyReLU(negative_slope=0.01)
        (2): Linear(in_features=128, out_features=128, bias=True)
      )
      (m2): Sequential(
        (0): Linear(in_features=128, out_features=128, bias=True)
        (1): LeakyReLU(negative_slope=0.01)
        (2): Linear(in_features=128, out_features=128, bias=True)
      )
      (m4): Sequential(
        (0): Linear(in_features=256, out_features=128, bias=True)
      )
    )
    (6): PowerfulLayer(
      (m1): Sequential(
        (0): Linear(in_features=128, out_features=128, bias=True)
        (1): LeakyReLU(negative_slope=0.01)
        (2): Linear(in_features=128, out_features=128, bias=True)
      )
      (m2): Sequential(
        (0): Linear(in_features=128, out_features=128, bias=True)
        (1): LeakyReLU(negative_slope=0.01)
        (2): Linear(in_features=128, out_features=128, bias=True)
      )
      (m4): Sequential(
        (0): Linear(in_features=256, out_features=128, bias=True)
      )
    )
    (7): PowerfulLayer(
      (m1): Sequential(
        (0): Linear(in_features=128, out_features=128, bias=True)
        (1): LeakyReLU(negative_slope=0.01)
        (2): Linear(in_features=128, out_features=128, bias=True)
      )
      (m2): Sequential(
        (0): Linear(in_features=128, out_features=128, bias=True)
        (1): LeakyReLU(negative_slope=0.01)
        (2): Linear(in_features=128, out_features=128, bias=True)
      )
      (m4): Sequential(
        (0): Linear(in_features=256, out_features=128, bias=True)
      )
    )
  )
  (bns): ModuleList(
    (0): None
    (1): None
    (2): None
    (3): None
    (4): None
    (5): None
    (6): None
    (7): None
  )
  (feature_extractors): ModuleList(
    (0): FeatureExtractor(
      (lin1): Sequential(
        (0): Linear(in_features=128, out_features=128, bias=True)
      )
      (lin2): Sequential(
        (0): Linear(in_features=128, out_features=128, bias=False)
      )
      (lin3): Sequential(
        (0): Linear(in_features=128, out_features=128, bias=False)
      )
      (activation): LeakyReLU(negative_slope=0.01)
    )
    (1): FeatureExtractor(
      (lin1): Sequential(
        (0): Linear(in_features=128, out_features=128, bias=True)
      )
      (lin2): Sequential(
        (0): Linear(in_features=128, out_features=128, bias=False)
      )
      (lin3): Sequential(
        (0): Linear(in_features=128, out_features=128, bias=False)
      )
      (activation): LeakyReLU(negative_slope=0.01)
    )
    (2): FeatureExtractor(
      (lin1): Sequential(
        (0): Linear(in_features=128, out_features=128, bias=True)
      )
      (lin2): Sequential(
        (0): Linear(in_features=128, out_features=128, bias=False)
      )
      (lin3): Sequential(
        (0): Linear(in_features=128, out_features=128, bias=False)
      )
      (activation): LeakyReLU(negative_slope=0.01)
    )
    (3): FeatureExtractor(
      (lin1): Sequential(
        (0): Linear(in_features=128, out_features=128, bias=True)
      )
      (lin2): Sequential(
        (0): Linear(in_features=128, out_features=128, bias=False)
      )
      (lin3): Sequential(
        (0): Linear(in_features=128, out_features=128, bias=False)
      )
      (activation): LeakyReLU(negative_slope=0.01)
    )
    (4): FeatureExtractor(
      (lin1): Sequential(
        (0): Linear(in_features=128, out_features=128, bias=True)
      )
      (lin2): Sequential(
        (0): Linear(in_features=128, out_features=128, bias=False)
      )
      (lin3): Sequential(
        (0): Linear(in_features=128, out_features=128, bias=False)
      )
      (activation): LeakyReLU(negative_slope=0.01)
    )
    (5): FeatureExtractor(
      (lin1): Sequential(
        (0): Linear(in_features=128, out_features=128, bias=True)
      )
      (lin2): Sequential(
        (0): Linear(in_features=128, out_features=128, bias=False)
      )
      (lin3): Sequential(
        (0): Linear(in_features=128, out_features=128, bias=False)
      )
      (activation): LeakyReLU(negative_slope=0.01)
    )
    (6): FeatureExtractor(
      (lin1): Sequential(
        (0): Linear(in_features=128, out_features=128, bias=True)
      )
      (lin2): Sequential(
        (0): Linear(in_features=128, out_features=128, bias=False)
      )
      (lin3): Sequential(
        (0): Linear(in_features=128, out_features=128, bias=False)
      )
      (activation): LeakyReLU(negative_slope=0.01)
    )
    (7): FeatureExtractor(
      (lin1): Sequential(
        (0): Linear(in_features=128, out_features=128, bias=True)
      )
      (lin2): Sequential(
        (0): Linear(in_features=128, out_features=128, bias=False)
      )
      (lin3): Sequential(
        (0): Linear(in_features=128, out_features=128, bias=False)
      )
      (activation): LeakyReLU(negative_slope=0.01)
    )
  )
  (after_conv): Sequential(
    (0): Linear(in_features=128, out_features=128, bias=True)
  )
  (final_lin): Sequential(
    (0): Linear(in_features=128, out_features=1, bias=True)
  )
)
| 07-01 17:13:23 epoch: 005| time: 5.8s| train loss: +2.142e-02 | test loss: +2.416e-02 | 
| 07-01 17:13:23 epoch: 005| train loss i: nan test loss i: nan | 
| 07-01 17:13:23 epoch: 005| time: 6.3s| train loss: +2.142e-02 | test loss: +2.416e-02 | 
| 07-01 17:13:23 epoch: 005| train loss i: nan test loss i: nan | 
| 07-01 17:13:23 model: Powerful(
  (activation): LeakyReLU(negative_slope=0.01)
  (time_mlp): Sequential(
    (0): Linear(in_features=1, out_features=4, bias=True)
    (1): GELU()
    (2): Linear(in_features=4, out_features=1, bias=True)
  )
  (in_lin): Sequential(
    (0): Linear(in_features=2, out_features=128, bias=True)
  )
  (layer_cat_lin): Sequential(
    (0): Linear(in_features=1026, out_features=128, bias=True)
  )
  (convs): ModuleList(
    (0): PowerfulLayer(
      (m1): Sequential(
        (0): Linear(in_features=128, out_features=128, bias=True)
        (1): LeakyReLU(negative_slope=0.01)
        (2): Linear(in_features=128, out_features=128, bias=True)
      )
      (m2): Sequential(
        (0): Linear(in_features=128, out_features=128, bias=True)
        (1): LeakyReLU(negative_slope=0.01)
        (2): Linear(in_features=128, out_features=128, bias=True)
      )
      (m4): Sequential(
        (0): Linear(in_features=256, out_features=128, bias=True)
      )
    )
    (1): PowerfulLayer(
      (m1): Sequential(
        (0): Linear(in_features=128, out_features=128, bias=True)
        (1): LeakyReLU(negative_slope=0.01)
        (2): Linear(in_features=128, out_features=128, bias=True)
      )
      (m2): Sequential(
        (0): Linear(in_features=128, out_features=128, bias=True)
        (1): LeakyReLU(negative_slope=0.01)
        (2): Linear(in_features=128, out_features=128, bias=True)
      )
      (m4): Sequential(
        (0): Linear(in_features=256, out_features=128, bias=True)
      )
    )
    (2): PowerfulLayer(
      (m1): Sequential(
        (0): Linear(in_features=128, out_features=128, bias=True)
        (1): LeakyReLU(negative_slope=0.01)
        (2): Linear(in_features=128, out_features=128, bias=True)
      )
      (m2): Sequential(
        (0): Linear(in_features=128, out_features=128, bias=True)
        (1): LeakyReLU(negative_slope=0.01)
        (2): Linear(in_features=128, out_features=128, bias=True)
      )
      (m4): Sequential(
        (0): Linear(in_features=256, out_features=128, bias=True)
      )
    )
    (3): PowerfulLayer(
      (m1): Sequential(
        (0): Linear(in_features=128, out_features=128, bias=True)
        (1): LeakyReLU(negative_slope=0.01)
        (2): Linear(in_features=128, out_features=128, bias=True)
      )
      (m2): Sequential(
        (0): Linear(in_features=128, out_features=128, bias=True)
        (1): LeakyReLU(negative_slope=0.01)
        (2): Linear(in_features=128, out_features=128, bias=True)
      )
      (m4): Sequential(
        (0): Linear(in_features=256, out_features=128, bias=True)
      )
    )
    (4): PowerfulLayer(
      (m1): Sequential(
        (0): Linear(in_features=128, out_features=128, bias=True)
        (1): LeakyReLU(negative_slope=0.01)
        (2): Linear(in_features=128, out_features=128, bias=True)
      )
      (m2): Sequential(
        (0): Linear(in_features=128, out_features=128, bias=True)
        (1): LeakyReLU(negative_slope=0.01)
        (2): Linear(in_features=128, out_features=128, bias=True)
      )
      (m4): Sequential(
        (0): Linear(in_features=256, out_features=128, bias=True)
      )
    )
    (5): PowerfulLayer(
      (m1): Sequential(
        (0): Linear(in_features=128, out_features=128, bias=True)
        (1): LeakyReLU(negative_slope=0.01)
        (2): Linear(in_features=128, out_features=128, bias=True)
      )
      (m2): Sequential(
        (0): Linear(in_features=128, out_features=128, bias=True)
        (1): LeakyReLU(negative_slope=0.01)
        (2): Linear(in_features=128, out_features=128, bias=True)
      )
      (m4): Sequential(
        (0): Linear(in_features=256, out_features=128, bias=True)
      )
    )
    (6): PowerfulLayer(
      (m1): Sequential(
        (0): Linear(in_features=128, out_features=128, bias=True)
        (1): LeakyReLU(negative_slope=0.01)
        (2): Linear(in_features=128, out_features=128, bias=True)
      )
      (m2): Sequential(
        (0): Linear(in_features=128, out_features=128, bias=True)
        (1): LeakyReLU(negative_slope=0.01)
        (2): Linear(in_features=128, out_features=128, bias=True)
      )
      (m4): Sequential(
        (0): Linear(in_features=256, out_features=128, bias=True)
      )
    )
    (7): PowerfulLayer(
      (m1): Sequential(
        (0): Linear(in_features=128, out_features=128, bias=True)
        (1): LeakyReLU(negative_slope=0.01)
        (2): Linear(in_features=128, out_features=128, bias=True)
      )
      (m2): Sequential(
        (0): Linear(in_features=128, out_features=128, bias=True)
        (1): LeakyReLU(negative_slope=0.01)
        (2): Linear(in_features=128, out_features=128, bias=True)
      )
      (m4): Sequential(
        (0): Linear(in_features=256, out_features=128, bias=True)
      )
    )
  )
  (bns): ModuleList(
    (0): None
    (1): None
    (2): None
    (3): None
    (4): None
    (5): None
    (6): None
    (7): None
  )
  (feature_extractors): ModuleList(
    (0): FeatureExtractor(
      (lin1): Sequential(
        (0): Linear(in_features=128, out_features=128, bias=True)
      )
      (lin2): Sequential(
        (0): Linear(in_features=128, out_features=128, bias=False)
      )
      (lin3): Sequential(
        (0): Linear(in_features=128, out_features=128, bias=False)
      )
      (activation): LeakyReLU(negative_slope=0.01)
    )
    (1): FeatureExtractor(
      (lin1): Sequential(
        (0): Linear(in_features=128, out_features=128, bias=True)
      )
      (lin2): Sequential(
        (0): Linear(in_features=128, out_features=128, bias=False)
      )
      (lin3): Sequential(
        (0): Linear(in_features=128, out_features=128, bias=False)
      )
      (activation): LeakyReLU(negative_slope=0.01)
    )
    (2): FeatureExtractor(
      (lin1): Sequential(
        (0): Linear(in_features=128, out_features=128, bias=True)
      )
      (lin2): Sequential(
        (0): Linear(in_features=128, out_features=128, bias=False)
      )
      (lin3): Sequential(
        (0): Linear(in_features=128, out_features=128, bias=False)
      )
      (activation): LeakyReLU(negative_slope=0.01)
    )
    (3): FeatureExtractor(
      (lin1): Sequential(
        (0): Linear(in_features=128, out_features=128, bias=True)
      )
      (lin2): Sequential(
        (0): Linear(in_features=128, out_features=128, bias=False)
      )
      (lin3): Sequential(
        (0): Linear(in_features=128, out_features=128, bias=False)
      )
      (activation): LeakyReLU(negative_slope=0.01)
    )
    (4): FeatureExtractor(
      (lin1): Sequential(
        (0): Linear(in_features=128, out_features=128, bias=True)
      )
      (lin2): Sequential(
        (0): Linear(in_features=128, out_features=128, bias=False)
      )
      (lin3): Sequential(
        (0): Linear(in_features=128, out_features=128, bias=False)
      )
      (activation): LeakyReLU(negative_slope=0.01)
    )
    (5): FeatureExtractor(
      (lin1): Sequential(
        (0): Linear(in_features=128, out_features=128, bias=True)
      )
      (lin2): Sequential(
        (0): Linear(in_features=128, out_features=128, bias=False)
      )
      (lin3): Sequential(
        (0): Linear(in_features=128, out_features=128, bias=False)
      )
      (activation): LeakyReLU(negative_slope=0.01)
    )
    (6): FeatureExtractor(
      (lin1): Sequential(
        (0): Linear(in_features=128, out_features=128, bias=True)
      )
      (lin2): Sequential(
        (0): Linear(in_features=128, out_features=128, bias=False)
      )
      (lin3): Sequential(
        (0): Linear(in_features=128, out_features=128, bias=False)
      )
      (activation): LeakyReLU(negative_slope=0.01)
    )
    (7): FeatureExtractor(
      (lin1): Sequential(
        (0): Linear(in_features=128, out_features=128, bias=True)
      )
      (lin2): Sequential(
        (0): Linear(in_features=128, out_features=128, bias=False)
      )
      (lin3): Sequential(
        (0): Linear(in_features=128, out_features=128, bias=False)
      )
      (activation): LeakyReLU(negative_slope=0.01)
    )
  )
  (after_conv): Sequential(
    (0): Linear(in_features=128, out_features=128, bias=True)
  )
  (final_lin): Sequential(
    (0): Linear(in_features=128, out_features=1, bias=True)
  )
)
| 07-01 17:22:20 load dataset: ego_small
200
| 07-01 17:22:20 model: Powerful(
  (activation): LeakyReLU(negative_slope=0.01)
  (time_mlp): Sequential(
    (0): Linear(in_features=1, out_features=4, bias=True)
    (1): GELU()
    (2): Linear(in_features=4, out_features=1, bias=True)
  )
  (in_lin): Sequential(
    (0): Linear(in_features=2, out_features=128, bias=True)
  )
  (layer_cat_lin): Sequential(
    (0): Linear(in_features=1026, out_features=128, bias=True)
  )
  (convs): ModuleList(
    (0): PowerfulLayer(
      (m1): Sequential(
        (0): Linear(in_features=128, out_features=128, bias=True)
        (1): LeakyReLU(negative_slope=0.01)
        (2): Linear(in_features=128, out_features=128, bias=True)
      )
      (m2): Sequential(
        (0): Linear(in_features=128, out_features=128, bias=True)
        (1): LeakyReLU(negative_slope=0.01)
        (2): Linear(in_features=128, out_features=128, bias=True)
      )
      (m4): Sequential(
        (0): Linear(in_features=256, out_features=128, bias=True)
      )
    )
    (1): PowerfulLayer(
      (m1): Sequential(
        (0): Linear(in_features=128, out_features=128, bias=True)
        (1): LeakyReLU(negative_slope=0.01)
        (2): Linear(in_features=128, out_features=128, bias=True)
      )
      (m2): Sequential(
        (0): Linear(in_features=128, out_features=128, bias=True)
        (1): LeakyReLU(negative_slope=0.01)
        (2): Linear(in_features=128, out_features=128, bias=True)
      )
      (m4): Sequential(
        (0): Linear(in_features=256, out_features=128, bias=True)
      )
    )
    (2): PowerfulLayer(
      (m1): Sequential(
        (0): Linear(in_features=128, out_features=128, bias=True)
        (1): LeakyReLU(negative_slope=0.01)
        (2): Linear(in_features=128, out_features=128, bias=True)
      )
      (m2): Sequential(
        (0): Linear(in_features=128, out_features=128, bias=True)
        (1): LeakyReLU(negative_slope=0.01)
        (2): Linear(in_features=128, out_features=128, bias=True)
      )
      (m4): Sequential(
        (0): Linear(in_features=256, out_features=128, bias=True)
      )
    )
    (3): PowerfulLayer(
      (m1): Sequential(
        (0): Linear(in_features=128, out_features=128, bias=True)
        (1): LeakyReLU(negative_slope=0.01)
        (2): Linear(in_features=128, out_features=128, bias=True)
      )
      (m2): Sequential(
        (0): Linear(in_features=128, out_features=128, bias=True)
        (1): LeakyReLU(negative_slope=0.01)
        (2): Linear(in_features=128, out_features=128, bias=True)
      )
      (m4): Sequential(
        (0): Linear(in_features=256, out_features=128, bias=True)
      )
    )
    (4): PowerfulLayer(
      (m1): Sequential(
        (0): Linear(in_features=128, out_features=128, bias=True)
        (1): LeakyReLU(negative_slope=0.01)
        (2): Linear(in_features=128, out_features=128, bias=True)
      )
      (m2): Sequential(
        (0): Linear(in_features=128, out_features=128, bias=True)
        (1): LeakyReLU(negative_slope=0.01)
        (2): Linear(in_features=128, out_features=128, bias=True)
      )
      (m4): Sequential(
        (0): Linear(in_features=256, out_features=128, bias=True)
      )
    )
    (5): PowerfulLayer(
      (m1): Sequential(
        (0): Linear(in_features=128, out_features=128, bias=True)
        (1): LeakyReLU(negative_slope=0.01)
        (2): Linear(in_features=128, out_features=128, bias=True)
      )
      (m2): Sequential(
        (0): Linear(in_features=128, out_features=128, bias=True)
        (1): LeakyReLU(negative_slope=0.01)
        (2): Linear(in_features=128, out_features=128, bias=True)
      )
      (m4): Sequential(
        (0): Linear(in_features=256, out_features=128, bias=True)
      )
    )
    (6): PowerfulLayer(
      (m1): Sequential(
        (0): Linear(in_features=128, out_features=128, bias=True)
        (1): LeakyReLU(negative_slope=0.01)
        (2): Linear(in_features=128, out_features=128, bias=True)
      )
      (m2): Sequential(
        (0): Linear(in_features=128, out_features=128, bias=True)
        (1): LeakyReLU(negative_slope=0.01)
        (2): Linear(in_features=128, out_features=128, bias=True)
      )
      (m4): Sequential(
        (0): Linear(in_features=256, out_features=128, bias=True)
      )
    )
    (7): PowerfulLayer(
      (m1): Sequential(
        (0): Linear(in_features=128, out_features=128, bias=True)
        (1): LeakyReLU(negative_slope=0.01)
        (2): Linear(in_features=128, out_features=128, bias=True)
      )
      (m2): Sequential(
        (0): Linear(in_features=128, out_features=128, bias=True)
        (1): LeakyReLU(negative_slope=0.01)
        (2): Linear(in_features=128, out_features=128, bias=True)
      )
      (m4): Sequential(
        (0): Linear(in_features=256, out_features=128, bias=True)
      )
    )
  )
  (bns): ModuleList(
    (0): None
    (1): None
    (2): None
    (3): None
    (4): None
    (5): None
    (6): None
    (7): None
  )
  (feature_extractors): ModuleList(
    (0): FeatureExtractor(
      (lin1): Sequential(
        (0): Linear(in_features=128, out_features=128, bias=True)
      )
      (lin2): Sequential(
        (0): Linear(in_features=128, out_features=128, bias=False)
      )
      (lin3): Sequential(
        (0): Linear(in_features=128, out_features=128, bias=False)
      )
      (activation): LeakyReLU(negative_slope=0.01)
    )
    (1): FeatureExtractor(
      (lin1): Sequential(
        (0): Linear(in_features=128, out_features=128, bias=True)
      )
      (lin2): Sequential(
        (0): Linear(in_features=128, out_features=128, bias=False)
      )
      (lin3): Sequential(
        (0): Linear(in_features=128, out_features=128, bias=False)
      )
      (activation): LeakyReLU(negative_slope=0.01)
    )
    (2): FeatureExtractor(
      (lin1): Sequential(
        (0): Linear(in_features=128, out_features=128, bias=True)
      )
      (lin2): Sequential(
        (0): Linear(in_features=128, out_features=128, bias=False)
      )
      (lin3): Sequential(
        (0): Linear(in_features=128, out_features=128, bias=False)
      )
      (activation): LeakyReLU(negative_slope=0.01)
    )
    (3): FeatureExtractor(
      (lin1): Sequential(
        (0): Linear(in_features=128, out_features=128, bias=True)
      )
      (lin2): Sequential(
        (0): Linear(in_features=128, out_features=128, bias=False)
      )
      (lin3): Sequential(
        (0): Linear(in_features=128, out_features=128, bias=False)
      )
      (activation): LeakyReLU(negative_slope=0.01)
    )
    (4): FeatureExtractor(
      (lin1): Sequential(
        (0): Linear(in_features=128, out_features=128, bias=True)
      )
      (lin2): Sequential(
        (0): Linear(in_features=128, out_features=128, bias=False)
      )
      (lin3): Sequential(
        (0): Linear(in_features=128, out_features=128, bias=False)
      )
      (activation): LeakyReLU(negative_slope=0.01)
    )
    (5): FeatureExtractor(
      (lin1): Sequential(
        (0): Linear(in_features=128, out_features=128, bias=True)
      )
      (lin2): Sequential(
        (0): Linear(in_features=128, out_features=128, bias=False)
      )
      (lin3): Sequential(
        (0): Linear(in_features=128, out_features=128, bias=False)
      )
      (activation): LeakyReLU(negative_slope=0.01)
    )
    (6): FeatureExtractor(
      (lin1): Sequential(
        (0): Linear(in_features=128, out_features=128, bias=True)
      )
      (lin2): Sequential(
        (0): Linear(in_features=128, out_features=128, bias=False)
      )
      (lin3): Sequential(
        (0): Linear(in_features=128, out_features=128, bias=False)
      )
      (activation): LeakyReLU(negative_slope=0.01)
    )
    (7): FeatureExtractor(
      (lin1): Sequential(
        (0): Linear(in_features=128, out_features=128, bias=True)
      )
      (lin2): Sequential(
        (0): Linear(in_features=128, out_features=128, bias=False)
      )
      (lin3): Sequential(
        (0): Linear(in_features=128, out_features=128, bias=False)
      )
      (activation): LeakyReLU(negative_slope=0.01)
    )
  )
  (after_conv): Sequential(
    (0): Linear(in_features=128, out_features=128, bias=True)
  )
  (final_lin): Sequential(
    (0): Linear(in_features=128, out_features=1, bias=True)
  )
)
| 07-01 17:25:13 load dataset: ego_small
200
| 07-01 17:25:13 model: Powerful(
  (activation): LeakyReLU(negative_slope=0.01)
  (time_mlp): Sequential(
    (0): Linear(in_features=1, out_features=4, bias=True)
    (1): GELU()
    (2): Linear(in_features=4, out_features=1, bias=True)
  )
  (in_lin): Sequential(
    (0): Linear(in_features=2, out_features=128, bias=True)
  )
  (layer_cat_lin): Sequential(
    (0): Linear(in_features=1026, out_features=128, bias=True)
  )
  (convs): ModuleList(
    (0): PowerfulLayer(
      (m1): Sequential(
        (0): Linear(in_features=128, out_features=128, bias=True)
        (1): LeakyReLU(negative_slope=0.01)
        (2): Linear(in_features=128, out_features=128, bias=True)
      )
      (m2): Sequential(
        (0): Linear(in_features=128, out_features=128, bias=True)
        (1): LeakyReLU(negative_slope=0.01)
        (2): Linear(in_features=128, out_features=128, bias=True)
      )
      (m4): Sequential(
        (0): Linear(in_features=256, out_features=128, bias=True)
      )
    )
    (1): PowerfulLayer(
      (m1): Sequential(
        (0): Linear(in_features=128, out_features=128, bias=True)
        (1): LeakyReLU(negative_slope=0.01)
        (2): Linear(in_features=128, out_features=128, bias=True)
      )
      (m2): Sequential(
        (0): Linear(in_features=128, out_features=128, bias=True)
        (1): LeakyReLU(negative_slope=0.01)
        (2): Linear(in_features=128, out_features=128, bias=True)
      )
      (m4): Sequential(
        (0): Linear(in_features=256, out_features=128, bias=True)
      )
    )
    (2): PowerfulLayer(
      (m1): Sequential(
        (0): Linear(in_features=128, out_features=128, bias=True)
        (1): LeakyReLU(negative_slope=0.01)
        (2): Linear(in_features=128, out_features=128, bias=True)
      )
      (m2): Sequential(
        (0): Linear(in_features=128, out_features=128, bias=True)
        (1): LeakyReLU(negative_slope=0.01)
        (2): Linear(in_features=128, out_features=128, bias=True)
      )
      (m4): Sequential(
        (0): Linear(in_features=256, out_features=128, bias=True)
      )
    )
    (3): PowerfulLayer(
      (m1): Sequential(
        (0): Linear(in_features=128, out_features=128, bias=True)
        (1): LeakyReLU(negative_slope=0.01)
        (2): Linear(in_features=128, out_features=128, bias=True)
      )
      (m2): Sequential(
        (0): Linear(in_features=128, out_features=128, bias=True)
        (1): LeakyReLU(negative_slope=0.01)
        (2): Linear(in_features=128, out_features=128, bias=True)
      )
      (m4): Sequential(
        (0): Linear(in_features=256, out_features=128, bias=True)
      )
    )
    (4): PowerfulLayer(
      (m1): Sequential(
        (0): Linear(in_features=128, out_features=128, bias=True)
        (1): LeakyReLU(negative_slope=0.01)
        (2): Linear(in_features=128, out_features=128, bias=True)
      )
      (m2): Sequential(
        (0): Linear(in_features=128, out_features=128, bias=True)
        (1): LeakyReLU(negative_slope=0.01)
        (2): Linear(in_features=128, out_features=128, bias=True)
      )
      (m4): Sequential(
        (0): Linear(in_features=256, out_features=128, bias=True)
      )
    )
    (5): PowerfulLayer(
      (m1): Sequential(
        (0): Linear(in_features=128, out_features=128, bias=True)
        (1): LeakyReLU(negative_slope=0.01)
        (2): Linear(in_features=128, out_features=128, bias=True)
      )
      (m2): Sequential(
        (0): Linear(in_features=128, out_features=128, bias=True)
        (1): LeakyReLU(negative_slope=0.01)
        (2): Linear(in_features=128, out_features=128, bias=True)
      )
      (m4): Sequential(
        (0): Linear(in_features=256, out_features=128, bias=True)
      )
    )
    (6): PowerfulLayer(
      (m1): Sequential(
        (0): Linear(in_features=128, out_features=128, bias=True)
        (1): LeakyReLU(negative_slope=0.01)
        (2): Linear(in_features=128, out_features=128, bias=True)
      )
      (m2): Sequential(
        (0): Linear(in_features=128, out_features=128, bias=True)
        (1): LeakyReLU(negative_slope=0.01)
        (2): Linear(in_features=128, out_features=128, bias=True)
      )
      (m4): Sequential(
        (0): Linear(in_features=256, out_features=128, bias=True)
      )
    )
    (7): PowerfulLayer(
      (m1): Sequential(
        (0): Linear(in_features=128, out_features=128, bias=True)
        (1): LeakyReLU(negative_slope=0.01)
        (2): Linear(in_features=128, out_features=128, bias=True)
      )
      (m2): Sequential(
        (0): Linear(in_features=128, out_features=128, bias=True)
        (1): LeakyReLU(negative_slope=0.01)
        (2): Linear(in_features=128, out_features=128, bias=True)
      )
      (m4): Sequential(
        (0): Linear(in_features=256, out_features=128, bias=True)
      )
    )
  )
  (bns): ModuleList(
    (0): None
    (1): None
    (2): None
    (3): None
    (4): None
    (5): None
    (6): None
    (7): None
  )
  (feature_extractors): ModuleList(
    (0): FeatureExtractor(
      (lin1): Sequential(
        (0): Linear(in_features=128, out_features=128, bias=True)
      )
      (lin2): Sequential(
        (0): Linear(in_features=128, out_features=128, bias=False)
      )
      (lin3): Sequential(
        (0): Linear(in_features=128, out_features=128, bias=False)
      )
      (activation): LeakyReLU(negative_slope=0.01)
    )
    (1): FeatureExtractor(
      (lin1): Sequential(
        (0): Linear(in_features=128, out_features=128, bias=True)
      )
      (lin2): Sequential(
        (0): Linear(in_features=128, out_features=128, bias=False)
      )
      (lin3): Sequential(
        (0): Linear(in_features=128, out_features=128, bias=False)
      )
      (activation): LeakyReLU(negative_slope=0.01)
    )
    (2): FeatureExtractor(
      (lin1): Sequential(
        (0): Linear(in_features=128, out_features=128, bias=True)
      )
      (lin2): Sequential(
        (0): Linear(in_features=128, out_features=128, bias=False)
      )
      (lin3): Sequential(
        (0): Linear(in_features=128, out_features=128, bias=False)
      )
      (activation): LeakyReLU(negative_slope=0.01)
    )
    (3): FeatureExtractor(
      (lin1): Sequential(
        (0): Linear(in_features=128, out_features=128, bias=True)
      )
      (lin2): Sequential(
        (0): Linear(in_features=128, out_features=128, bias=False)
      )
      (lin3): Sequential(
        (0): Linear(in_features=128, out_features=128, bias=False)
      )
      (activation): LeakyReLU(negative_slope=0.01)
    )
    (4): FeatureExtractor(
      (lin1): Sequential(
        (0): Linear(in_features=128, out_features=128, bias=True)
      )
      (lin2): Sequential(
        (0): Linear(in_features=128, out_features=128, bias=False)
      )
      (lin3): Sequential(
        (0): Linear(in_features=128, out_features=128, bias=False)
      )
      (activation): LeakyReLU(negative_slope=0.01)
    )
    (5): FeatureExtractor(
      (lin1): Sequential(
        (0): Linear(in_features=128, out_features=128, bias=True)
      )
      (lin2): Sequential(
        (0): Linear(in_features=128, out_features=128, bias=False)
      )
      (lin3): Sequential(
        (0): Linear(in_features=128, out_features=128, bias=False)
      )
      (activation): LeakyReLU(negative_slope=0.01)
    )
    (6): FeatureExtractor(
      (lin1): Sequential(
        (0): Linear(in_features=128, out_features=128, bias=True)
      )
      (lin2): Sequential(
        (0): Linear(in_features=128, out_features=128, bias=False)
      )
      (lin3): Sequential(
        (0): Linear(in_features=128, out_features=128, bias=False)
      )
      (activation): LeakyReLU(negative_slope=0.01)
    )
    (7): FeatureExtractor(
      (lin1): Sequential(
        (0): Linear(in_features=128, out_features=128, bias=True)
      )
      (lin2): Sequential(
        (0): Linear(in_features=128, out_features=128, bias=False)
      )
      (lin3): Sequential(
        (0): Linear(in_features=128, out_features=128, bias=False)
      )
      (activation): LeakyReLU(negative_slope=0.01)
    )
  )
  (after_conv): Sequential(
    (0): Linear(in_features=128, out_features=128, bias=True)
  )
  (final_lin): Sequential(
    (0): Linear(in_features=128, out_features=1, bias=True)
  )
)
| 07-01 17:28:07 load dataset: ego_small
200
| 07-01 17:28:07 model: Powerful(
  (activation): LeakyReLU(negative_slope=0.01)
  (time_mlp): Sequential(
    (0): Linear(in_features=1, out_features=4, bias=True)
    (1): GELU()
    (2): Linear(in_features=4, out_features=1, bias=True)
  )
  (in_lin): Sequential(
    (0): Linear(in_features=2, out_features=128, bias=True)
  )
  (layer_cat_lin): Sequential(
    (0): Linear(in_features=1026, out_features=128, bias=True)
  )
  (convs): ModuleList(
    (0): PowerfulLayer(
      (m1): Sequential(
        (0): Linear(in_features=128, out_features=128, bias=True)
        (1): LeakyReLU(negative_slope=0.01)
        (2): Linear(in_features=128, out_features=128, bias=True)
      )
      (m2): Sequential(
        (0): Linear(in_features=128, out_features=128, bias=True)
        (1): LeakyReLU(negative_slope=0.01)
        (2): Linear(in_features=128, out_features=128, bias=True)
      )
      (m4): Sequential(
        (0): Linear(in_features=256, out_features=128, bias=True)
      )
    )
    (1): PowerfulLayer(
      (m1): Sequential(
        (0): Linear(in_features=128, out_features=128, bias=True)
        (1): LeakyReLU(negative_slope=0.01)
        (2): Linear(in_features=128, out_features=128, bias=True)
      )
      (m2): Sequential(
        (0): Linear(in_features=128, out_features=128, bias=True)
        (1): LeakyReLU(negative_slope=0.01)
        (2): Linear(in_features=128, out_features=128, bias=True)
      )
      (m4): Sequential(
        (0): Linear(in_features=256, out_features=128, bias=True)
      )
    )
    (2): PowerfulLayer(
      (m1): Sequential(
        (0): Linear(in_features=128, out_features=128, bias=True)
        (1): LeakyReLU(negative_slope=0.01)
        (2): Linear(in_features=128, out_features=128, bias=True)
      )
      (m2): Sequential(
        (0): Linear(in_features=128, out_features=128, bias=True)
        (1): LeakyReLU(negative_slope=0.01)
        (2): Linear(in_features=128, out_features=128, bias=True)
      )
      (m4): Sequential(
        (0): Linear(in_features=256, out_features=128, bias=True)
      )
    )
    (3): PowerfulLayer(
      (m1): Sequential(
        (0): Linear(in_features=128, out_features=128, bias=True)
        (1): LeakyReLU(negative_slope=0.01)
        (2): Linear(in_features=128, out_features=128, bias=True)
      )
      (m2): Sequential(
        (0): Linear(in_features=128, out_features=128, bias=True)
        (1): LeakyReLU(negative_slope=0.01)
        (2): Linear(in_features=128, out_features=128, bias=True)
      )
      (m4): Sequential(
        (0): Linear(in_features=256, out_features=128, bias=True)
      )
    )
    (4): PowerfulLayer(
      (m1): Sequential(
        (0): Linear(in_features=128, out_features=128, bias=True)
        (1): LeakyReLU(negative_slope=0.01)
        (2): Linear(in_features=128, out_features=128, bias=True)
      )
      (m2): Sequential(
        (0): Linear(in_features=128, out_features=128, bias=True)
        (1): LeakyReLU(negative_slope=0.01)
        (2): Linear(in_features=128, out_features=128, bias=True)
      )
      (m4): Sequential(
        (0): Linear(in_features=256, out_features=128, bias=True)
      )
    )
    (5): PowerfulLayer(
      (m1): Sequential(
        (0): Linear(in_features=128, out_features=128, bias=True)
        (1): LeakyReLU(negative_slope=0.01)
        (2): Linear(in_features=128, out_features=128, bias=True)
      )
      (m2): Sequential(
        (0): Linear(in_features=128, out_features=128, bias=True)
        (1): LeakyReLU(negative_slope=0.01)
        (2): Linear(in_features=128, out_features=128, bias=True)
      )
      (m4): Sequential(
        (0): Linear(in_features=256, out_features=128, bias=True)
      )
    )
    (6): PowerfulLayer(
      (m1): Sequential(
        (0): Linear(in_features=128, out_features=128, bias=True)
        (1): LeakyReLU(negative_slope=0.01)
        (2): Linear(in_features=128, out_features=128, bias=True)
      )
      (m2): Sequential(
        (0): Linear(in_features=128, out_features=128, bias=True)
        (1): LeakyReLU(negative_slope=0.01)
        (2): Linear(in_features=128, out_features=128, bias=True)
      )
      (m4): Sequential(
        (0): Linear(in_features=256, out_features=128, bias=True)
      )
    )
    (7): PowerfulLayer(
      (m1): Sequential(
        (0): Linear(in_features=128, out_features=128, bias=True)
        (1): LeakyReLU(negative_slope=0.01)
        (2): Linear(in_features=128, out_features=128, bias=True)
      )
      (m2): Sequential(
        (0): Linear(in_features=128, out_features=128, bias=True)
        (1): LeakyReLU(negative_slope=0.01)
        (2): Linear(in_features=128, out_features=128, bias=True)
      )
      (m4): Sequential(
        (0): Linear(in_features=256, out_features=128, bias=True)
      )
    )
  )
  (bns): ModuleList(
    (0): None
    (1): None
    (2): None
    (3): None
    (4): None
    (5): None
    (6): None
    (7): None
  )
  (feature_extractors): ModuleList(
    (0): FeatureExtractor(
      (lin1): Sequential(
        (0): Linear(in_features=128, out_features=128, bias=True)
      )
      (lin2): Sequential(
        (0): Linear(in_features=128, out_features=128, bias=False)
      )
      (lin3): Sequential(
        (0): Linear(in_features=128, out_features=128, bias=False)
      )
      (activation): LeakyReLU(negative_slope=0.01)
    )
    (1): FeatureExtractor(
      (lin1): Sequential(
        (0): Linear(in_features=128, out_features=128, bias=True)
      )
      (lin2): Sequential(
        (0): Linear(in_features=128, out_features=128, bias=False)
      )
      (lin3): Sequential(
        (0): Linear(in_features=128, out_features=128, bias=False)
      )
      (activation): LeakyReLU(negative_slope=0.01)
    )
    (2): FeatureExtractor(
      (lin1): Sequential(
        (0): Linear(in_features=128, out_features=128, bias=True)
      )
      (lin2): Sequential(
        (0): Linear(in_features=128, out_features=128, bias=False)
      )
      (lin3): Sequential(
        (0): Linear(in_features=128, out_features=128, bias=False)
      )
      (activation): LeakyReLU(negative_slope=0.01)
    )
    (3): FeatureExtractor(
      (lin1): Sequential(
        (0): Linear(in_features=128, out_features=128, bias=True)
      )
      (lin2): Sequential(
        (0): Linear(in_features=128, out_features=128, bias=False)
      )
      (lin3): Sequential(
        (0): Linear(in_features=128, out_features=128, bias=False)
      )
      (activation): LeakyReLU(negative_slope=0.01)
    )
    (4): FeatureExtractor(
      (lin1): Sequential(
        (0): Linear(in_features=128, out_features=128, bias=True)
      )
      (lin2): Sequential(
        (0): Linear(in_features=128, out_features=128, bias=False)
      )
      (lin3): Sequential(
        (0): Linear(in_features=128, out_features=128, bias=False)
      )
      (activation): LeakyReLU(negative_slope=0.01)
    )
    (5): FeatureExtractor(
      (lin1): Sequential(
        (0): Linear(in_features=128, out_features=128, bias=True)
      )
      (lin2): Sequential(
        (0): Linear(in_features=128, out_features=128, bias=False)
      )
      (lin3): Sequential(
        (0): Linear(in_features=128, out_features=128, bias=False)
      )
      (activation): LeakyReLU(negative_slope=0.01)
    )
    (6): FeatureExtractor(
      (lin1): Sequential(
        (0): Linear(in_features=128, out_features=128, bias=True)
      )
      (lin2): Sequential(
        (0): Linear(in_features=128, out_features=128, bias=False)
      )
      (lin3): Sequential(
        (0): Linear(in_features=128, out_features=128, bias=False)
      )
      (activation): LeakyReLU(negative_slope=0.01)
    )
    (7): FeatureExtractor(
      (lin1): Sequential(
        (0): Linear(in_features=128, out_features=128, bias=True)
      )
      (lin2): Sequential(
        (0): Linear(in_features=128, out_features=128, bias=False)
      )
      (lin3): Sequential(
        (0): Linear(in_features=128, out_features=128, bias=False)
      )
      (activation): LeakyReLU(negative_slope=0.01)
    )
  )
  (after_conv): Sequential(
    (0): Linear(in_features=128, out_features=128, bias=True)
  )
  (final_lin): Sequential(
    (0): Linear(in_features=128, out_features=1, bias=True)
  )
)
| 07-01 17:31:06 epoch: 006| time: 5.8s| train loss: +2.360e-02 | test loss: +2.755e-02 | 
| 07-01 17:31:06 epoch: 006| train loss i: nan test loss i: nan | 
| 07-01 17:31:06 epoch: 006| time: 6.0s| train loss: +2.360e-02 | test loss: +2.755e-02 | 
| 07-01 17:31:06 epoch: 006| train loss i: nan test loss i: nan | 
| 07-01 17:31:06 model: Powerful(
  (activation): LeakyReLU(negative_slope=0.01)
  (time_mlp): Sequential(
    (0): Linear(in_features=1, out_features=4, bias=True)
    (1): GELU()
    (2): Linear(in_features=4, out_features=1, bias=True)
  )
  (in_lin): Sequential(
    (0): Linear(in_features=2, out_features=128, bias=True)
  )
  (layer_cat_lin): Sequential(
    (0): Linear(in_features=1026, out_features=128, bias=True)
  )
  (convs): ModuleList(
    (0): PowerfulLayer(
      (m1): Sequential(
        (0): Linear(in_features=128, out_features=128, bias=True)
        (1): LeakyReLU(negative_slope=0.01)
        (2): Linear(in_features=128, out_features=128, bias=True)
      )
      (m2): Sequential(
        (0): Linear(in_features=128, out_features=128, bias=True)
        (1): LeakyReLU(negative_slope=0.01)
        (2): Linear(in_features=128, out_features=128, bias=True)
      )
      (m4): Sequential(
        (0): Linear(in_features=256, out_features=128, bias=True)
      )
    )
    (1): PowerfulLayer(
      (m1): Sequential(
        (0): Linear(in_features=128, out_features=128, bias=True)
        (1): LeakyReLU(negative_slope=0.01)
        (2): Linear(in_features=128, out_features=128, bias=True)
      )
      (m2): Sequential(
        (0): Linear(in_features=128, out_features=128, bias=True)
        (1): LeakyReLU(negative_slope=0.01)
        (2): Linear(in_features=128, out_features=128, bias=True)
      )
      (m4): Sequential(
        (0): Linear(in_features=256, out_features=128, bias=True)
      )
    )
    (2): PowerfulLayer(
      (m1): Sequential(
        (0): Linear(in_features=128, out_features=128, bias=True)
        (1): LeakyReLU(negative_slope=0.01)
        (2): Linear(in_features=128, out_features=128, bias=True)
      )
      (m2): Sequential(
        (0): Linear(in_features=128, out_features=128, bias=True)
        (1): LeakyReLU(negative_slope=0.01)
        (2): Linear(in_features=128, out_features=128, bias=True)
      )
      (m4): Sequential(
        (0): Linear(in_features=256, out_features=128, bias=True)
      )
    )
    (3): PowerfulLayer(
      (m1): Sequential(
        (0): Linear(in_features=128, out_features=128, bias=True)
        (1): LeakyReLU(negative_slope=0.01)
        (2): Linear(in_features=128, out_features=128, bias=True)
      )
      (m2): Sequential(
        (0): Linear(in_features=128, out_features=128, bias=True)
        (1): LeakyReLU(negative_slope=0.01)
        (2): Linear(in_features=128, out_features=128, bias=True)
      )
      (m4): Sequential(
        (0): Linear(in_features=256, out_features=128, bias=True)
      )
    )
    (4): PowerfulLayer(
      (m1): Sequential(
        (0): Linear(in_features=128, out_features=128, bias=True)
        (1): LeakyReLU(negative_slope=0.01)
        (2): Linear(in_features=128, out_features=128, bias=True)
      )
      (m2): Sequential(
        (0): Linear(in_features=128, out_features=128, bias=True)
        (1): LeakyReLU(negative_slope=0.01)
        (2): Linear(in_features=128, out_features=128, bias=True)
      )
      (m4): Sequential(
        (0): Linear(in_features=256, out_features=128, bias=True)
      )
    )
    (5): PowerfulLayer(
      (m1): Sequential(
        (0): Linear(in_features=128, out_features=128, bias=True)
        (1): LeakyReLU(negative_slope=0.01)
        (2): Linear(in_features=128, out_features=128, bias=True)
      )
      (m2): Sequential(
        (0): Linear(in_features=128, out_features=128, bias=True)
        (1): LeakyReLU(negative_slope=0.01)
        (2): Linear(in_features=128, out_features=128, bias=True)
      )
      (m4): Sequential(
        (0): Linear(in_features=256, out_features=128, bias=True)
      )
    )
    (6): PowerfulLayer(
      (m1): Sequential(
        (0): Linear(in_features=128, out_features=128, bias=True)
        (1): LeakyReLU(negative_slope=0.01)
        (2): Linear(in_features=128, out_features=128, bias=True)
      )
      (m2): Sequential(
        (0): Linear(in_features=128, out_features=128, bias=True)
        (1): LeakyReLU(negative_slope=0.01)
        (2): Linear(in_features=128, out_features=128, bias=True)
      )
      (m4): Sequential(
        (0): Linear(in_features=256, out_features=128, bias=True)
      )
    )
    (7): PowerfulLayer(
      (m1): Sequential(
        (0): Linear(in_features=128, out_features=128, bias=True)
        (1): LeakyReLU(negative_slope=0.01)
        (2): Linear(in_features=128, out_features=128, bias=True)
      )
      (m2): Sequential(
        (0): Linear(in_features=128, out_features=128, bias=True)
        (1): LeakyReLU(negative_slope=0.01)
        (2): Linear(in_features=128, out_features=128, bias=True)
      )
      (m4): Sequential(
        (0): Linear(in_features=256, out_features=128, bias=True)
      )
    )
  )
  (bns): ModuleList(
    (0): None
    (1): None
    (2): None
    (3): None
    (4): None
    (5): None
    (6): None
    (7): None
  )
  (feature_extractors): ModuleList(
    (0): FeatureExtractor(
      (lin1): Sequential(
        (0): Linear(in_features=128, out_features=128, bias=True)
      )
      (lin2): Sequential(
        (0): Linear(in_features=128, out_features=128, bias=False)
      )
      (lin3): Sequential(
        (0): Linear(in_features=128, out_features=128, bias=False)
      )
      (activation): LeakyReLU(negative_slope=0.01)
    )
    (1): FeatureExtractor(
      (lin1): Sequential(
        (0): Linear(in_features=128, out_features=128, bias=True)
      )
      (lin2): Sequential(
        (0): Linear(in_features=128, out_features=128, bias=False)
      )
      (lin3): Sequential(
        (0): Linear(in_features=128, out_features=128, bias=False)
      )
      (activation): LeakyReLU(negative_slope=0.01)
    )
    (2): FeatureExtractor(
      (lin1): Sequential(
        (0): Linear(in_features=128, out_features=128, bias=True)
      )
      (lin2): Sequential(
        (0): Linear(in_features=128, out_features=128, bias=False)
      )
      (lin3): Sequential(
        (0): Linear(in_features=128, out_features=128, bias=False)
      )
      (activation): LeakyReLU(negative_slope=0.01)
    )
    (3): FeatureExtractor(
      (lin1): Sequential(
        (0): Linear(in_features=128, out_features=128, bias=True)
      )
      (lin2): Sequential(
        (0): Linear(in_features=128, out_features=128, bias=False)
      )
      (lin3): Sequential(
        (0): Linear(in_features=128, out_features=128, bias=False)
      )
      (activation): LeakyReLU(negative_slope=0.01)
    )
    (4): FeatureExtractor(
      (lin1): Sequential(
        (0): Linear(in_features=128, out_features=128, bias=True)
      )
      (lin2): Sequential(
        (0): Linear(in_features=128, out_features=128, bias=False)
      )
      (lin3): Sequential(
        (0): Linear(in_features=128, out_features=128, bias=False)
      )
      (activation): LeakyReLU(negative_slope=0.01)
    )
    (5): FeatureExtractor(
      (lin1): Sequential(
        (0): Linear(in_features=128, out_features=128, bias=True)
      )
      (lin2): Sequential(
        (0): Linear(in_features=128, out_features=128, bias=False)
      )
      (lin3): Sequential(
        (0): Linear(in_features=128, out_features=128, bias=False)
      )
      (activation): LeakyReLU(negative_slope=0.01)
    )
    (6): FeatureExtractor(
      (lin1): Sequential(
        (0): Linear(in_features=128, out_features=128, bias=True)
      )
      (lin2): Sequential(
        (0): Linear(in_features=128, out_features=128, bias=False)
      )
      (lin3): Sequential(
        (0): Linear(in_features=128, out_features=128, bias=False)
      )
      (activation): LeakyReLU(negative_slope=0.01)
    )
    (7): FeatureExtractor(
      (lin1): Sequential(
        (0): Linear(in_features=128, out_features=128, bias=True)
      )
      (lin2): Sequential(
        (0): Linear(in_features=128, out_features=128, bias=False)
      )
      (lin3): Sequential(
        (0): Linear(in_features=128, out_features=128, bias=False)
      )
      (activation): LeakyReLU(negative_slope=0.01)
    )
  )
  (after_conv): Sequential(
    (0): Linear(in_features=128, out_features=128, bias=True)
  )
  (final_lin): Sequential(
    (0): Linear(in_features=128, out_features=1, bias=True)
  )
)
| 07-01 17:40:02 load dataset: ego_small
200
| 07-01 17:40:03 model: Powerful(
  (activation): LeakyReLU(negative_slope=0.01)
  (time_mlp): Sequential(
    (0): Linear(in_features=1, out_features=4, bias=True)
    (1): GELU()
    (2): Linear(in_features=4, out_features=1, bias=True)
  )
  (in_lin): Sequential(
    (0): Linear(in_features=2, out_features=128, bias=True)
  )
  (layer_cat_lin): Sequential(
    (0): Linear(in_features=1026, out_features=128, bias=True)
  )
  (convs): ModuleList(
    (0): PowerfulLayer(
      (m1): Sequential(
        (0): Linear(in_features=128, out_features=128, bias=True)
        (1): LeakyReLU(negative_slope=0.01)
        (2): Linear(in_features=128, out_features=128, bias=True)
      )
      (m2): Sequential(
        (0): Linear(in_features=128, out_features=128, bias=True)
        (1): LeakyReLU(negative_slope=0.01)
        (2): Linear(in_features=128, out_features=128, bias=True)
      )
      (m4): Sequential(
        (0): Linear(in_features=256, out_features=128, bias=True)
      )
    )
    (1): PowerfulLayer(
      (m1): Sequential(
        (0): Linear(in_features=128, out_features=128, bias=True)
        (1): LeakyReLU(negative_slope=0.01)
        (2): Linear(in_features=128, out_features=128, bias=True)
      )
      (m2): Sequential(
        (0): Linear(in_features=128, out_features=128, bias=True)
        (1): LeakyReLU(negative_slope=0.01)
        (2): Linear(in_features=128, out_features=128, bias=True)
      )
      (m4): Sequential(
        (0): Linear(in_features=256, out_features=128, bias=True)
      )
    )
    (2): PowerfulLayer(
      (m1): Sequential(
        (0): Linear(in_features=128, out_features=128, bias=True)
        (1): LeakyReLU(negative_slope=0.01)
        (2): Linear(in_features=128, out_features=128, bias=True)
      )
      (m2): Sequential(
        (0): Linear(in_features=128, out_features=128, bias=True)
        (1): LeakyReLU(negative_slope=0.01)
        (2): Linear(in_features=128, out_features=128, bias=True)
      )
      (m4): Sequential(
        (0): Linear(in_features=256, out_features=128, bias=True)
      )
    )
    (3): PowerfulLayer(
      (m1): Sequential(
        (0): Linear(in_features=128, out_features=128, bias=True)
        (1): LeakyReLU(negative_slope=0.01)
        (2): Linear(in_features=128, out_features=128, bias=True)
      )
      (m2): Sequential(
        (0): Linear(in_features=128, out_features=128, bias=True)
        (1): LeakyReLU(negative_slope=0.01)
        (2): Linear(in_features=128, out_features=128, bias=True)
      )
      (m4): Sequential(
        (0): Linear(in_features=256, out_features=128, bias=True)
      )
    )
    (4): PowerfulLayer(
      (m1): Sequential(
        (0): Linear(in_features=128, out_features=128, bias=True)
        (1): LeakyReLU(negative_slope=0.01)
        (2): Linear(in_features=128, out_features=128, bias=True)
      )
      (m2): Sequential(
        (0): Linear(in_features=128, out_features=128, bias=True)
        (1): LeakyReLU(negative_slope=0.01)
        (2): Linear(in_features=128, out_features=128, bias=True)
      )
      (m4): Sequential(
        (0): Linear(in_features=256, out_features=128, bias=True)
      )
    )
    (5): PowerfulLayer(
      (m1): Sequential(
        (0): Linear(in_features=128, out_features=128, bias=True)
        (1): LeakyReLU(negative_slope=0.01)
        (2): Linear(in_features=128, out_features=128, bias=True)
      )
      (m2): Sequential(
        (0): Linear(in_features=128, out_features=128, bias=True)
        (1): LeakyReLU(negative_slope=0.01)
        (2): Linear(in_features=128, out_features=128, bias=True)
      )
      (m4): Sequential(
        (0): Linear(in_features=256, out_features=128, bias=True)
      )
    )
    (6): PowerfulLayer(
      (m1): Sequential(
        (0): Linear(in_features=128, out_features=128, bias=True)
        (1): LeakyReLU(negative_slope=0.01)
        (2): Linear(in_features=128, out_features=128, bias=True)
      )
      (m2): Sequential(
        (0): Linear(in_features=128, out_features=128, bias=True)
        (1): LeakyReLU(negative_slope=0.01)
        (2): Linear(in_features=128, out_features=128, bias=True)
      )
      (m4): Sequential(
        (0): Linear(in_features=256, out_features=128, bias=True)
      )
    )
    (7): PowerfulLayer(
      (m1): Sequential(
        (0): Linear(in_features=128, out_features=128, bias=True)
        (1): LeakyReLU(negative_slope=0.01)
        (2): Linear(in_features=128, out_features=128, bias=True)
      )
      (m2): Sequential(
        (0): Linear(in_features=128, out_features=128, bias=True)
        (1): LeakyReLU(negative_slope=0.01)
        (2): Linear(in_features=128, out_features=128, bias=True)
      )
      (m4): Sequential(
        (0): Linear(in_features=256, out_features=128, bias=True)
      )
    )
  )
  (bns): ModuleList(
    (0): None
    (1): None
    (2): None
    (3): None
    (4): None
    (5): None
    (6): None
    (7): None
  )
  (feature_extractors): ModuleList(
    (0): FeatureExtractor(
      (lin1): Sequential(
        (0): Linear(in_features=128, out_features=128, bias=True)
      )
      (lin2): Sequential(
        (0): Linear(in_features=128, out_features=128, bias=False)
      )
      (lin3): Sequential(
        (0): Linear(in_features=128, out_features=128, bias=False)
      )
      (activation): LeakyReLU(negative_slope=0.01)
    )
    (1): FeatureExtractor(
      (lin1): Sequential(
        (0): Linear(in_features=128, out_features=128, bias=True)
      )
      (lin2): Sequential(
        (0): Linear(in_features=128, out_features=128, bias=False)
      )
      (lin3): Sequential(
        (0): Linear(in_features=128, out_features=128, bias=False)
      )
      (activation): LeakyReLU(negative_slope=0.01)
    )
    (2): FeatureExtractor(
      (lin1): Sequential(
        (0): Linear(in_features=128, out_features=128, bias=True)
      )
      (lin2): Sequential(
        (0): Linear(in_features=128, out_features=128, bias=False)
      )
      (lin3): Sequential(
        (0): Linear(in_features=128, out_features=128, bias=False)
      )
      (activation): LeakyReLU(negative_slope=0.01)
    )
    (3): FeatureExtractor(
      (lin1): Sequential(
        (0): Linear(in_features=128, out_features=128, bias=True)
      )
      (lin2): Sequential(
        (0): Linear(in_features=128, out_features=128, bias=False)
      )
      (lin3): Sequential(
        (0): Linear(in_features=128, out_features=128, bias=False)
      )
      (activation): LeakyReLU(negative_slope=0.01)
    )
    (4): FeatureExtractor(
      (lin1): Sequential(
        (0): Linear(in_features=128, out_features=128, bias=True)
      )
      (lin2): Sequential(
        (0): Linear(in_features=128, out_features=128, bias=False)
      )
      (lin3): Sequential(
        (0): Linear(in_features=128, out_features=128, bias=False)
      )
      (activation): LeakyReLU(negative_slope=0.01)
    )
    (5): FeatureExtractor(
      (lin1): Sequential(
        (0): Linear(in_features=128, out_features=128, bias=True)
      )
      (lin2): Sequential(
        (0): Linear(in_features=128, out_features=128, bias=False)
      )
      (lin3): Sequential(
        (0): Linear(in_features=128, out_features=128, bias=False)
      )
      (activation): LeakyReLU(negative_slope=0.01)
    )
    (6): FeatureExtractor(
      (lin1): Sequential(
        (0): Linear(in_features=128, out_features=128, bias=True)
      )
      (lin2): Sequential(
        (0): Linear(in_features=128, out_features=128, bias=False)
      )
      (lin3): Sequential(
        (0): Linear(in_features=128, out_features=128, bias=False)
      )
      (activation): LeakyReLU(negative_slope=0.01)
    )
    (7): FeatureExtractor(
      (lin1): Sequential(
        (0): Linear(in_features=128, out_features=128, bias=True)
      )
      (lin2): Sequential(
        (0): Linear(in_features=128, out_features=128, bias=False)
      )
      (lin3): Sequential(
        (0): Linear(in_features=128, out_features=128, bias=False)
      )
      (activation): LeakyReLU(negative_slope=0.01)
    )
  )
  (after_conv): Sequential(
    (0): Linear(in_features=128, out_features=128, bias=True)
  )
  (final_lin): Sequential(
    (0): Linear(in_features=128, out_features=1, bias=True)
  )
)
