| 07-01 16:47:52 EXPERIMENT BEGIN: 
| 07-01 16:47:52 logging into exp/gridsearch/ppgn_ego_18_small__Jul-01-16-47-52_123902/info.log
| 07-01 16:47:52 load dataset: ego_small
200
| 07-01 16:47:54 model: Powerful(
  (activation): LeakyReLU(negative_slope=0.01)
  (time_mlp): Sequential(
    (0): Linear(in_features=1, out_features=4, bias=True)
    (1): GELU()
    (2): Linear(in_features=4, out_features=1, bias=True)
  )
  (in_lin): Sequential(
    (0): Linear(in_features=2, out_features=128, bias=True)
  )
  (layer_cat_lin): Sequential(
    (0): Linear(in_features=1026, out_features=128, bias=True)
  )
  (convs): ModuleList(
    (0): PowerfulLayer(
      (m1): Sequential(
        (0): Linear(in_features=128, out_features=128, bias=True)
        (1): LeakyReLU(negative_slope=0.01)
        (2): Linear(in_features=128, out_features=128, bias=True)
      )
      (m2): Sequential(
        (0): Linear(in_features=128, out_features=128, bias=True)
        (1): LeakyReLU(negative_slope=0.01)
        (2): Linear(in_features=128, out_features=128, bias=True)
      )
      (m4): Sequential(
        (0): Linear(in_features=256, out_features=128, bias=True)
      )
    )
    (1): PowerfulLayer(
      (m1): Sequential(
        (0): Linear(in_features=128, out_features=128, bias=True)
        (1): LeakyReLU(negative_slope=0.01)
        (2): Linear(in_features=128, out_features=128, bias=True)
      )
      (m2): Sequential(
        (0): Linear(in_features=128, out_features=128, bias=True)
        (1): LeakyReLU(negative_slope=0.01)
        (2): Linear(in_features=128, out_features=128, bias=True)
      )
      (m4): Sequential(
        (0): Linear(in_features=256, out_features=128, bias=True)
      )
    )
    (2): PowerfulLayer(
      (m1): Sequential(
        (0): Linear(in_features=128, out_features=128, bias=True)
        (1): LeakyReLU(negative_slope=0.01)
        (2): Linear(in_features=128, out_features=128, bias=True)
      )
      (m2): Sequential(
        (0): Linear(in_features=128, out_features=128, bias=True)
        (1): LeakyReLU(negative_slope=0.01)
        (2): Linear(in_features=128, out_features=128, bias=True)
      )
      (m4): Sequential(
        (0): Linear(in_features=256, out_features=128, bias=True)
      )
    )
    (3): PowerfulLayer(
      (m1): Sequential(
        (0): Linear(in_features=128, out_features=128, bias=True)
        (1): LeakyReLU(negative_slope=0.01)
        (2): Linear(in_features=128, out_features=128, bias=True)
      )
      (m2): Sequential(
        (0): Linear(in_features=128, out_features=128, bias=True)
        (1): LeakyReLU(negative_slope=0.01)
        (2): Linear(in_features=128, out_features=128, bias=True)
      )
      (m4): Sequential(
        (0): Linear(in_features=256, out_features=128, bias=True)
      )
    )
    (4): PowerfulLayer(
      (m1): Sequential(
        (0): Linear(in_features=128, out_features=128, bias=True)
        (1): LeakyReLU(negative_slope=0.01)
        (2): Linear(in_features=128, out_features=128, bias=True)
      )
      (m2): Sequential(
        (0): Linear(in_features=128, out_features=128, bias=True)
        (1): LeakyReLU(negative_slope=0.01)
        (2): Linear(in_features=128, out_features=128, bias=True)
      )
      (m4): Sequential(
        (0): Linear(in_features=256, out_features=128, bias=True)
      )
    )
    (5): PowerfulLayer(
      (m1): Sequential(
        (0): Linear(in_features=128, out_features=128, bias=True)
        (1): LeakyReLU(negative_slope=0.01)
        (2): Linear(in_features=128, out_features=128, bias=True)
      )
      (m2): Sequential(
        (0): Linear(in_features=128, out_features=128, bias=True)
        (1): LeakyReLU(negative_slope=0.01)
        (2): Linear(in_features=128, out_features=128, bias=True)
      )
      (m4): Sequential(
        (0): Linear(in_features=256, out_features=128, bias=True)
      )
    )
    (6): PowerfulLayer(
      (m1): Sequential(
        (0): Linear(in_features=128, out_features=128, bias=True)
        (1): LeakyReLU(negative_slope=0.01)
        (2): Linear(in_features=128, out_features=128, bias=True)
      )
      (m2): Sequential(
        (0): Linear(in_features=128, out_features=128, bias=True)
        (1): LeakyReLU(negative_slope=0.01)
        (2): Linear(in_features=128, out_features=128, bias=True)
      )
      (m4): Sequential(
        (0): Linear(in_features=256, out_features=128, bias=True)
      )
    )
    (7): PowerfulLayer(
      (m1): Sequential(
        (0): Linear(in_features=128, out_features=128, bias=True)
        (1): LeakyReLU(negative_slope=0.01)
        (2): Linear(in_features=128, out_features=128, bias=True)
      )
      (m2): Sequential(
        (0): Linear(in_features=128, out_features=128, bias=True)
        (1): LeakyReLU(negative_slope=0.01)
        (2): Linear(in_features=128, out_features=128, bias=True)
      )
      (m4): Sequential(
        (0): Linear(in_features=256, out_features=128, bias=True)
      )
    )
  )
  (bns): ModuleList(
    (0): None
    (1): None
    (2): None
    (3): None
    (4): None
    (5): None
    (6): None
    (7): None
  )
  (feature_extractors): ModuleList(
    (0): FeatureExtractor(
      (lin1): Sequential(
        (0): Linear(in_features=128, out_features=128, bias=True)
      )
      (lin2): Sequential(
        (0): Linear(in_features=128, out_features=128, bias=False)
      )
      (lin3): Sequential(
        (0): Linear(in_features=128, out_features=128, bias=False)
      )
      (activation): LeakyReLU(negative_slope=0.01)
    )
    (1): FeatureExtractor(
      (lin1): Sequential(
        (0): Linear(in_features=128, out_features=128, bias=True)
      )
      (lin2): Sequential(
        (0): Linear(in_features=128, out_features=128, bias=False)
      )
      (lin3): Sequential(
        (0): Linear(in_features=128, out_features=128, bias=False)
      )
      (activation): LeakyReLU(negative_slope=0.01)
    )
    (2): FeatureExtractor(
      (lin1): Sequential(
        (0): Linear(in_features=128, out_features=128, bias=True)
      )
      (lin2): Sequential(
        (0): Linear(in_features=128, out_features=128, bias=False)
      )
      (lin3): Sequential(
        (0): Linear(in_features=128, out_features=128, bias=False)
      )
      (activation): LeakyReLU(negative_slope=0.01)
    )
    (3): FeatureExtractor(
      (lin1): Sequential(
        (0): Linear(in_features=128, out_features=128, bias=True)
      )
      (lin2): Sequential(
        (0): Linear(in_features=128, out_features=128, bias=False)
      )
      (lin3): Sequential(
        (0): Linear(in_features=128, out_features=128, bias=False)
      )
      (activation): LeakyReLU(negative_slope=0.01)
    )
    (4): FeatureExtractor(
      (lin1): Sequential(
        (0): Linear(in_features=128, out_features=128, bias=True)
      )
      (lin2): Sequential(
        (0): Linear(in_features=128, out_features=128, bias=False)
      )
      (lin3): Sequential(
        (0): Linear(in_features=128, out_features=128, bias=False)
      )
      (activation): LeakyReLU(negative_slope=0.01)
    )
    (5): FeatureExtractor(
      (lin1): Sequential(
        (0): Linear(in_features=128, out_features=128, bias=True)
      )
      (lin2): Sequential(
        (0): Linear(in_features=128, out_features=128, bias=False)
      )
      (lin3): Sequential(
        (0): Linear(in_features=128, out_features=128, bias=False)
      )
      (activation): LeakyReLU(negative_slope=0.01)
    )
    (6): FeatureExtractor(
      (lin1): Sequential(
        (0): Linear(in_features=128, out_features=128, bias=True)
      )
      (lin2): Sequential(
        (0): Linear(in_features=128, out_features=128, bias=False)
      )
      (lin3): Sequential(
        (0): Linear(in_features=128, out_features=128, bias=False)
      )
      (activation): LeakyReLU(negative_slope=0.01)
    )
    (7): FeatureExtractor(
      (lin1): Sequential(
        (0): Linear(in_features=128, out_features=128, bias=True)
      )
      (lin2): Sequential(
        (0): Linear(in_features=128, out_features=128, bias=False)
      )
      (lin3): Sequential(
        (0): Linear(in_features=128, out_features=128, bias=False)
      )
      (activation): LeakyReLU(negative_slope=0.01)
    )
  )
  (after_conv): Sequential(
    (0): Linear(in_features=128, out_features=128, bias=True)
  )
  (final_lin): Sequential(
    (0): Linear(in_features=128, out_features=1, bias=True)
  )
)
| 07-01 16:47:54 Parameters: 
time_mlp.0.weight ........................................................................................... torch.Size([4, 1])
time_mlp.0.bias ................................................................................................ torch.Size([4])
time_mlp.2.weight ........................................................................................... torch.Size([1, 4])
…
