…
e, 'num_levels': [32], 'noisetype': 'switched', 'weighted_loss': True, 'dev': device(type='cuda'), 'run_id': '11067', 'folder_name': 'ppgn_ego_18_small__Oct-16-14-50-13_11067', 'save_dir': 'exp/ego/ppgn_ego_18_small__Oct-16-14-50-13_11067', 'model_save_dir': 'exp/ego/ppgn_ego_18_small__Oct-16-14-50-13_11067/models'}
| 10-16 14:50:13 EXPERIMENT BEGIN: 
| 10-16 14:50:13 logging into exp/ego/ppgn_ego_18_small__Oct-16-14-50-13_11067/info.log
| 10-16 14:50:14 load dataset: ego_small
200
| 10-16 14:50:16 model: Powerful(
  (activation): LeakyReLU(negative_slope=0.01)
  (time_mlp): Sequential(
    (0): Linear(in_features=1, out_features=4, bias=True)
    (1): GELU()
    (2): Linear(in_features=4, out_features=1, bias=True)
  )
  (in_lin): Sequential(
    (0): Linear(in_features=2, out_features=32, bias=True)
  )
  (layer_cat_lin): Sequential(
    (0): Linear(in_features=194, out_features=32, bias=True)
  )
  (convs): ModuleList(
    (0): PowerfulLayer(
      (m1): Sequential(
        (0): Linear(in_features=32, out_features=32, bias=True)
        (1): LeakyReLU(negative_slope=0.01)
        (2): Linear(in_features=32, out_features=32, bias=True)
      )
      (m2): Sequential(
        (0): Linear(in_features=32, out_features=32, bias=True)
        (1): LeakyReLU(negative_slope=0.01)
        (2): Linear(in_features=32, out_features=32, bias=True)
      )
      (m4): Sequential(
        (0): Linear(in_features=64, out_features=32, bias=True)
      )
    )
    (1): PowerfulLayer(
      (m1): Sequential(
        (0): Linear(in_features=32, out_features=32, bias=True)
        (1): LeakyReLU(negative_slope=0.01)
        (2): Linear(in_features=32, out_features=32, bias=True)
      )
      (m2): Sequential(
        (0): Linear(in_features=32, out_features=32, bias=True)
        (1): LeakyReLU(negative_slope=0.01)
        (2): Linear(in_features=32, out_features=32, bias=True)
      )
      (m4): Sequential(
        (0): Linear(in_features=64, out_features=32, bias=True)
      )
    )
    (2): PowerfulLayer(
      (m1): Sequential(
        (0): Linear(in_features=32, out_features=32, bias=True)
        (1): LeakyReLU(negative_slope=0.01)
        (2): Linear(in_features=32, out_features=32, bias=True)
      )
      (m2): Sequential(
        (0): Linear(in_features=32, out_features=32, bias=True)
        (1): LeakyReLU(negative_slope=0.01)
        (2): Linear(in_features=32, out_features=32, bias=True)
      )
      (m4): Sequential(
        (0): Linear(in_features=64, out_features=32, bias=True)
      )
    )
    (3): PowerfulLayer(
      (m1): Sequential(
        (0): Linear(in_features=32, out_features=32, bias=True)
        (1): LeakyReLU(negative_slope=0.01)
        (2): Linear(in_features=32, out_features=32, bias=True)
      )
      (m2): Sequential(
        (0): Linear(in_features=32, out_features=32, bias=True)
        (1): LeakyReLU(negative_slope=0.01)
        (2): Linear(in_features=32, out_features=32, bias=True)
      )
      (m4): Sequential(
        (0): Linear(in_features=64, out_features=32, bias=True)
      )
    )
    (4): PowerfulLayer(
      (m1): Sequential(
        (0): Linear(in_features=32, out_features=32, bias=True)
        (1): LeakyReLU(negative_slope=0.01)
        (2): Linear(in_features=32, out_features=32, bias=True)
      )
      (m2): Sequential(
        (0): Linear(in_features=32, out_features=32, bias=True)
        (1): LeakyReLU(negative_slope=0.01)
        (2): Linear(in_features=32, out_features=32, bias=True)
      )
      (m4): Sequential(
        (0): Linear(in_features=64, out_features=32, bias=True)
      )
    )
    (5): PowerfulLayer(
      (m1): Sequential(
        (0): Linear(in_features=32, out_features=32, bias=True)
        (1): LeakyReLU(negative_slope=0.01)
        (2): Linear(in_features=32, out_features=32, bias=True)
      )
      (m2): Sequential(
        (0): Linear(in_features=32, out_features=32, bias=True)
        (1): LeakyReLU(negative_slope=0.01)
        (2): Linear(in_features=32, out_features=32, bias=True)
      )
      (m4): Sequential(
        (0): Linear(in_features=64, out_features=32, bias=True)
      )
    )
  )
  (bns): ModuleList(
    (0): None
    (1): None
    (2): None
    (3): None
    (4): None
    (5): None
  )
  (feature_extractors): ModuleList(
    (0): FeatureExtractor(
      (lin1): Sequential(
        (0): Linear(in_features=32, out_features=32, bias=True)
      )
      (lin2): Sequential(
        (0): Linear(in_features=32, out_features=32, bias=False)
      )
      (lin3): Sequential(
        (0): Linear(in_features=32, out_features=32, bias=False)
      )
      (activation): LeakyReLU(negative_slope=0.01)
    )
    (1): FeatureExtractor(
      (lin1): Sequential(
        (0): Linear(in_features=32, out_features=32, bias=True)
      )
      (lin2): Sequential(
        (0): Linear(in_features=32, out_features=32, bias=False)
      )
      (lin3): Sequential(
        (0): Linear(in_features=32, out_features=32, bias=False)
      )
      (activation): LeakyReLU(negative_slope=0.01)
    )
    (2): FeatureExtractor(
      (lin1): Sequential(
        (0): Linear(in_features=32, out_features=32, bias=True)
      )
      (lin2): Sequential(
        (0): Linear(in_features=32, out_features=32, bias=False)
      )
      (lin3): Sequential(
        (0): Linear(in_features=32, out_features=32, bias=False)
      )
      (activation): LeakyReLU(negative_slope=0.01)
    )
    (3): FeatureExtractor(
      (lin1): Sequential(
        (0): Linear(in_features=32, out_features=32, bias=True)
      )
      (lin2): Sequential(
        (0): Linear(in_features=32, out_features=32, bias=False)
      )
      (lin3): Sequential(
        (0): Linear(in_features=32, out_features=32, bias=False)
      )
      (activation): LeakyReLU(negative_slope=0.01)
    )
    (4): FeatureExtractor(
      (lin1): Sequential(
        (0): Linear(in_features=32, out_features=32, bias=True)
      )
      (lin2): Sequential(
        (0): Linear(in_features=32, out_features=32, bias=False)
      )
      (lin3): Sequential(
        (0): Linear(in_features=32, out_features=32, bias=False)
      )
      (activation): LeakyReLU(negative_slope=0.01)
    )
    (5): FeatureExtractor(
      (lin1): Sequential(
        (0): Linear(in_features=32, out_features=32, bias=True)
      )
      (lin2): Sequential(
        (0): Linear(in_features=32, out_features=32, bias=False)
      )
      (lin3): Sequential(
        (0): Linear(in_features=32, out_features=32, bias=False)
      )
      (activation): LeakyReLU(negative_slope=0.01)
    )
  )
  (after_conv): Sequential(
    (0): Linear(in_features=32, out_features=32, bias=True)
  )
  (final_lin): Sequential(
    (0): Linear(in_features=32, out_features=1, bias=True)
  )
)
| 10-16 14:50:16 Parameters: 
time_mlp.0.weight ........................................................................................... torch.Size([4, 1])
time_mlp.0.bias ................................................................................................ torch.Size([4])
time_mlp.2.weight ........................................................................................... torch.Size([1, 4])
…
| 10-16 14:51:14 epoch: 009| time: 5.0s| train loss: +2.507e-02 | test loss: +3.930e-02 | 
| 10-16 14:51:14 epoch: 009| train loss i: nan test loss i: nan | 
| 10-16 14:51:14 epoch: 009| time: 5.0s| train loss: +2.507e-02 | test loss: +3.930e-02 | 
| 10-16 14:51:14 epoch: 009| train loss i: nan test loss i: nan | 
| 10-16 14:51:14 load dataset: ego_small
200
3
[Errno 21] Is a directory: 'exp/ego/ppgn_ego_18_small__Oct-16-14-50-13_11067/models/bestloss'
22
3
2
3
[Errno 21] Is a directory: 'exp/ego/ppgn_ego_18_small__Oct-16-14-50-13_11067/models/best'
22
| 10-16 14:51:15 model: Powerful(
  (activation): LeakyReLU(negative_slope=0.01)
  (time_mlp): Sequential(
    (0): Linear(in_features=1, out_features=4, bias=True)
    (1): GELU()
    (2): Linear(in_features=4, out_features=1, bias=True)
  )
  (in_lin): Sequential(
    (0): Linear(in_features=2, out_features=32, bias=True)
  )
  (layer_cat_lin): Sequential(
    (0): Linear(in_features=194, out_features=32, bias=True)
  )
  (convs): ModuleList(
    (0): PowerfulLayer(
      (m1): Sequential(
        (0): Linear(in_features=32, out_features=32, bias=True)
        (1): LeakyReLU(negative_slope=0.01)
        (2): Linear(in_features=32, out_features=32, bias=True)
      )
      (m2): Sequential(
        (0): Linear(in_features=32, out_features=32, bias=True)
        (1): LeakyReLU(negative_slope=0.01)
        (2): Linear(in_features=32, out_features=32, bias=True)
      )
      (m4): Sequential(
        (0): Linear(in_features=64, out_features=32, bias=True)
      )
    )
    (1): PowerfulLayer(
      (m1): Sequential(
        (0): Linear(in_features=32, out_features=32, bias=True)
        (1): LeakyReLU(negative_slope=0.01)
        (2): Linear(in_features=32, out_features=32, bias=True)
      )
      (m2): Sequential(
        (0): Linear(in_features=32, out_features=32, bias=True)
        (1): LeakyReLU(negative_slope=0.01)
        (2): Linear(in_features=32, out_features=32, bias=True)
      )
      (m4): Sequential(
        (0): Linear(in_features=64, out_features=32, bias=True)
      )
    )
    (2): PowerfulLayer(
      (m1): Sequential(
        (0): Linear(in_features=32, out_features=32, bias=True)
        (1): LeakyReLU(negative_slope=0.01)
        (2): Linear(in_features=32, out_features=32, bias=True)
      )
      (m2): Sequential(
        (0): Linear(in_features=32, out_features=32, bias=True)
        (1): LeakyReLU(negative_slope=0.01)
        (2): Linear(in_features=32, out_features=32, bias=True)
      )
      (m4): Sequential(
        (0): Linear(in_features=64, out_features=32, bias=True)
      )
    )
    (3): PowerfulLayer(
      (m1): Sequential(
        (0): Linear(in_features=32, out_features=32, bias=True)
        (1): LeakyReLU(negative_slope=0.01)
        (2): Linear(in_features=32, out_features=32, bias=True)
      )
      (m2): Sequential(
        (0): Linear(in_features=32, out_features=32, bias=True)
        (1): LeakyReLU(negative_slope=0.01)
        (2): Linear(in_features=32, out_features=32, bias=True)
      )
      (m4): Sequential(
        (0): Linear(in_features=64, out_features=32, bias=True)
      )
    )
    (4): PowerfulLayer(
      (m1): Sequential(
        (0): Linear(in_features=32, out_features=32, bias=True)
        (1): LeakyReLU(negative_slope=0.01)
        (2): Linear(in_features=32, out_features=32, bias=True)
      )
      (m2): Sequential(
        (0): Linear(in_features=32, out_features=32, bias=True)
        (1): LeakyReLU(negative_slope=0.01)
        (2): Linear(in_features=32, out_features=32, bias=True)
      )
      (m4): Sequential(
        (0): Linear(in_features=64, out_features=32, bias=True)
      )
    )
    (5): PowerfulLayer(
      (m1): Sequential(
        (0): Linear(in_features=32, out_features=32, bias=True)
        (1): LeakyReLU(negative_slope=0.01)
        (2): Linear(in_features=32, out_features=32, bias=True)
      )
      (m2): Sequential(
        (0): Linear(in_features=32, out_features=32, bias=True)
        (1): LeakyReLU(negative_slope=0.01)
        (2): Linear(in_features=32, out_features=32, bias=True)
      )
      (m4): Sequential(
        (0): Linear(in_features=64, out_features=32, bias=True)
      )
    )
  )
  (bns): ModuleList(
    (0): None
    (1): None
    (2): None
    (3): None
    (4): None
    (5): None
  )
  (feature_extractors): ModuleList(
    (0): FeatureExtractor(
      (lin1): Sequential(
        (0): Linear(in_features=32, out_features=32, bias=True)
      )
      (lin2): Sequential(
        (0): Linear(in_features=32, out_features=32, bias=False)
      )
      (lin3): Sequential(
        (0): Linear(in_features=32, out_features=32, bias=False)
      )
      (activation): LeakyReLU(negative_slope=0.01)
    )
    (1): FeatureExtractor(
      (lin1): Sequential(
        (0): Linear(in_features=32, out_features=32, bias=True)
      )
      (lin2): Sequential(
        (0): Linear(in_features=32, out_features=32, bias=False)
      )
      (lin3): Sequential(
        (0): Linear(in_features=32, out_features=32, bias=False)
      )
      (activation): LeakyReLU(negative_slope=0.01)
    )
    (2): FeatureExtractor(
      (lin1): Sequential(
        (0): Linear(in_features=32, out_features=32, bias=True)
      )
      (lin2): Sequential(
        (0): Linear(in_features=32, out_features=32, bias=False)
      )
      (lin3): Sequential(
        (0): Linear(in_features=32, out_features=32, bias=False)
      )
      (activation): LeakyReLU(negative_slope=0.01)
    )
    (3): FeatureExtractor(
      (lin1): Sequential(
        (0): Linear(in_features=32, out_features=32, bias=True)
      )
      (lin2): Sequential(
        (0): Linear(in_features=32, out_features=32, bias=False)
      )
      (lin3): Sequential(
        (0): Linear(in_features=32, out_features=32, bias=False)
      )
      (activation): LeakyReLU(negative_slope=0.01)
    )
    (4): FeatureExtractor(
      (lin1): Sequential(
        (0): Linear(in_features=32, out_features=32, bias=True)
      )
      (lin2): Sequential(
        (0): Linear(in_features=32, out_features=32, bias=False)
      )
      (lin3): Sequential(
        (0): Linear(in_features=32, out_features=32, bias=False)
      )
      (activation): LeakyReLU(negative_slope=0.01)
    )
    (5): FeatureExtractor(
      (lin1): Sequential(
        (0): Linear(in_features=32, out_features=32, bias=True)
      )
      (lin2): Sequential(
        (0): Linear(in_features=32, out_features=32, bias=False)
      )
      (lin3): Sequential(
        (0): Linear(in_features=32, out_features=32, bias=False)
      )
      (activation): LeakyReLU(negative_slope=0.01)
    )
  )
  (after_conv): Sequential(
    (0): Linear(in_features=32, out_features=32, bias=True)
  )
  (final_lin): Sequential(
    (0): Linear(in_features=32, out_features=1, bias=True)
  )
)
